<?xml version="1.0" ?>
<net name="mw-A513v2-glb1cls10_yolox-n" version="10">
	<layers>
		<layer id="0" name="2659266319785" type="Const" version="opset1">
			<data offset="0" size="4" shape="" element_type="f32"/>
			<output>
				<port id="0" precision="FP32"/>
			</output>
		</layer>
		<layer id="1" name="2660266420430" type="Const" version="opset1">
			<data offset="4" size="4" shape="" element_type="f32"/>
			<output>
				<port id="0" precision="FP32"/>
			</output>
		</layer>
		<layer id="2" name="2661266519284" type="Const" version="opset1">
			<data offset="0" size="4" shape="" element_type="f32"/>
			<output>
				<port id="0" precision="FP32"/>
			</output>
		</layer>
		<layer id="3" name="2662266620028" type="Const" version="opset1">
			<data offset="4" size="4" shape="" element_type="f32"/>
			<output>
				<port id="0" precision="FP32"/>
			</output>
		</layer>
		<layer id="4" name="2189219321336" type="Const" version="opset1">
			<data offset="8" size="4" shape="" element_type="f32"/>
			<output>
				<port id="0" precision="FP32"/>
			</output>
		</layer>
		<layer id="5" name="2190219421468" type="Const" version="opset1">
			<data offset="12" size="4" shape="" element_type="f32"/>
			<output>
				<port id="0" precision="FP32"/>
			</output>
		</layer>
		<layer id="6" name="2191219519533" type="Const" version="opset1">
			<data offset="8" size="4" shape="" element_type="f32"/>
			<output>
				<port id="0" precision="FP32"/>
			</output>
		</layer>
		<layer id="7" name="2192219620103" type="Const" version="opset1">
			<data offset="12" size="4" shape="" element_type="f32"/>
			<output>
				<port id="0" precision="FP32"/>
			</output>
		</layer>
		<layer id="8" name="3329333319053" type="Const" version="opset1">
			<data offset="16" size="256" shape="1,64,1,1" element_type="f32"/>
			<output>
				<port id="0" precision="FP32">
					<dim>1</dim>
					<dim>64</dim>
					<dim>1</dim>
					<dim>1</dim>
				</port>
			</output>
		</layer>
		<layer id="9" name="3330333420865" type="Const" version="opset1">
			<data offset="272" size="256" shape="1,64,1,1" element_type="f32"/>
			<output>
				<port id="0" precision="FP32">
					<dim>1</dim>
					<dim>64</dim>
					<dim>1</dim>
					<dim>1</dim>
				</port>
			</output>
		</layer>
		<layer id="10" name="3331333518669" type="Const" version="opset1">
			<data offset="16" size="256" shape="1,64,1,1" element_type="f32"/>
			<output>
				<port id="0" precision="FP32">
					<dim>1</dim>
					<dim>64</dim>
					<dim>1</dim>
					<dim>1</dim>
				</port>
			</output>
		</layer>
		<layer id="11" name="3332333618978" type="Const" version="opset1">
			<data offset="272" size="256" shape="1,64,1,1" element_type="f32"/>
			<output>
				<port id="0" precision="FP32">
					<dim>1</dim>
					<dim>64</dim>
					<dim>1</dim>
					<dim>1</dim>
				</port>
			</output>
		</layer>
		<layer id="12" name="2869287318558" type="Const" version="opset1">
			<data offset="528" size="4" shape="" element_type="f32"/>
			<output>
				<port id="0" precision="FP32"/>
			</output>
		</layer>
		<layer id="13" name="2870287418999" type="Const" version="opset1">
			<data offset="532" size="4" shape="" element_type="f32"/>
			<output>
				<port id="0" precision="FP32"/>
			</output>
		</layer>
		<layer id="14" name="2871287521114" type="Const" version="opset1">
			<data offset="528" size="4" shape="" element_type="f32"/>
			<output>
				<port id="0" precision="FP32"/>
			</output>
		</layer>
		<layer id="15" name="2872287619509" type="Const" version="opset1">
			<data offset="532" size="4" shape="" element_type="f32"/>
			<output>
				<port id="0" precision="FP32"/>
			</output>
		</layer>
		<layer id="16" name="2499250320250" type="Const" version="opset1">
			<data offset="536" size="256" shape="1,64,1,1" element_type="f32"/>
			<output>
				<port id="0" precision="FP32">
					<dim>1</dim>
					<dim>64</dim>
					<dim>1</dim>
					<dim>1</dim>
				</port>
			</output>
		</layer>
		<layer id="17" name="2500250420322" type="Const" version="opset1">
			<data offset="792" size="256" shape="1,64,1,1" element_type="f32"/>
			<output>
				<port id="0" precision="FP32">
					<dim>1</dim>
					<dim>64</dim>
					<dim>1</dim>
					<dim>1</dim>
				</port>
			</output>
		</layer>
		<layer id="18" name="2501250520646" type="Const" version="opset1">
			<data offset="536" size="256" shape="1,64,1,1" element_type="f32"/>
			<output>
				<port id="0" precision="FP32">
					<dim>1</dim>
					<dim>64</dim>
					<dim>1</dim>
					<dim>1</dim>
				</port>
			</output>
		</layer>
		<layer id="19" name="2502250620178" type="Const" version="opset1">
			<data offset="792" size="256" shape="1,64,1,1" element_type="f32"/>
			<output>
				<port id="0" precision="FP32">
					<dim>1</dim>
					<dim>64</dim>
					<dim>1</dim>
					<dim>1</dim>
				</port>
			</output>
		</layer>
		<layer id="20" name="3729373320940" type="Const" version="opset1">
			<data offset="1048" size="4" shape="" element_type="f32"/>
			<output>
				<port id="0" precision="FP32"/>
			</output>
		</layer>
		<layer id="21" name="3730373419803" type="Const" version="opset1">
			<data offset="1052" size="4" shape="" element_type="f32"/>
			<output>
				<port id="0" precision="FP32"/>
			</output>
		</layer>
		<layer id="22" name="3731373520208" type="Const" version="opset1">
			<data offset="1048" size="4" shape="" element_type="f32"/>
			<output>
				<port id="0" precision="FP32"/>
			</output>
		</layer>
		<layer id="23" name="3732373618882" type="Const" version="opset1">
			<data offset="1052" size="4" shape="" element_type="f32"/>
			<output>
				<port id="0" precision="FP32"/>
			</output>
		</layer>
		<layer id="24" name="6017602119056" type="Const" version="opset1">
			<data offset="1056" size="4" shape="" element_type="f32"/>
			<output>
				<port id="0" precision="FP32"/>
			</output>
		</layer>
		<layer id="25" name="6018602220181" type="Const" version="opset1">
			<data offset="1060" size="4" shape="" element_type="f32"/>
			<output>
				<port id="0" precision="FP32"/>
			</output>
		</layer>
		<layer id="26" name="6019602320478" type="Const" version="opset1">
			<data offset="1056" size="4" shape="" element_type="f32"/>
			<output>
				<port id="0" precision="FP32"/>
			</output>
		</layer>
		<layer id="27" name="6020602420286" type="Const" version="opset1">
			<data offset="1060" size="4" shape="" element_type="f32"/>
			<output>
				<port id="0" precision="FP32"/>
			</output>
		</layer>
		<layer id="28" name="2419242320727" type="Const" version="opset1">
			<data offset="1064" size="4" shape="" element_type="f32"/>
			<output>
				<port id="0" precision="FP32"/>
			</output>
		</layer>
		<layer id="29" name="2420242421234" type="Const" version="opset1">
			<data offset="1068" size="4" shape="" element_type="f32"/>
			<output>
				<port id="0" precision="FP32"/>
			</output>
		</layer>
		<layer id="30" name="2421242519857" type="Const" version="opset1">
			<data offset="1064" size="4" shape="" element_type="f32"/>
			<output>
				<port id="0" precision="FP32"/>
			</output>
		</layer>
		<layer id="31" name="2422242621258" type="Const" version="opset1">
			<data offset="1068" size="4" shape="" element_type="f32"/>
			<output>
				<port id="0" precision="FP32"/>
			</output>
		</layer>
		<layer id="32" name="3049305319770" type="Const" version="opset1">
			<data offset="1072" size="128" shape="1,32,1,1" element_type="f32"/>
			<output>
				<port id="0" precision="FP32">
					<dim>1</dim>
					<dim>32</dim>
					<dim>1</dim>
					<dim>1</dim>
				</port>
			</output>
		</layer>
		<layer id="33" name="3050305419206" type="Const" version="opset1">
			<data offset="1200" size="128" shape="1,32,1,1" element_type="f32"/>
			<output>
				<port id="0" precision="FP32">
					<dim>1</dim>
					<dim>32</dim>
					<dim>1</dim>
					<dim>1</dim>
				</port>
			</output>
		</layer>
		<layer id="34" name="3051305518861" type="Const" version="opset1">
			<data offset="1072" size="128" shape="1,32,1,1" element_type="f32"/>
			<output>
				<port id="0" precision="FP32">
					<dim>1</dim>
					<dim>32</dim>
					<dim>1</dim>
					<dim>1</dim>
				</port>
			</output>
		</layer>
		<layer id="35" name="3052305618645" type="Const" version="opset1">
			<data offset="1200" size="128" shape="1,32,1,1" element_type="f32"/>
			<output>
				<port id="0" precision="FP32">
					<dim>1</dim>
					<dim>32</dim>
					<dim>1</dim>
					<dim>1</dim>
				</port>
			</output>
		</layer>
		<layer id="36" name="4431443520871" type="Const" version="opset1">
			<data offset="1328" size="4" shape="" element_type="f32"/>
			<output>
				<port id="0" precision="FP32"/>
			</output>
		</layer>
		<layer id="37" name="4432443621489" type="Const" version="opset1">
			<data offset="1332" size="4" shape="" element_type="f32"/>
			<output>
				<port id="0" precision="FP32"/>
			</output>
		</layer>
		<layer id="38" name="4433443719698" type="Const" version="opset1">
			<data offset="1328" size="4" shape="" element_type="f32"/>
			<output>
				<port id="0" precision="FP32"/>
			</output>
		</layer>
		<layer id="39" name="4434443820781" type="Const" version="opset1">
			<data offset="1332" size="4" shape="" element_type="f32"/>
			<output>
				<port id="0" precision="FP32"/>
			</output>
		</layer>
		<layer id="40" name="5987599121216" type="Const" version="opset1">
			<data offset="1336" size="4" shape="" element_type="f32"/>
			<output>
				<port id="0" precision="FP32"/>
			</output>
		</layer>
		<layer id="41" name="5988599219035" type="Const" version="opset1">
			<data offset="1340" size="4" shape="" element_type="f32"/>
			<output>
				<port id="0" precision="FP32"/>
			</output>
		</layer>
		<layer id="42" name="5989599319041" type="Const" version="opset1">
			<data offset="1336" size="4" shape="" element_type="f32"/>
			<output>
				<port id="0" precision="FP32"/>
			</output>
		</layer>
		<layer id="43" name="5990599420769" type="Const" version="opset1">
			<data offset="1340" size="4" shape="" element_type="f32"/>
			<output>
				<port id="0" precision="FP32"/>
			</output>
		</layer>
		<layer id="44" name="5787579121090" type="Const" version="opset1">
			<data offset="1344" size="4" shape="" element_type="f32"/>
			<output>
				<port id="0" precision="FP32"/>
			</output>
		</layer>
		<layer id="45" name="5788579221447" type="Const" version="opset1">
			<data offset="1348" size="4" shape="" element_type="f32"/>
			<output>
				<port id="0" precision="FP32"/>
			</output>
		</layer>
		<layer id="46" name="5789579319860" type="Const" version="opset1">
			<data offset="1344" size="4" shape="" element_type="f32"/>
			<output>
				<port id="0" precision="FP32"/>
			</output>
		</layer>
		<layer id="47" name="5790579420148" type="Const" version="opset1">
			<data offset="1348" size="4" shape="" element_type="f32"/>
			<output>
				<port id="0" precision="FP32"/>
			</output>
		</layer>
		<layer id="48" name="2349235321414" type="Const" version="opset1">
			<data offset="1352" size="4" shape="" element_type="f32"/>
			<output>
				<port id="0" precision="FP32"/>
			</output>
		</layer>
		<layer id="49" name="2350235418807" type="Const" version="opset1">
			<data offset="1356" size="4" shape="" element_type="f32"/>
			<output>
				<port id="0" precision="FP32"/>
			</output>
		</layer>
		<layer id="50" name="2351235519926" type="Const" version="opset1">
			<data offset="1352" size="4" shape="" element_type="f32"/>
			<output>
				<port id="0" precision="FP32"/>
			</output>
		</layer>
		<layer id="51" name="2352235620406" type="Const" version="opset1">
			<data offset="1356" size="4" shape="" element_type="f32"/>
			<output>
				<port id="0" precision="FP32"/>
			</output>
		</layer>
		<layer id="52" name="4089409318600" type="Const" version="opset1">
			<data offset="1360" size="4" shape="" element_type="f32"/>
			<output>
				<port id="0" precision="FP32"/>
			</output>
		</layer>
		<layer id="53" name="4090409418822" type="Const" version="opset1">
			<data offset="1364" size="4" shape="" element_type="f32"/>
			<output>
				<port id="0" precision="FP32"/>
			</output>
		</layer>
		<layer id="54" name="4091409519353" type="Const" version="opset1">
			<data offset="1360" size="4" shape="" element_type="f32"/>
			<output>
				<port id="0" precision="FP32"/>
			</output>
		</layer>
		<layer id="55" name="4092409618981" type="Const" version="opset1">
			<data offset="1364" size="4" shape="" element_type="f32"/>
			<output>
				<port id="0" precision="FP32"/>
			</output>
		</layer>
		<layer id="56" name="4029403320352" type="Const" version="opset1">
			<data offset="1368" size="128" shape="1,32,1,1" element_type="f32"/>
			<output>
				<port id="0" precision="FP32">
					<dim>1</dim>
					<dim>32</dim>
					<dim>1</dim>
					<dim>1</dim>
				</port>
			</output>
		</layer>
		<layer id="57" name="4030403420997" type="Const" version="opset1">
			<data offset="1496" size="128" shape="1,32,1,1" element_type="f32"/>
			<output>
				<port id="0" precision="FP32">
					<dim>1</dim>
					<dim>32</dim>
					<dim>1</dim>
					<dim>1</dim>
				</port>
			</output>
		</layer>
		<layer id="58" name="4031403521147" type="Const" version="opset1">
			<data offset="1368" size="128" shape="1,32,1,1" element_type="f32"/>
			<output>
				<port id="0" precision="FP32">
					<dim>1</dim>
					<dim>32</dim>
					<dim>1</dim>
					<dim>1</dim>
				</port>
			</output>
		</layer>
		<layer id="59" name="4032403620793" type="Const" version="opset1">
			<data offset="1496" size="128" shape="1,32,1,1" element_type="f32"/>
			<output>
				<port id="0" precision="FP32">
					<dim>1</dim>
					<dim>32</dim>
					<dim>1</dim>
					<dim>1</dim>
				</port>
			</output>
		</layer>
		<layer id="60" name="2359236318597" type="Const" version="opset1">
			<data offset="1624" size="4" shape="" element_type="f32"/>
			<output>
				<port id="0" precision="FP32"/>
			</output>
		</layer>
		<layer id="61" name="2360236420298" type="Const" version="opset1">
			<data offset="1628" size="4" shape="" element_type="f32"/>
			<output>
				<port id="0" precision="FP32"/>
			</output>
		</layer>
		<layer id="62" name="2361236519722" type="Const" version="opset1">
			<data offset="1624" size="4" shape="" element_type="f32"/>
			<output>
				<port id="0" precision="FP32"/>
			</output>
		</layer>
		<layer id="63" name="2362236619554" type="Const" version="opset1">
			<data offset="1628" size="4" shape="" element_type="f32"/>
			<output>
				<port id="0" precision="FP32"/>
			</output>
		</layer>
		<layer id="64" name="2639264321183" type="Const" version="opset1">
			<data offset="1632" size="4" shape="" element_type="f32"/>
			<output>
				<port id="0" precision="FP32"/>
			</output>
		</layer>
		<layer id="65" name="2640264419626" type="Const" version="opset1">
			<data offset="1636" size="4" shape="" element_type="f32"/>
			<output>
				<port id="0" precision="FP32"/>
			</output>
		</layer>
		<layer id="66" name="2641264518594" type="Const" version="opset1">
			<data offset="1632" size="4" shape="" element_type="f32"/>
			<output>
				<port id="0" precision="FP32"/>
			</output>
		</layer>
		<layer id="67" name="2642264618927" type="Const" version="opset1">
			<data offset="1636" size="4" shape="" element_type="f32"/>
			<output>
				<port id="0" precision="FP32"/>
			</output>
		</layer>
		<layer id="68" name="2269227321048" type="Const" version="opset1">
			<data offset="1640" size="4" shape="" element_type="f32"/>
			<output>
				<port id="0" precision="FP32"/>
			</output>
		</layer>
		<layer id="69" name="2270227421003" type="Const" version="opset1">
			<data offset="1644" size="4" shape="" element_type="f32"/>
			<output>
				<port id="0" precision="FP32"/>
			</output>
		</layer>
		<layer id="70" name="2271227518702" type="Const" version="opset1">
			<data offset="1640" size="4" shape="" element_type="f32"/>
			<output>
				<port id="0" precision="FP32"/>
			</output>
		</layer>
		<layer id="71" name="2272227621459" type="Const" version="opset1">
			<data offset="1644" size="4" shape="" element_type="f32"/>
			<output>
				<port id="0" precision="FP32"/>
			</output>
		</layer>
		<layer id="72" name="2249225320670" type="Const" version="opset1">
			<data offset="1648" size="128" shape="1,32,1,1" element_type="f32"/>
			<output>
				<port id="0" precision="FP32">
					<dim>1</dim>
					<dim>32</dim>
					<dim>1</dim>
					<dim>1</dim>
				</port>
			</output>
		</layer>
		<layer id="73" name="2250225420724" type="Const" version="opset1">
			<data offset="1776" size="128" shape="1,32,1,1" element_type="f32"/>
			<output>
				<port id="0" precision="FP32">
					<dim>1</dim>
					<dim>32</dim>
					<dim>1</dim>
					<dim>1</dim>
				</port>
			</output>
		</layer>
		<layer id="74" name="2251225520502" type="Const" version="opset1">
			<data offset="1648" size="128" shape="1,32,1,1" element_type="f32"/>
			<output>
				<port id="0" precision="FP32">
					<dim>1</dim>
					<dim>32</dim>
					<dim>1</dim>
					<dim>1</dim>
				</port>
			</output>
		</layer>
		<layer id="75" name="2252225618633" type="Const" version="opset1">
			<data offset="1776" size="128" shape="1,32,1,1" element_type="f32"/>
			<output>
				<port id="0" precision="FP32">
					<dim>1</dim>
					<dim>32</dim>
					<dim>1</dim>
					<dim>1</dim>
				</port>
			</output>
		</layer>
		<layer id="76" name="2649265320655" type="Const" version="opset1">
			<data offset="1904" size="4" shape="" element_type="f32"/>
			<output>
				<port id="0" precision="FP32"/>
			</output>
		</layer>
		<layer id="77" name="2650265419518" type="Const" version="opset1">
			<data offset="1908" size="4" shape="" element_type="f32"/>
			<output>
				<port id="0" precision="FP32"/>
			</output>
		</layer>
		<layer id="78" name="2651265521483" type="Const" version="opset1">
			<data offset="1904" size="4" shape="" element_type="f32"/>
			<output>
				<port id="0" precision="FP32"/>
			</output>
		</layer>
		<layer id="79" name="2652265620484" type="Const" version="opset1">
			<data offset="1908" size="4" shape="" element_type="f32"/>
			<output>
				<port id="0" precision="FP32"/>
			</output>
		</layer>
		<layer id="80" name="3169317318873" type="Const" version="opset1">
			<data offset="1912" size="4" shape="" element_type="f32"/>
			<output>
				<port id="0" precision="FP32"/>
			</output>
		</layer>
		<layer id="81" name="3170317419305" type="Const" version="opset1">
			<data offset="1916" size="4" shape="" element_type="f32"/>
			<output>
				<port id="0" precision="FP32"/>
			</output>
		</layer>
		<layer id="82" name="3171317519455" type="Const" version="opset1">
			<data offset="1912" size="4" shape="" element_type="f32"/>
			<output>
				<port id="0" precision="FP32"/>
			</output>
		</layer>
		<layer id="83" name="3172317620757" type="Const" version="opset1">
			<data offset="1916" size="4" shape="" element_type="f32"/>
			<output>
				<port id="0" precision="FP32"/>
			</output>
		</layer>
		<layer id="84" name="3649365318567" type="Const" version="opset1">
			<data offset="1920" size="4" shape="" element_type="f32"/>
			<output>
				<port id="0" precision="FP32"/>
			</output>
		</layer>
		<layer id="85" name="3650365421174" type="Const" version="opset1">
			<data offset="1924" size="4" shape="" element_type="f32"/>
			<output>
				<port id="0" precision="FP32"/>
			</output>
		</layer>
		<layer id="86" name="3651365519524" type="Const" version="opset1">
			<data offset="1920" size="4" shape="" element_type="f32"/>
			<output>
				<port id="0" precision="FP32"/>
			</output>
		</layer>
		<layer id="87" name="3652365621237" type="Const" version="opset1">
			<data offset="1924" size="4" shape="" element_type="f32"/>
			<output>
				<port id="0" precision="FP32"/>
			</output>
		</layer>
		<layer id="88" name="4109411320625" type="Const" version="opset1">
			<data offset="1928" size="128" shape="1,32,1,1" element_type="f32"/>
			<output>
				<port id="0" precision="FP32">
					<dim>1</dim>
					<dim>32</dim>
					<dim>1</dim>
					<dim>1</dim>
				</port>
			</output>
		</layer>
		<layer id="89" name="4110411420136" type="Const" version="opset1">
			<data offset="2056" size="128" shape="1,32,1,1" element_type="f32"/>
			<output>
				<port id="0" precision="FP32">
					<dim>1</dim>
					<dim>32</dim>
					<dim>1</dim>
					<dim>1</dim>
				</port>
			</output>
		</layer>
		<layer id="90" name="4111411520073" type="Const" version="opset1">
			<data offset="1928" size="128" shape="1,32,1,1" element_type="f32"/>
			<output>
				<port id="0" precision="FP32">
					<dim>1</dim>
					<dim>32</dim>
					<dim>1</dim>
					<dim>1</dim>
				</port>
			</output>
		</layer>
		<layer id="91" name="4112411620832" type="Const" version="opset1">
			<data offset="2056" size="128" shape="1,32,1,1" element_type="f32"/>
			<output>
				<port id="0" precision="FP32">
					<dim>1</dim>
					<dim>32</dim>
					<dim>1</dim>
					<dim>1</dim>
				</port>
			</output>
		</layer>
		<layer id="92" name="3179318319365" type="Const" version="opset1">
			<data offset="2184" size="4" shape="" element_type="f32"/>
			<output>
				<port id="0" precision="FP32"/>
			</output>
		</layer>
		<layer id="93" name="3180318420667" type="Const" version="opset1">
			<data offset="2188" size="4" shape="" element_type="f32"/>
			<output>
				<port id="0" precision="FP32"/>
			</output>
		</layer>
		<layer id="94" name="3181318519689" type="Const" version="opset1">
			<data offset="2184" size="4" shape="" element_type="f32"/>
			<output>
				<port id="0" precision="FP32"/>
			</output>
		</layer>
		<layer id="95" name="3182318621078" type="Const" version="opset1">
			<data offset="2188" size="4" shape="" element_type="f32"/>
			<output>
				<port id="0" precision="FP32"/>
			</output>
		</layer>
		<layer id="96" name="4491449518621" type="Const" version="opset1">
			<data offset="2192" size="4" shape="" element_type="f32"/>
			<output>
				<port id="0" precision="FP32"/>
			</output>
		</layer>
		<layer id="97" name="4492449619110" type="Const" version="opset1">
			<data offset="2196" size="4" shape="" element_type="f32"/>
			<output>
				<port id="0" precision="FP32"/>
			</output>
		</layer>
		<layer id="98" name="4493449719194" type="Const" version="opset1">
			<data offset="2192" size="4" shape="" element_type="f32"/>
			<output>
				<port id="0" precision="FP32"/>
			</output>
		</layer>
		<layer id="99" name="4494449820271" type="Const" version="opset1">
			<data offset="2196" size="4" shape="" element_type="f32"/>
			<output>
				<port id="0" precision="FP32"/>
			</output>
		</layer>
		<layer id="100" name="3929393318681" type="Const" version="opset1">
			<data offset="2200" size="4" shape="" element_type="f32"/>
			<output>
				<port id="0" precision="FP32"/>
			</output>
		</layer>
		<layer id="101" name="3930393421141" type="Const" version="opset1">
			<data offset="2204" size="4" shape="" element_type="f32"/>
			<output>
				<port id="0" precision="FP32"/>
			</output>
		</layer>
		<layer id="102" name="3931393520505" type="Const" version="opset1">
			<data offset="2200" size="4" shape="" element_type="f32"/>
			<output>
				<port id="0" precision="FP32"/>
			</output>
		</layer>
		<layer id="103" name="3932393620076" type="Const" version="opset1">
			<data offset="2204" size="4" shape="" element_type="f32"/>
			<output>
				<port id="0" precision="FP32"/>
			</output>
		</layer>
		<layer id="104" name="2129213318726" type="Const" version="opset1">
			<data offset="2208" size="128" shape="1,32,1,1" element_type="f32"/>
			<output>
				<port id="0" precision="FP32">
					<dim>1</dim>
					<dim>32</dim>
					<dim>1</dim>
					<dim>1</dim>
				</port>
			</output>
		</layer>
		<layer id="105" name="2130213419047" type="Const" version="opset1">
			<data offset="2336" size="128" shape="1,32,1,1" element_type="f32"/>
			<output>
				<port id="0" precision="FP32">
					<dim>1</dim>
					<dim>32</dim>
					<dim>1</dim>
					<dim>1</dim>
				</port>
			</output>
		</layer>
		<layer id="106" name="2131213519200" type="Const" version="opset1">
			<data offset="2208" size="128" shape="1,32,1,1" element_type="f32"/>
			<output>
				<port id="0" precision="FP32">
					<dim>1</dim>
					<dim>32</dim>
					<dim>1</dim>
					<dim>1</dim>
				</port>
			</output>
		</layer>
		<layer id="107" name="2132213620634" type="Const" version="opset1">
			<data offset="2336" size="128" shape="1,32,1,1" element_type="f32"/>
			<output>
				<port id="0" precision="FP32">
					<dim>1</dim>
					<dim>32</dim>
					<dim>1</dim>
					<dim>1</dim>
				</port>
			</output>
		</layer>
		<layer id="108" name="6277628119440" type="Const" version="opset1">
			<data offset="2464" size="4" shape="" element_type="f32"/>
			<output>
				<port id="0" precision="FP32"/>
			</output>
		</layer>
		<layer id="109" name="6278628219155" type="Const" version="opset1">
			<data offset="2468" size="4" shape="" element_type="f32"/>
			<output>
				<port id="0" precision="FP32"/>
			</output>
		</layer>
		<layer id="110" name="6279628320901" type="Const" version="opset1">
			<data offset="2464" size="4" shape="" element_type="f32"/>
			<output>
				<port id="0" precision="FP32"/>
			</output>
		</layer>
		<layer id="111" name="6280628420535" type="Const" version="opset1">
			<data offset="2468" size="4" shape="" element_type="f32"/>
			<output>
				<port id="0" precision="FP32"/>
			</output>
		</layer>
		<layer id="112" name="3229323319368" type="Const" version="opset1">
			<data offset="2472" size="4" shape="" element_type="f32"/>
			<output>
				<port id="0" precision="FP32"/>
			</output>
		</layer>
		<layer id="113" name="3230323420124" type="Const" version="opset1">
			<data offset="2476" size="4" shape="" element_type="f32"/>
			<output>
				<port id="0" precision="FP32"/>
			</output>
		</layer>
		<layer id="114" name="3231323520433" type="Const" version="opset1">
			<data offset="2472" size="4" shape="" element_type="f32"/>
			<output>
				<port id="0" precision="FP32"/>
			</output>
		</layer>
		<layer id="115" name="3232323619380" type="Const" version="opset1">
			<data offset="2476" size="4" shape="" element_type="f32"/>
			<output>
				<port id="0" precision="FP32"/>
			</output>
		</layer>
		<layer id="116" name="2949295320637" type="Const" version="opset1">
			<data offset="2480" size="4" shape="" element_type="f32"/>
			<output>
				<port id="0" precision="FP32"/>
			</output>
		</layer>
		<layer id="117" name="2950295420109" type="Const" version="opset1">
			<data offset="2484" size="4" shape="" element_type="f32"/>
			<output>
				<port id="0" precision="FP32"/>
			</output>
		</layer>
		<layer id="118" name="2951295520562" type="Const" version="opset1">
			<data offset="2480" size="4" shape="" element_type="f32"/>
			<output>
				<port id="0" precision="FP32"/>
			</output>
		</layer>
		<layer id="119" name="2952295618759" type="Const" version="opset1">
			<data offset="2484" size="4" shape="" element_type="f32"/>
			<output>
				<port id="0" precision="FP32"/>
			</output>
		</layer>
		<layer id="120" name="3129313319971" type="Const" version="opset1">
			<data offset="2488" size="64" shape="1,16,1,1" element_type="f32"/>
			<output>
				<port id="0" precision="FP32">
					<dim>1</dim>
					<dim>16</dim>
					<dim>1</dim>
					<dim>1</dim>
				</port>
			</output>
		</layer>
		<layer id="121" name="3130313418786" type="Const" version="opset1">
			<data offset="2552" size="64" shape="1,16,1,1" element_type="f32"/>
			<output>
				<port id="0" precision="FP32">
					<dim>1</dim>
					<dim>16</dim>
					<dim>1</dim>
					<dim>1</dim>
				</port>
			</output>
		</layer>
		<layer id="122" name="3131313518789" type="Const" version="opset1">
			<data offset="2488" size="64" shape="1,16,1,1" element_type="f32"/>
			<output>
				<port id="0" precision="FP32">
					<dim>1</dim>
					<dim>16</dim>
					<dim>1</dim>
					<dim>1</dim>
				</port>
			</output>
		</layer>
		<layer id="123" name="3132313619239" type="Const" version="opset1">
			<data offset="2552" size="64" shape="1,16,1,1" element_type="f32"/>
			<output>
				<port id="0" precision="FP32">
					<dim>1</dim>
					<dim>16</dim>
					<dim>1</dim>
					<dim>1</dim>
				</port>
			</output>
		</layer>
		<layer id="124" name="3239324319596" type="Const" version="opset1">
			<data offset="2616" size="4" shape="" element_type="f32"/>
			<output>
				<port id="0" precision="FP32"/>
			</output>
		</layer>
		<layer id="125" name="3240324421453" type="Const" version="opset1">
			<data offset="2620" size="4" shape="" element_type="f32"/>
			<output>
				<port id="0" precision="FP32"/>
			</output>
		</layer>
		<layer id="126" name="3241324520760" type="Const" version="opset1">
			<data offset="2616" size="4" shape="" element_type="f32"/>
			<output>
				<port id="0" precision="FP32"/>
			</output>
		</layer>
		<layer id="127" name="3242324621279" type="Const" version="opset1">
			<data offset="2620" size="4" shape="" element_type="f32"/>
			<output>
				<port id="0" precision="FP32"/>
			</output>
		</layer>
		<layer id="128" name="3969397319002" type="Const" version="opset1">
			<data offset="2624" size="4" shape="" element_type="f32"/>
			<output>
				<port id="0" precision="FP32"/>
			</output>
		</layer>
		<layer id="129" name="3970397420745" type="Const" version="opset1">
			<data offset="2628" size="4" shape="" element_type="f32"/>
			<output>
				<port id="0" precision="FP32"/>
			</output>
		</layer>
		<layer id="130" name="3971397520013" type="Const" version="opset1">
			<data offset="2624" size="4" shape="" element_type="f32"/>
			<output>
				<port id="0" precision="FP32"/>
			</output>
		</layer>
		<layer id="131" name="3972397621000" type="Const" version="opset1">
			<data offset="2628" size="4" shape="" element_type="f32"/>
			<output>
				<port id="0" precision="FP32"/>
			</output>
		</layer>
		<layer id="132" name="3489349321207" type="Const" version="opset1">
			<data offset="2632" size="4" shape="" element_type="f32"/>
			<output>
				<port id="0" precision="FP32"/>
			</output>
		</layer>
		<layer id="133" name="3490349419587" type="Const" version="opset1">
			<data offset="2636" size="4" shape="" element_type="f32"/>
			<output>
				<port id="0" precision="FP32"/>
			</output>
		</layer>
		<layer id="134" name="3491349520079" type="Const" version="opset1">
			<data offset="2632" size="4" shape="" element_type="f32"/>
			<output>
				<port id="0" precision="FP32"/>
			</output>
		</layer>
		<layer id="135" name="3492349619941" type="Const" version="opset1">
			<data offset="2636" size="4" shape="" element_type="f32"/>
			<output>
				<port id="0" precision="FP32"/>
			</output>
		</layer>
		<layer id="136" name="3549355319032" type="Const" version="opset1">
			<data offset="2640" size="64" shape="1,16,1,1" element_type="f32"/>
			<output>
				<port id="0" precision="FP32">
					<dim>1</dim>
					<dim>16</dim>
					<dim>1</dim>
					<dim>1</dim>
				</port>
			</output>
		</layer>
		<layer id="137" name="3550355420052" type="Const" version="opset1">
			<data offset="2704" size="64" shape="1,16,1,1" element_type="f32"/>
			<output>
				<port id="0" precision="FP32">
					<dim>1</dim>
					<dim>16</dim>
					<dim>1</dim>
					<dim>1</dim>
				</port>
			</output>
		</layer>
		<layer id="138" name="3551355518642" type="Const" version="opset1">
			<data offset="2640" size="64" shape="1,16,1,1" element_type="f32"/>
			<output>
				<port id="0" precision="FP32">
					<dim>1</dim>
					<dim>16</dim>
					<dim>1</dim>
					<dim>1</dim>
				</port>
			</output>
		</layer>
		<layer id="139" name="3552355619506" type="Const" version="opset1">
			<data offset="2704" size="64" shape="1,16,1,1" element_type="f32"/>
			<output>
				<port id="0" precision="FP32">
					<dim>1</dim>
					<dim>16</dim>
					<dim>1</dim>
					<dim>1</dim>
				</port>
			</output>
		</layer>
		<layer id="140" name="6227623121015" type="Const" version="opset1">
			<data offset="2768" size="4" shape="" element_type="f32"/>
			<output>
				<port id="0" precision="FP32"/>
			</output>
		</layer>
		<layer id="141" name="6228623220619" type="Const" version="opset1">
			<data offset="2772" size="4" shape="" element_type="f32"/>
			<output>
				<port id="0" precision="FP32"/>
			</output>
		</layer>
		<layer id="142" name="6229623320640" type="Const" version="opset1">
			<data offset="2768" size="4" shape="" element_type="f32"/>
			<output>
				<port id="0" precision="FP32"/>
			</output>
		</layer>
		<layer id="143" name="6230623420211" type="Const" version="opset1">
			<data offset="2772" size="4" shape="" element_type="f32"/>
			<output>
				<port id="0" precision="FP32"/>
			</output>
		</layer>
		<layer id="144" name="images" type="Parameter" version="opset1">
			<data shape="1,3,416,416" element_type="f32"/>
			<output>
				<port id="0" precision="FP32" names="images">
					<dim>1</dim>
					<dim>3</dim>
					<dim>416</dim>
					<dim>416</dim>
				</port>
			</output>
		</layer>
		<layer id="145" name="Slice_14/fq_input_0" type="FakeQuantize" version="opset1">
			<data levels="256" auto_broadcast="numpy"/>
			<input>
				<port id="0">
					<dim>1</dim>
					<dim>3</dim>
					<dim>416</dim>
					<dim>416</dim>
				</port>
				<port id="1"/>
				<port id="2"/>
				<port id="3"/>
				<port id="4"/>
			</input>
			<output>
				<port id="5" precision="FP32">
					<dim>1</dim>
					<dim>3</dim>
					<dim>416</dim>
					<dim>416</dim>
				</port>
			</output>
		</layer>
		<layer id="146" name="Slice_34/Concat630921493688" type="Const" version="opset1">
			<data offset="2776" size="32" shape="4" element_type="i64"/>
			<output>
				<port id="0" precision="I64">
					<dim>4</dim>
				</port>
			</output>
		</layer>
		<layer id="147" name="Slice_34/Concat6293631021202689" type="Const" version="opset1">
			<data offset="2808" size="32" shape="4" element_type="i64"/>
			<output>
				<port id="0" precision="I64">
					<dim>4</dim>
				</port>
			</output>
		</layer>
		<layer id="148" name="Slice_34/Strides631121214690" type="Const" version="opset1">
			<data offset="2840" size="32" shape="4" element_type="i64"/>
			<output>
				<port id="0" precision="I64">
					<dim>4</dim>
				</port>
			</output>
		</layer>
		<layer id="149" name="Slice_34" type="StridedSlice" version="opset1">
			<data begin_mask="1,1,0,1" end_mask="1,1,0,1" new_axis_mask="0,0,0,0" shrink_axis_mask="0,0,0,0" ellipsis_mask="0,0,0,0"/>
			<input>
				<port id="0">
					<dim>1</dim>
					<dim>3</dim>
					<dim>416</dim>
					<dim>416</dim>
				</port>
				<port id="1">
					<dim>4</dim>
				</port>
				<port id="2">
					<dim>4</dim>
				</port>
				<port id="3">
					<dim>4</dim>
				</port>
			</input>
			<output>
				<port id="4" precision="FP32" names="677">
					<dim>1</dim>
					<dim>3</dim>
					<dim>208</dim>
					<dim>416</dim>
				</port>
			</output>
		</layer>
		<layer id="150" name="Slice_39/Concat635721763692" type="Const" version="opset1">
			<data offset="2872" size="32" shape="4" element_type="i64"/>
			<output>
				<port id="0" precision="I64">
					<dim>4</dim>
				</port>
			</output>
		</layer>
		<layer id="151" name="Slice_39/Concat6341635821439693" type="Const" version="opset1">
			<data offset="2904" size="32" shape="4" element_type="i64"/>
			<output>
				<port id="0" precision="I64">
					<dim>4</dim>
				</port>
			</output>
		</layer>
		<layer id="152" name="Slice_39/Strides635921289694" type="Const" version="opset1">
			<data offset="2936" size="32" shape="4" element_type="i64"/>
			<output>
				<port id="0" precision="I64">
					<dim>4</dim>
				</port>
			</output>
		</layer>
		<layer id="153" name="Slice_39" type="StridedSlice" version="opset1">
			<data begin_mask="1,1,1,0" end_mask="1,1,1,0" new_axis_mask="0,0,0,0" shrink_axis_mask="0,0,0,0" ellipsis_mask="0,0,0,0"/>
			<input>
				<port id="0">
					<dim>1</dim>
					<dim>3</dim>
					<dim>208</dim>
					<dim>416</dim>
				</port>
				<port id="1">
					<dim>4</dim>
				</port>
				<port id="2">
					<dim>4</dim>
				</port>
				<port id="3">
					<dim>4</dim>
				</port>
			</input>
			<output>
				<port id="4" precision="FP32" names="682">
					<dim>1</dim>
					<dim>3</dim>
					<dim>208</dim>
					<dim>208</dim>
				</port>
			</output>
		</layer>
		<layer id="154" name="Slice_14/Concat611721787680" type="Const" version="opset1">
			<data offset="2968" size="32" shape="4" element_type="i64"/>
			<output>
				<port id="0" precision="I64">
					<dim>4</dim>
				</port>
			</output>
		</layer>
		<layer id="155" name="Slice_14/Concat6101611821451681" type="Const" version="opset1">
			<data offset="2808" size="32" shape="4" element_type="i64"/>
			<output>
				<port id="0" precision="I64">
					<dim>4</dim>
				</port>
			</output>
		</layer>
		<layer id="156" name="Slice_14/Strides611921442682" type="Const" version="opset1">
			<data offset="2840" size="32" shape="4" element_type="i64"/>
			<output>
				<port id="0" precision="I64">
					<dim>4</dim>
				</port>
			</output>
		</layer>
		<layer id="157" name="Slice_14" type="StridedSlice" version="opset1">
			<data begin_mask="1,1,0,1" end_mask="1,1,0,1" new_axis_mask="0,0,0,0" shrink_axis_mask="0,0,0,0" ellipsis_mask="0,0,0,0"/>
			<input>
				<port id="0">
					<dim>1</dim>
					<dim>3</dim>
					<dim>416</dim>
					<dim>416</dim>
				</port>
				<port id="1">
					<dim>4</dim>
				</port>
				<port id="2">
					<dim>4</dim>
				</port>
				<port id="3">
					<dim>4</dim>
				</port>
			</input>
			<output>
				<port id="4" precision="FP32" names="657">
					<dim>1</dim>
					<dim>3</dim>
					<dim>208</dim>
					<dim>416</dim>
				</port>
			</output>
		</layer>
		<layer id="158" name="Slice_19/Concat616521019684" type="Const" version="opset1">
			<data offset="2872" size="32" shape="4" element_type="i64"/>
			<output>
				<port id="0" precision="I64">
					<dim>4</dim>
				</port>
			</output>
		</layer>
		<layer id="159" name="Slice_19/Concat6149616621670685" type="Const" version="opset1">
			<data offset="2904" size="32" shape="4" element_type="i64"/>
			<output>
				<port id="0" precision="I64">
					<dim>4</dim>
				</port>
			</output>
		</layer>
		<layer id="160" name="Slice_19/Strides616721472686" type="Const" version="opset1">
			<data offset="2936" size="32" shape="4" element_type="i64"/>
			<output>
				<port id="0" precision="I64">
					<dim>4</dim>
				</port>
			</output>
		</layer>
		<layer id="161" name="Slice_19" type="StridedSlice" version="opset1">
			<data begin_mask="1,1,1,0" end_mask="1,1,1,0" new_axis_mask="0,0,0,0" shrink_axis_mask="0,0,0,0" ellipsis_mask="0,0,0,0"/>
			<input>
				<port id="0">
					<dim>1</dim>
					<dim>3</dim>
					<dim>208</dim>
					<dim>416</dim>
				</port>
				<port id="1">
					<dim>4</dim>
				</port>
				<port id="2">
					<dim>4</dim>
				</port>
				<port id="3">
					<dim>4</dim>
				</port>
			</input>
			<output>
				<port id="4" precision="FP32" names="662">
					<dim>1</dim>
					<dim>3</dim>
					<dim>208</dim>
					<dim>208</dim>
				</port>
			</output>
		</layer>
		<layer id="162" name="Slice_24/Concat621321235672" type="Const" version="opset1">
			<data offset="2776" size="32" shape="4" element_type="i64"/>
			<output>
				<port id="0" precision="I64">
					<dim>4</dim>
				</port>
			</output>
		</layer>
		<layer id="163" name="Slice_24/Concat6197621421052673" type="Const" version="opset1">
			<data offset="2808" size="32" shape="4" element_type="i64"/>
			<output>
				<port id="0" precision="I64">
					<dim>4</dim>
				</port>
			</output>
		</layer>
		<layer id="164" name="Slice_24/Strides621521799674" type="Const" version="opset1">
			<data offset="2840" size="32" shape="4" element_type="i64"/>
			<output>
				<port id="0" precision="I64">
					<dim>4</dim>
				</port>
			</output>
		</layer>
		<layer id="165" name="Slice_24" type="StridedSlice" version="opset1">
			<data begin_mask="1,1,0,1" end_mask="1,1,0,1" new_axis_mask="0,0,0,0" shrink_axis_mask="0,0,0,0" ellipsis_mask="0,0,0,0"/>
			<input>
				<port id="0">
					<dim>1</dim>
					<dim>3</dim>
					<dim>416</dim>
					<dim>416</dim>
				</port>
				<port id="1">
					<dim>4</dim>
				</port>
				<port id="2">
					<dim>4</dim>
				</port>
				<port id="3">
					<dim>4</dim>
				</port>
			</input>
			<output>
				<port id="4" precision="FP32" names="667">
					<dim>1</dim>
					<dim>3</dim>
					<dim>208</dim>
					<dim>416</dim>
				</port>
			</output>
		</layer>
		<layer id="166" name="Slice_29/Concat626121559676" type="Const" version="opset1">
			<data offset="2968" size="32" shape="4" element_type="i64"/>
			<output>
				<port id="0" precision="I64">
					<dim>4</dim>
				</port>
			</output>
		</layer>
		<layer id="167" name="Slice_29/Concat6245626221094677" type="Const" version="opset1">
			<data offset="2904" size="32" shape="4" element_type="i64"/>
			<output>
				<port id="0" precision="I64">
					<dim>4</dim>
				</port>
			</output>
		</layer>
		<layer id="168" name="Slice_29/Strides626321163678" type="Const" version="opset1">
			<data offset="2936" size="32" shape="4" element_type="i64"/>
			<output>
				<port id="0" precision="I64">
					<dim>4</dim>
				</port>
			</output>
		</layer>
		<layer id="169" name="Slice_29" type="StridedSlice" version="opset1">
			<data begin_mask="1,1,1,0" end_mask="1,1,1,0" new_axis_mask="0,0,0,0" shrink_axis_mask="0,0,0,0" ellipsis_mask="0,0,0,0"/>
			<input>
				<port id="0">
					<dim>1</dim>
					<dim>3</dim>
					<dim>208</dim>
					<dim>416</dim>
				</port>
				<port id="1">
					<dim>4</dim>
				</port>
				<port id="2">
					<dim>4</dim>
				</port>
				<port id="3">
					<dim>4</dim>
				</port>
			</input>
			<output>
				<port id="4" precision="FP32" names="672">
					<dim>1</dim>
					<dim>3</dim>
					<dim>208</dim>
					<dim>208</dim>
				</port>
			</output>
		</layer>
		<layer id="170" name="Slice_4/Concat602121802664" type="Const" version="opset1">
			<data offset="2968" size="32" shape="4" element_type="i64"/>
			<output>
				<port id="0" precision="I64">
					<dim>4</dim>
				</port>
			</output>
		</layer>
		<layer id="171" name="Slice_4/Concat6005602221784665" type="Const" version="opset1">
			<data offset="2808" size="32" shape="4" element_type="i64"/>
			<output>
				<port id="0" precision="I64">
					<dim>4</dim>
				</port>
			</output>
		</layer>
		<layer id="172" name="Slice_4/Strides602321520666" type="Const" version="opset1">
			<data offset="2840" size="32" shape="4" element_type="i64"/>
			<output>
				<port id="0" precision="I64">
					<dim>4</dim>
				</port>
			</output>
		</layer>
		<layer id="173" name="Slice_4" type="StridedSlice" version="opset1">
			<data begin_mask="1,1,0,1" end_mask="1,1,0,1" new_axis_mask="0,0,0,0" shrink_axis_mask="0,0,0,0" ellipsis_mask="0,0,0,0"/>
			<input>
				<port id="0">
					<dim>1</dim>
					<dim>3</dim>
					<dim>416</dim>
					<dim>416</dim>
				</port>
				<port id="1">
					<dim>4</dim>
				</port>
				<port id="2">
					<dim>4</dim>
				</port>
				<port id="3">
					<dim>4</dim>
				</port>
			</input>
			<output>
				<port id="4" precision="FP32" names="647">
					<dim>1</dim>
					<dim>3</dim>
					<dim>208</dim>
					<dim>416</dim>
				</port>
			</output>
		</layer>
		<layer id="174" name="Slice_9/Concat606921118668" type="Const" version="opset1">
			<data offset="2968" size="32" shape="4" element_type="i64"/>
			<output>
				<port id="0" precision="I64">
					<dim>4</dim>
				</port>
			</output>
		</layer>
		<layer id="175" name="Slice_9/Concat6053607021733669" type="Const" version="opset1">
			<data offset="2904" size="32" shape="4" element_type="i64"/>
			<output>
				<port id="0" precision="I64">
					<dim>4</dim>
				</port>
			</output>
		</layer>
		<layer id="176" name="Slice_9/Strides607121031670" type="Const" version="opset1">
			<data offset="2936" size="32" shape="4" element_type="i64"/>
			<output>
				<port id="0" precision="I64">
					<dim>4</dim>
				</port>
			</output>
		</layer>
		<layer id="177" name="Slice_9" type="StridedSlice" version="opset1">
			<data begin_mask="1,1,1,0" end_mask="1,1,1,0" new_axis_mask="0,0,0,0" shrink_axis_mask="0,0,0,0" ellipsis_mask="0,0,0,0"/>
			<input>
				<port id="0">
					<dim>1</dim>
					<dim>3</dim>
					<dim>208</dim>
					<dim>416</dim>
				</port>
				<port id="1">
					<dim>4</dim>
				</port>
				<port id="2">
					<dim>4</dim>
				</port>
				<port id="3">
					<dim>4</dim>
				</port>
			</input>
			<output>
				<port id="4" precision="FP32" names="652">
					<dim>1</dim>
					<dim>3</dim>
					<dim>208</dim>
					<dim>208</dim>
				</port>
			</output>
		</layer>
		<layer id="178" name="Concat_40" type="Concat" version="opset1">
			<data axis="1"/>
			<input>
				<port id="0">
					<dim>1</dim>
					<dim>3</dim>
					<dim>208</dim>
					<dim>208</dim>
				</port>
				<port id="1">
					<dim>1</dim>
					<dim>3</dim>
					<dim>208</dim>
					<dim>208</dim>
				</port>
				<port id="2">
					<dim>1</dim>
					<dim>3</dim>
					<dim>208</dim>
					<dim>208</dim>
				</port>
				<port id="3">
					<dim>1</dim>
					<dim>3</dim>
					<dim>208</dim>
					<dim>208</dim>
				</port>
			</input>
			<output>
				<port id="4" precision="FP32" names="683">
					<dim>1</dim>
					<dim>12</dim>
					<dim>208</dim>
					<dim>208</dim>
				</port>
			</output>
		</layer>
		<layer id="179" name="11786979964/quantized1328319656" type="Const" version="opset1">
			<data offset="3000" size="1728" shape="16,12,3,3" element_type="i8"/>
			<output>
				<port id="0" precision="I8">
					<dim>16</dim>
					<dim>12</dim>
					<dim>3</dim>
					<dim>3</dim>
				</port>
			</output>
		</layer>
		<layer id="180" name="11786979964/quantized/to_f32" type="Convert" version="opset1">
			<data destination_type="f32"/>
			<input>
				<port id="0">
					<dim>16</dim>
					<dim>12</dim>
					<dim>3</dim>
					<dim>3</dim>
				</port>
			</input>
			<output>
				<port id="1" precision="FP32">
					<dim>16</dim>
					<dim>12</dim>
					<dim>3</dim>
					<dim>3</dim>
				</port>
			</output>
		</layer>
		<layer id="181" name="Conv_41/WithoutBiases/fq_weights_1/zero_point1330219512" type="Const" version="opset1">
			<data offset="4728" size="64" shape="16,1,1,1" element_type="f32"/>
			<output>
				<port id="0" precision="FP32">
					<dim>16</dim>
					<dim>1</dim>
					<dim>1</dim>
					<dim>1</dim>
				</port>
			</output>
		</layer>
		<layer id="182" name="Conv_41/WithoutBiases/fq_weights_1/minus_zp" type="Subtract" version="opset1">
			<data auto_broadcast="numpy"/>
			<input>
				<port id="0">
					<dim>16</dim>
					<dim>12</dim>
					<dim>3</dim>
					<dim>3</dim>
				</port>
				<port id="1">
					<dim>16</dim>
					<dim>1</dim>
					<dim>1</dim>
					<dim>1</dim>
				</port>
			</input>
			<output>
				<port id="2" precision="FP32">
					<dim>16</dim>
					<dim>12</dim>
					<dim>3</dim>
					<dim>3</dim>
				</port>
			</output>
		</layer>
		<layer id="183" name="Conv_41/WithoutBiases/fq_weights_1/scale1329120046" type="Const" version="opset1">
			<data offset="4792" size="64" shape="16,1,1,1" element_type="f32"/>
			<output>
				<port id="0" precision="FP32">
					<dim>16</dim>
					<dim>1</dim>
					<dim>1</dim>
					<dim>1</dim>
				</port>
			</output>
		</layer>
		<layer id="184" name="Conv_41/WithoutBiases/fq_weights_1/mulpiply_by_scale" type="Multiply" version="opset1">
			<data auto_broadcast="numpy"/>
			<input>
				<port id="0">
					<dim>16</dim>
					<dim>12</dim>
					<dim>3</dim>
					<dim>3</dim>
				</port>
				<port id="1">
					<dim>16</dim>
					<dim>1</dim>
					<dim>1</dim>
					<dim>1</dim>
				</port>
			</input>
			<output>
				<port id="2" precision="FP32">
					<dim>16</dim>
					<dim>12</dim>
					<dim>3</dim>
					<dim>3</dim>
				</port>
			</output>
		</layer>
		<layer id="185" name="Conv_41/WithoutBiases" type="Convolution" version="opset1">
			<data auto_pad="explicit" strides="1,1" dilations="1,1" pads_begin="1,1" pads_end="1,1"/>
			<input>
				<port id="0">
					<dim>1</dim>
					<dim>12</dim>
					<dim>208</dim>
					<dim>208</dim>
				</port>
				<port id="1">
					<dim>16</dim>
					<dim>12</dim>
					<dim>3</dim>
					<dim>3</dim>
				</port>
			</input>
			<output>
				<port id="2" precision="FP32">
					<dim>1</dim>
					<dim>16</dim>
					<dim>208</dim>
					<dim>208</dim>
				</port>
			</output>
		</layer>
		<layer id="186" name="Conv_41/Dims513069919152" type="Const" version="opset1">
			<data offset="4856" size="64" shape="1,16,1,1" element_type="f32"/>
			<output>
				<port id="0" precision="FP32">
					<dim>1</dim>
					<dim>16</dim>
					<dim>1</dim>
					<dim>1</dim>
				</port>
			</output>
		</layer>
		<layer id="187" name="Conv_41" type="Add" version="opset1">
			<data auto_broadcast="numpy"/>
			<input>
				<port id="0">
					<dim>1</dim>
					<dim>16</dim>
					<dim>208</dim>
					<dim>208</dim>
				</port>
				<port id="1">
					<dim>1</dim>
					<dim>16</dim>
					<dim>1</dim>
					<dim>1</dim>
				</port>
			</input>
			<output>
				<port id="2" precision="FP32" names="1177">
					<dim>1</dim>
					<dim>16</dim>
					<dim>208</dim>
					<dim>208</dim>
				</port>
			</output>
		</layer>
		<layer id="188" name="Mul_43" type="Swish" version="opset4">
			<input>
				<port id="0">
					<dim>1</dim>
					<dim>16</dim>
					<dim>208</dim>
					<dim>208</dim>
				</port>
			</input>
			<output>
				<port id="1" precision="FP32" names="687">
					<dim>1</dim>
					<dim>16</dim>
					<dim>208</dim>
					<dim>208</dim>
				</port>
			</output>
		</layer>
		<layer id="189" name="Conv_44/WithoutBiases/fq_input_0" type="FakeQuantize" version="opset1">
			<data levels="256" auto_broadcast="numpy"/>
			<input>
				<port id="0">
					<dim>1</dim>
					<dim>16</dim>
					<dim>208</dim>
					<dim>208</dim>
				</port>
				<port id="1">
					<dim>1</dim>
					<dim>16</dim>
					<dim>1</dim>
					<dim>1</dim>
				</port>
				<port id="2">
					<dim>1</dim>
					<dim>16</dim>
					<dim>1</dim>
					<dim>1</dim>
				</port>
				<port id="3">
					<dim>1</dim>
					<dim>16</dim>
					<dim>1</dim>
					<dim>1</dim>
				</port>
				<port id="4">
					<dim>1</dim>
					<dim>16</dim>
					<dim>1</dim>
					<dim>1</dim>
				</port>
			</input>
			<output>
				<port id="5" precision="FP32">
					<dim>1</dim>
					<dim>16</dim>
					<dim>208</dim>
					<dim>208</dim>
				</port>
			</output>
		</layer>
		<layer id="190" name="16472/value1647421480" type="Const" version="opset1">
			<data offset="4920" size="40" shape="5" element_type="i64"/>
			<output>
				<port id="0" precision="I64">
					<dim>5</dim>
				</port>
			</output>
		</layer>
		<layer id="191" name="11817029966/quantized1361321165" type="Const" version="opset1">
			<data offset="4960" size="144" shape="16,1,3,3" element_type="i8"/>
			<output>
				<port id="0" precision="I8">
					<dim>16</dim>
					<dim>1</dim>
					<dim>3</dim>
					<dim>3</dim>
				</port>
			</output>
		</layer>
		<layer id="192" name="11817029966/quantized/to_f32" type="Convert" version="opset1">
			<data destination_type="f32"/>
			<input>
				<port id="0">
					<dim>16</dim>
					<dim>1</dim>
					<dim>3</dim>
					<dim>3</dim>
				</port>
			</input>
			<output>
				<port id="1" precision="FP32">
					<dim>16</dim>
					<dim>1</dim>
					<dim>3</dim>
					<dim>3</dim>
				</port>
			</output>
		</layer>
		<layer id="193" name="Conv_44/WithoutBiases/fq_weights_1/zero_point1363218831" type="Const" version="opset1">
			<data offset="5104" size="64" shape="16,1,1,1" element_type="f32"/>
			<output>
				<port id="0" precision="FP32">
					<dim>16</dim>
					<dim>1</dim>
					<dim>1</dim>
					<dim>1</dim>
				</port>
			</output>
		</layer>
		<layer id="194" name="Conv_44/WithoutBiases/fq_weights_1/minus_zp" type="Subtract" version="opset1">
			<data auto_broadcast="numpy"/>
			<input>
				<port id="0">
					<dim>16</dim>
					<dim>1</dim>
					<dim>3</dim>
					<dim>3</dim>
				</port>
				<port id="1">
					<dim>16</dim>
					<dim>1</dim>
					<dim>1</dim>
					<dim>1</dim>
				</port>
			</input>
			<output>
				<port id="2" precision="FP32">
					<dim>16</dim>
					<dim>1</dim>
					<dim>3</dim>
					<dim>3</dim>
				</port>
			</output>
		</layer>
		<layer id="195" name="Conv_44/WithoutBiases/fq_weights_1/scale1362119647" type="Const" version="opset1">
			<data offset="5168" size="64" shape="16,1,1,1" element_type="f32"/>
			<output>
				<port id="0" precision="FP32">
					<dim>16</dim>
					<dim>1</dim>
					<dim>1</dim>
					<dim>1</dim>
				</port>
			</output>
		</layer>
		<layer id="196" name="Conv_44/WithoutBiases/fq_weights_1/mulpiply_by_scale" type="Multiply" version="opset1">
			<data auto_broadcast="numpy"/>
			<input>
				<port id="0">
					<dim>16</dim>
					<dim>1</dim>
					<dim>3</dim>
					<dim>3</dim>
				</port>
				<port id="1">
					<dim>16</dim>
					<dim>1</dim>
					<dim>1</dim>
					<dim>1</dim>
				</port>
			</input>
			<output>
				<port id="2" precision="FP32">
					<dim>16</dim>
					<dim>1</dim>
					<dim>3</dim>
					<dim>3</dim>
				</port>
			</output>
		</layer>
		<layer id="197" name="16472" type="Reshape" version="opset1">
			<data special_zero="true"/>
			<input>
				<port id="0">
					<dim>16</dim>
					<dim>1</dim>
					<dim>3</dim>
					<dim>3</dim>
				</port>
				<port id="1">
					<dim>5</dim>
				</port>
			</input>
			<output>
				<port id="2" precision="FP32">
					<dim>16</dim>
					<dim>1</dim>
					<dim>1</dim>
					<dim>3</dim>
					<dim>3</dim>
				</port>
			</output>
		</layer>
		<layer id="198" name="Conv_44/WithoutBiases" type="GroupConvolution" version="opset1">
			<data auto_pad="explicit" strides="2,2" dilations="1,1" pads_begin="1,1" pads_end="1,1"/>
			<input>
				<port id="0">
					<dim>1</dim>
					<dim>16</dim>
					<dim>208</dim>
					<dim>208</dim>
				</port>
				<port id="1">
					<dim>16</dim>
					<dim>1</dim>
					<dim>1</dim>
					<dim>3</dim>
					<dim>3</dim>
				</port>
			</input>
			<output>
				<port id="2" precision="FP32">
					<dim>1</dim>
					<dim>16</dim>
					<dim>104</dim>
					<dim>104</dim>
				</port>
			</output>
		</layer>
		<layer id="199" name="Conv_44/Dims514870419779" type="Const" version="opset1">
			<data offset="5232" size="64" shape="1,16,1,1" element_type="f32"/>
			<output>
				<port id="0" precision="FP32">
					<dim>1</dim>
					<dim>16</dim>
					<dim>1</dim>
					<dim>1</dim>
				</port>
			</output>
		</layer>
		<layer id="200" name="Conv_44" type="Add" version="opset1">
			<data auto_broadcast="numpy"/>
			<input>
				<port id="0">
					<dim>1</dim>
					<dim>16</dim>
					<dim>104</dim>
					<dim>104</dim>
				</port>
				<port id="1">
					<dim>1</dim>
					<dim>16</dim>
					<dim>1</dim>
					<dim>1</dim>
				</port>
			</input>
			<output>
				<port id="2" precision="FP32" names="1180">
					<dim>1</dim>
					<dim>16</dim>
					<dim>104</dim>
					<dim>104</dim>
				</port>
			</output>
		</layer>
		<layer id="201" name="Mul_46" type="Swish" version="opset4">
			<input>
				<port id="0">
					<dim>1</dim>
					<dim>16</dim>
					<dim>104</dim>
					<dim>104</dim>
				</port>
			</input>
			<output>
				<port id="1" precision="FP32" names="691">
					<dim>1</dim>
					<dim>16</dim>
					<dim>104</dim>
					<dim>104</dim>
				</port>
			</output>
		</layer>
		<layer id="202" name="Conv_47/WithoutBiases/fq_input_0" type="FakeQuantize" version="opset1">
			<data levels="256" auto_broadcast="numpy"/>
			<input>
				<port id="0">
					<dim>1</dim>
					<dim>16</dim>
					<dim>104</dim>
					<dim>104</dim>
				</port>
				<port id="1"/>
				<port id="2"/>
				<port id="3"/>
				<port id="4"/>
			</input>
			<output>
				<port id="5" precision="FP32">
					<dim>1</dim>
					<dim>16</dim>
					<dim>104</dim>
					<dim>104</dim>
				</port>
			</output>
		</layer>
		<layer id="203" name="11847079968/quantized1325319116" type="Const" version="opset1">
			<data offset="5296" size="512" shape="32,16,1,1" element_type="i8"/>
			<output>
				<port id="0" precision="I8">
					<dim>32</dim>
					<dim>16</dim>
					<dim>1</dim>
					<dim>1</dim>
				</port>
			</output>
		</layer>
		<layer id="204" name="11847079968/quantized/to_f32" type="Convert" version="opset1">
			<data destination_type="f32"/>
			<input>
				<port id="0">
					<dim>32</dim>
					<dim>16</dim>
					<dim>1</dim>
					<dim>1</dim>
				</port>
			</input>
			<output>
				<port id="1" precision="FP32">
					<dim>32</dim>
					<dim>16</dim>
					<dim>1</dim>
					<dim>1</dim>
				</port>
			</output>
		</layer>
		<layer id="205" name="Conv_47/WithoutBiases/fq_weights_1/zero_point1327219137" type="Const" version="opset1">
			<data offset="5808" size="128" shape="32,1,1,1" element_type="f32"/>
			<output>
				<port id="0" precision="FP32">
					<dim>32</dim>
					<dim>1</dim>
					<dim>1</dim>
					<dim>1</dim>
				</port>
			</output>
		</layer>
		<layer id="206" name="Conv_47/WithoutBiases/fq_weights_1/minus_zp" type="Subtract" version="opset1">
			<data auto_broadcast="numpy"/>
			<input>
				<port id="0">
					<dim>32</dim>
					<dim>16</dim>
					<dim>1</dim>
					<dim>1</dim>
				</port>
				<port id="1">
					<dim>32</dim>
					<dim>1</dim>
					<dim>1</dim>
					<dim>1</dim>
				</port>
			</input>
			<output>
				<port id="2" precision="FP32">
					<dim>32</dim>
					<dim>16</dim>
					<dim>1</dim>
					<dim>1</dim>
				</port>
			</output>
		</layer>
		<layer id="207" name="Conv_47/WithoutBiases/fq_weights_1/scale1326120061" type="Const" version="opset1">
			<data offset="5936" size="128" shape="32,1,1,1" element_type="f32"/>
			<output>
				<port id="0" precision="FP32">
					<dim>32</dim>
					<dim>1</dim>
					<dim>1</dim>
					<dim>1</dim>
				</port>
			</output>
		</layer>
		<layer id="208" name="Conv_47/WithoutBiases/fq_weights_1/mulpiply_by_scale" type="Multiply" version="opset1">
			<data auto_broadcast="numpy"/>
			<input>
				<port id="0">
					<dim>32</dim>
					<dim>16</dim>
					<dim>1</dim>
					<dim>1</dim>
				</port>
				<port id="1">
					<dim>32</dim>
					<dim>1</dim>
					<dim>1</dim>
					<dim>1</dim>
				</port>
			</input>
			<output>
				<port id="2" precision="FP32">
					<dim>32</dim>
					<dim>16</dim>
					<dim>1</dim>
					<dim>1</dim>
				</port>
			</output>
		</layer>
		<layer id="209" name="Conv_47/WithoutBiases" type="Convolution" version="opset1">
			<data auto_pad="explicit" strides="1,1" dilations="1,1" pads_begin="0,0" pads_end="0,0"/>
			<input>
				<port id="0">
					<dim>1</dim>
					<dim>16</dim>
					<dim>104</dim>
					<dim>104</dim>
				</port>
				<port id="1">
					<dim>32</dim>
					<dim>16</dim>
					<dim>1</dim>
					<dim>1</dim>
				</port>
			</input>
			<output>
				<port id="2" precision="FP32">
					<dim>1</dim>
					<dim>32</dim>
					<dim>104</dim>
					<dim>104</dim>
				</port>
			</output>
		</layer>
		<layer id="210" name="Conv_47/Dims553270919404" type="Const" version="opset1">
			<data offset="6064" size="128" shape="1,32,1,1" element_type="f32"/>
			<output>
				<port id="0" precision="FP32">
					<dim>1</dim>
					<dim>32</dim>
					<dim>1</dim>
					<dim>1</dim>
				</port>
			</output>
		</layer>
		<layer id="211" name="Conv_47" type="Add" version="opset1">
			<data auto_broadcast="numpy"/>
			<input>
				<port id="0">
					<dim>1</dim>
					<dim>32</dim>
					<dim>104</dim>
					<dim>104</dim>
				</port>
				<port id="1">
					<dim>1</dim>
					<dim>32</dim>
					<dim>1</dim>
					<dim>1</dim>
				</port>
			</input>
			<output>
				<port id="2" precision="FP32" names="1183">
					<dim>1</dim>
					<dim>32</dim>
					<dim>104</dim>
					<dim>104</dim>
				</port>
			</output>
		</layer>
		<layer id="212" name="Mul_49" type="Swish" version="opset4">
			<input>
				<port id="0">
					<dim>1</dim>
					<dim>32</dim>
					<dim>104</dim>
					<dim>104</dim>
				</port>
			</input>
			<output>
				<port id="1" precision="FP32" names="695">
					<dim>1</dim>
					<dim>32</dim>
					<dim>104</dim>
					<dim>104</dim>
				</port>
			</output>
		</layer>
		<layer id="213" name="Conv_50/WithoutBiases/fq_input_0" type="FakeQuantize" version="opset1">
			<data levels="256" auto_broadcast="numpy"/>
			<input>
				<port id="0">
					<dim>1</dim>
					<dim>32</dim>
					<dim>104</dim>
					<dim>104</dim>
				</port>
				<port id="1"/>
				<port id="2"/>
				<port id="3"/>
				<port id="4"/>
			</input>
			<output>
				<port id="5" precision="FP32">
					<dim>1</dim>
					<dim>32</dim>
					<dim>104</dim>
					<dim>104</dim>
				</port>
			</output>
		</layer>
		<layer id="214" name="11877129970/quantized1307320346" type="Const" version="opset1">
			<data offset="6192" size="512" shape="16,32,1,1" element_type="i8"/>
			<output>
				<port id="0" precision="I8">
					<dim>16</dim>
					<dim>32</dim>
					<dim>1</dim>
					<dim>1</dim>
				</port>
			</output>
		</layer>
		<layer id="215" name="11877129970/quantized/to_f32" type="Convert" version="opset1">
			<data destination_type="f32"/>
			<input>
				<port id="0">
					<dim>16</dim>
					<dim>32</dim>
					<dim>1</dim>
					<dim>1</dim>
				</port>
			</input>
			<output>
				<port id="1" precision="FP32">
					<dim>16</dim>
					<dim>32</dim>
					<dim>1</dim>
					<dim>1</dim>
				</port>
			</output>
		</layer>
		<layer id="216" name="Conv_50/WithoutBiases/fq_weights_1/zero_point1309220307" type="Const" version="opset1">
			<data offset="6704" size="64" shape="16,1,1,1" element_type="f32"/>
			<output>
				<port id="0" precision="FP32">
					<dim>16</dim>
					<dim>1</dim>
					<dim>1</dim>
					<dim>1</dim>
				</port>
			</output>
		</layer>
		<layer id="217" name="Conv_50/WithoutBiases/fq_weights_1/minus_zp" type="Subtract" version="opset1">
			<data auto_broadcast="numpy"/>
			<input>
				<port id="0">
					<dim>16</dim>
					<dim>32</dim>
					<dim>1</dim>
					<dim>1</dim>
				</port>
				<port id="1">
					<dim>16</dim>
					<dim>1</dim>
					<dim>1</dim>
					<dim>1</dim>
				</port>
			</input>
			<output>
				<port id="2" precision="FP32">
					<dim>16</dim>
					<dim>32</dim>
					<dim>1</dim>
					<dim>1</dim>
				</port>
			</output>
		</layer>
		<layer id="218" name="Conv_50/WithoutBiases/fq_weights_1/scale1308121129" type="Const" version="opset1">
			<data offset="6768" size="64" shape="16,1,1,1" element_type="f32"/>
			<output>
				<port id="0" precision="FP32">
					<dim>16</dim>
					<dim>1</dim>
					<dim>1</dim>
					<dim>1</dim>
				</port>
			</output>
		</layer>
		<layer id="219" name="Conv_50/WithoutBiases/fq_weights_1/mulpiply_by_scale" type="Multiply" version="opset1">
			<data auto_broadcast="numpy"/>
			<input>
				<port id="0">
					<dim>16</dim>
					<dim>32</dim>
					<dim>1</dim>
					<dim>1</dim>
				</port>
				<port id="1">
					<dim>16</dim>
					<dim>1</dim>
					<dim>1</dim>
					<dim>1</dim>
				</port>
			</input>
			<output>
				<port id="2" precision="FP32">
					<dim>16</dim>
					<dim>32</dim>
					<dim>1</dim>
					<dim>1</dim>
				</port>
			</output>
		</layer>
		<layer id="220" name="Conv_50/WithoutBiases" type="Convolution" version="opset1">
			<data auto_pad="explicit" strides="1,1" dilations="1,1" pads_begin="0,0" pads_end="0,0"/>
			<input>
				<port id="0">
					<dim>1</dim>
					<dim>32</dim>
					<dim>104</dim>
					<dim>104</dim>
				</port>
				<port id="1">
					<dim>16</dim>
					<dim>32</dim>
					<dim>1</dim>
					<dim>1</dim>
				</port>
			</input>
			<output>
				<port id="2" precision="FP32">
					<dim>1</dim>
					<dim>16</dim>
					<dim>104</dim>
					<dim>104</dim>
				</port>
			</output>
		</layer>
		<layer id="221" name="Conv_50/Dims510671418612" type="Const" version="opset1">
			<data offset="6832" size="64" shape="1,16,1,1" element_type="f32"/>
			<output>
				<port id="0" precision="FP32">
					<dim>1</dim>
					<dim>16</dim>
					<dim>1</dim>
					<dim>1</dim>
				</port>
			</output>
		</layer>
		<layer id="222" name="Conv_50" type="Add" version="opset1">
			<data auto_broadcast="numpy"/>
			<input>
				<port id="0">
					<dim>1</dim>
					<dim>16</dim>
					<dim>104</dim>
					<dim>104</dim>
				</port>
				<port id="1">
					<dim>1</dim>
					<dim>16</dim>
					<dim>1</dim>
					<dim>1</dim>
				</port>
			</input>
			<output>
				<port id="2" precision="FP32" names="1186">
					<dim>1</dim>
					<dim>16</dim>
					<dim>104</dim>
					<dim>104</dim>
				</port>
			</output>
		</layer>
		<layer id="223" name="Mul_52" type="Swish" version="opset4">
			<input>
				<port id="0">
					<dim>1</dim>
					<dim>16</dim>
					<dim>104</dim>
					<dim>104</dim>
				</port>
			</input>
			<output>
				<port id="1" precision="FP32" names="699">
					<dim>1</dim>
					<dim>16</dim>
					<dim>104</dim>
					<dim>104</dim>
				</port>
			</output>
		</layer>
		<layer id="224" name="Add_65/fq_input_1" type="FakeQuantize" version="opset1">
			<data levels="256" auto_broadcast="numpy"/>
			<input>
				<port id="0">
					<dim>1</dim>
					<dim>16</dim>
					<dim>104</dim>
					<dim>104</dim>
				</port>
				<port id="1"/>
				<port id="2"/>
				<port id="3"/>
				<port id="4"/>
			</input>
			<output>
				<port id="5" precision="FP32">
					<dim>1</dim>
					<dim>16</dim>
					<dim>104</dim>
					<dim>104</dim>
				</port>
			</output>
		</layer>
		<layer id="225" name="11937179972/quantized1208319356" type="Const" version="opset1">
			<data offset="6896" size="256" shape="16,16,1,1" element_type="i8"/>
			<output>
				<port id="0" precision="I8">
					<dim>16</dim>
					<dim>16</dim>
					<dim>1</dim>
					<dim>1</dim>
				</port>
			</output>
		</layer>
		<layer id="226" name="11937179972/quantized/to_f32" type="Convert" version="opset1">
			<data destination_type="f32"/>
			<input>
				<port id="0">
					<dim>16</dim>
					<dim>16</dim>
					<dim>1</dim>
					<dim>1</dim>
				</port>
			</input>
			<output>
				<port id="1" precision="FP32">
					<dim>16</dim>
					<dim>16</dim>
					<dim>1</dim>
					<dim>1</dim>
				</port>
			</output>
		</layer>
		<layer id="227" name="Conv_56/WithoutBiases/fq_weights_1/zero_point1210220703" type="Const" version="opset1">
			<data offset="7152" size="64" shape="16,1,1,1" element_type="f32"/>
			<output>
				<port id="0" precision="FP32">
					<dim>16</dim>
					<dim>1</dim>
					<dim>1</dim>
					<dim>1</dim>
				</port>
			</output>
		</layer>
		<layer id="228" name="Conv_56/WithoutBiases/fq_weights_1/minus_zp" type="Subtract" version="opset1">
			<data auto_broadcast="numpy"/>
			<input>
				<port id="0">
					<dim>16</dim>
					<dim>16</dim>
					<dim>1</dim>
					<dim>1</dim>
				</port>
				<port id="1">
					<dim>16</dim>
					<dim>1</dim>
					<dim>1</dim>
					<dim>1</dim>
				</port>
			</input>
			<output>
				<port id="2" precision="FP32">
					<dim>16</dim>
					<dim>16</dim>
					<dim>1</dim>
					<dim>1</dim>
				</port>
			</output>
		</layer>
		<layer id="229" name="Conv_56/WithoutBiases/fq_weights_1/scale1209118744" type="Const" version="opset1">
			<data offset="7216" size="64" shape="16,1,1,1" element_type="f32"/>
			<output>
				<port id="0" precision="FP32">
					<dim>16</dim>
					<dim>1</dim>
					<dim>1</dim>
					<dim>1</dim>
				</port>
			</output>
		</layer>
		<layer id="230" name="Conv_56/WithoutBiases/fq_weights_1/mulpiply_by_scale" type="Multiply" version="opset1">
			<data auto_broadcast="numpy"/>
			<input>
				<port id="0">
					<dim>16</dim>
					<dim>16</dim>
					<dim>1</dim>
					<dim>1</dim>
				</port>
				<port id="1">
					<dim>16</dim>
					<dim>1</dim>
					<dim>1</dim>
					<dim>1</dim>
				</port>
			</input>
			<output>
				<port id="2" precision="FP32">
					<dim>16</dim>
					<dim>16</dim>
					<dim>1</dim>
					<dim>1</dim>
				</port>
			</output>
		</layer>
		<layer id="231" name="Conv_56/WithoutBiases" type="Convolution" version="opset1">
			<data auto_pad="explicit" strides="1,1" dilations="1,1" pads_begin="0,0" pads_end="0,0"/>
			<input>
				<port id="0">
					<dim>1</dim>
					<dim>16</dim>
					<dim>104</dim>
					<dim>104</dim>
				</port>
				<port id="1">
					<dim>16</dim>
					<dim>16</dim>
					<dim>1</dim>
					<dim>1</dim>
				</port>
			</input>
			<output>
				<port id="2" precision="FP32">
					<dim>1</dim>
					<dim>16</dim>
					<dim>104</dim>
					<dim>104</dim>
				</port>
			</output>
		</layer>
		<layer id="232" name="Conv_56/Dims525671920472" type="Const" version="opset1">
			<data offset="7280" size="64" shape="1,16,1,1" element_type="f32"/>
			<output>
				<port id="0" precision="FP32">
					<dim>1</dim>
					<dim>16</dim>
					<dim>1</dim>
					<dim>1</dim>
				</port>
			</output>
		</layer>
		<layer id="233" name="Conv_56" type="Add" version="opset1">
			<data auto_broadcast="numpy"/>
			<input>
				<port id="0">
					<dim>1</dim>
					<dim>16</dim>
					<dim>104</dim>
					<dim>104</dim>
				</port>
				<port id="1">
					<dim>1</dim>
					<dim>16</dim>
					<dim>1</dim>
					<dim>1</dim>
				</port>
			</input>
			<output>
				<port id="2" precision="FP32" names="1192">
					<dim>1</dim>
					<dim>16</dim>
					<dim>104</dim>
					<dim>104</dim>
				</port>
			</output>
		</layer>
		<layer id="234" name="Mul_58" type="Swish" version="opset4">
			<input>
				<port id="0">
					<dim>1</dim>
					<dim>16</dim>
					<dim>104</dim>
					<dim>104</dim>
				</port>
			</input>
			<output>
				<port id="1" precision="FP32" names="707">
					<dim>1</dim>
					<dim>16</dim>
					<dim>104</dim>
					<dim>104</dim>
				</port>
			</output>
		</layer>
		<layer id="235" name="Conv_59/WithoutBiases/fq_input_0" type="FakeQuantize" version="opset1">
			<data levels="256" auto_broadcast="numpy"/>
			<input>
				<port id="0">
					<dim>1</dim>
					<dim>16</dim>
					<dim>104</dim>
					<dim>104</dim>
				</port>
				<port id="1">
					<dim>1</dim>
					<dim>16</dim>
					<dim>1</dim>
					<dim>1</dim>
				</port>
				<port id="2">
					<dim>1</dim>
					<dim>16</dim>
					<dim>1</dim>
					<dim>1</dim>
				</port>
				<port id="3">
					<dim>1</dim>
					<dim>16</dim>
					<dim>1</dim>
					<dim>1</dim>
				</port>
				<port id="4">
					<dim>1</dim>
					<dim>16</dim>
					<dim>1</dim>
					<dim>1</dim>
				</port>
			</input>
			<output>
				<port id="5" precision="FP32">
					<dim>1</dim>
					<dim>16</dim>
					<dim>104</dim>
					<dim>104</dim>
				</port>
			</output>
		</layer>
		<layer id="236" name="16476/value1647818654" type="Const" version="opset1">
			<data offset="4920" size="40" shape="5" element_type="i64"/>
			<output>
				<port id="0" precision="I64">
					<dim>5</dim>
				</port>
			</output>
		</layer>
		<layer id="237" name="11967229974/quantized1364320802" type="Const" version="opset1">
			<data offset="7344" size="144" shape="16,1,3,3" element_type="i8"/>
			<output>
				<port id="0" precision="I8">
					<dim>16</dim>
					<dim>1</dim>
					<dim>3</dim>
					<dim>3</dim>
				</port>
			</output>
		</layer>
		<layer id="238" name="11967229974/quantized/to_f32" type="Convert" version="opset1">
			<data destination_type="f32"/>
			<input>
				<port id="0">
					<dim>16</dim>
					<dim>1</dim>
					<dim>3</dim>
					<dim>3</dim>
				</port>
			</input>
			<output>
				<port id="1" precision="FP32">
					<dim>16</dim>
					<dim>1</dim>
					<dim>3</dim>
					<dim>3</dim>
				</port>
			</output>
		</layer>
		<layer id="239" name="Conv_59/WithoutBiases/fq_weights_1/zero_point1366219920" type="Const" version="opset1">
			<data offset="7488" size="64" shape="16,1,1,1" element_type="f32"/>
			<output>
				<port id="0" precision="FP32">
					<dim>16</dim>
					<dim>1</dim>
					<dim>1</dim>
					<dim>1</dim>
				</port>
			</output>
		</layer>
		<layer id="240" name="Conv_59/WithoutBiases/fq_weights_1/minus_zp" type="Subtract" version="opset1">
			<data auto_broadcast="numpy"/>
			<input>
				<port id="0">
					<dim>16</dim>
					<dim>1</dim>
					<dim>3</dim>
					<dim>3</dim>
				</port>
				<port id="1">
					<dim>16</dim>
					<dim>1</dim>
					<dim>1</dim>
					<dim>1</dim>
				</port>
			</input>
			<output>
				<port id="2" precision="FP32">
					<dim>16</dim>
					<dim>1</dim>
					<dim>3</dim>
					<dim>3</dim>
				</port>
			</output>
		</layer>
		<layer id="241" name="Conv_59/WithoutBiases/fq_weights_1/scale1365121324" type="Const" version="opset1">
			<data offset="7552" size="64" shape="16,1,1,1" element_type="f32"/>
			<output>
				<port id="0" precision="FP32">
					<dim>16</dim>
					<dim>1</dim>
					<dim>1</dim>
					<dim>1</dim>
				</port>
			</output>
		</layer>
		<layer id="242" name="Conv_59/WithoutBiases/fq_weights_1/mulpiply_by_scale" type="Multiply" version="opset1">
			<data auto_broadcast="numpy"/>
			<input>
				<port id="0">
					<dim>16</dim>
					<dim>1</dim>
					<dim>3</dim>
					<dim>3</dim>
				</port>
				<port id="1">
					<dim>16</dim>
					<dim>1</dim>
					<dim>1</dim>
					<dim>1</dim>
				</port>
			</input>
			<output>
				<port id="2" precision="FP32">
					<dim>16</dim>
					<dim>1</dim>
					<dim>3</dim>
					<dim>3</dim>
				</port>
			</output>
		</layer>
		<layer id="243" name="16476" type="Reshape" version="opset1">
			<data special_zero="true"/>
			<input>
				<port id="0">
					<dim>16</dim>
					<dim>1</dim>
					<dim>3</dim>
					<dim>3</dim>
				</port>
				<port id="1">
					<dim>5</dim>
				</port>
			</input>
			<output>
				<port id="2" precision="FP32">
					<dim>16</dim>
					<dim>1</dim>
					<dim>1</dim>
					<dim>3</dim>
					<dim>3</dim>
				</port>
			</output>
		</layer>
		<layer id="244" name="Conv_59/WithoutBiases" type="GroupConvolution" version="opset1">
			<data auto_pad="explicit" strides="1,1" dilations="1,1" pads_begin="1,1" pads_end="1,1"/>
			<input>
				<port id="0">
					<dim>1</dim>
					<dim>16</dim>
					<dim>104</dim>
					<dim>104</dim>
				</port>
				<port id="1">
					<dim>16</dim>
					<dim>1</dim>
					<dim>1</dim>
					<dim>3</dim>
					<dim>3</dim>
				</port>
			</input>
			<output>
				<port id="2" precision="FP32">
					<dim>1</dim>
					<dim>16</dim>
					<dim>104</dim>
					<dim>104</dim>
				</port>
			</output>
		</layer>
		<layer id="245" name="Conv_59/Dims519672419692" type="Const" version="opset1">
			<data offset="7616" size="64" shape="1,16,1,1" element_type="f32"/>
			<output>
				<port id="0" precision="FP32">
					<dim>1</dim>
					<dim>16</dim>
					<dim>1</dim>
					<dim>1</dim>
				</port>
			</output>
		</layer>
		<layer id="246" name="Conv_59" type="Add" version="opset1">
			<data auto_broadcast="numpy"/>
			<input>
				<port id="0">
					<dim>1</dim>
					<dim>16</dim>
					<dim>104</dim>
					<dim>104</dim>
				</port>
				<port id="1">
					<dim>1</dim>
					<dim>16</dim>
					<dim>1</dim>
					<dim>1</dim>
				</port>
			</input>
			<output>
				<port id="2" precision="FP32" names="1195">
					<dim>1</dim>
					<dim>16</dim>
					<dim>104</dim>
					<dim>104</dim>
				</port>
			</output>
		</layer>
		<layer id="247" name="Mul_61" type="Swish" version="opset4">
			<input>
				<port id="0">
					<dim>1</dim>
					<dim>16</dim>
					<dim>104</dim>
					<dim>104</dim>
				</port>
			</input>
			<output>
				<port id="1" precision="FP32" names="711">
					<dim>1</dim>
					<dim>16</dim>
					<dim>104</dim>
					<dim>104</dim>
				</port>
			</output>
		</layer>
		<layer id="248" name="Conv_62/WithoutBiases/fq_input_0" type="FakeQuantize" version="opset1">
			<data levels="256" auto_broadcast="numpy"/>
			<input>
				<port id="0">
					<dim>1</dim>
					<dim>16</dim>
					<dim>104</dim>
					<dim>104</dim>
				</port>
				<port id="1"/>
				<port id="2"/>
				<port id="3"/>
				<port id="4"/>
			</input>
			<output>
				<port id="5" precision="FP32">
					<dim>1</dim>
					<dim>16</dim>
					<dim>104</dim>
					<dim>104</dim>
				</port>
			</output>
		</layer>
		<layer id="249" name="11997279976/quantized1385320556" type="Const" version="opset1">
			<data offset="7680" size="256" shape="16,16,1,1" element_type="i8"/>
			<output>
				<port id="0" precision="I8">
					<dim>16</dim>
					<dim>16</dim>
					<dim>1</dim>
					<dim>1</dim>
				</port>
			</output>
		</layer>
		<layer id="250" name="11997279976/quantized/to_f32" type="Convert" version="opset1">
			<data destination_type="f32"/>
			<input>
				<port id="0">
					<dim>16</dim>
					<dim>16</dim>
					<dim>1</dim>
					<dim>1</dim>
				</port>
			</input>
			<output>
				<port id="1" precision="FP32">
					<dim>16</dim>
					<dim>16</dim>
					<dim>1</dim>
					<dim>1</dim>
				</port>
			</output>
		</layer>
		<layer id="251" name="Conv_62/WithoutBiases/fq_weights_1/zero_point1387219908" type="Const" version="opset1">
			<data offset="7936" size="64" shape="16,1,1,1" element_type="f32"/>
			<output>
				<port id="0" precision="FP32">
					<dim>16</dim>
					<dim>1</dim>
					<dim>1</dim>
					<dim>1</dim>
				</port>
			</output>
		</layer>
		<layer id="252" name="Conv_62/WithoutBiases/fq_weights_1/minus_zp" type="Subtract" version="opset1">
			<data auto_broadcast="numpy"/>
			<input>
				<port id="0">
					<dim>16</dim>
					<dim>16</dim>
					<dim>1</dim>
					<dim>1</dim>
				</port>
				<port id="1">
					<dim>16</dim>
					<dim>1</dim>
					<dim>1</dim>
					<dim>1</dim>
				</port>
			</input>
			<output>
				<port id="2" precision="FP32">
					<dim>16</dim>
					<dim>16</dim>
					<dim>1</dim>
					<dim>1</dim>
				</port>
			</output>
		</layer>
		<layer id="253" name="Conv_62/WithoutBiases/fq_weights_1/scale1386120586" type="Const" version="opset1">
			<data offset="8000" size="64" shape="16,1,1,1" element_type="f32"/>
			<output>
				<port id="0" precision="FP32">
					<dim>16</dim>
					<dim>1</dim>
					<dim>1</dim>
					<dim>1</dim>
				</port>
			</output>
		</layer>
		<layer id="254" name="Conv_62/WithoutBiases/fq_weights_1/mulpiply_by_scale" type="Multiply" version="opset1">
			<data auto_broadcast="numpy"/>
			<input>
				<port id="0">
					<dim>16</dim>
					<dim>16</dim>
					<dim>1</dim>
					<dim>1</dim>
				</port>
				<port id="1">
					<dim>16</dim>
					<dim>1</dim>
					<dim>1</dim>
					<dim>1</dim>
				</port>
			</input>
			<output>
				<port id="2" precision="FP32">
					<dim>16</dim>
					<dim>16</dim>
					<dim>1</dim>
					<dim>1</dim>
				</port>
			</output>
		</layer>
		<layer id="255" name="Conv_62/WithoutBiases" type="Convolution" version="opset1">
			<data auto_pad="explicit" strides="1,1" dilations="1,1" pads_begin="0,0" pads_end="0,0"/>
			<input>
				<port id="0">
					<dim>1</dim>
					<dim>16</dim>
					<dim>104</dim>
					<dim>104</dim>
				</port>
				<port id="1">
					<dim>16</dim>
					<dim>16</dim>
					<dim>1</dim>
					<dim>1</dim>
				</port>
			</input>
			<output>
				<port id="2" precision="FP32">
					<dim>1</dim>
					<dim>16</dim>
					<dim>104</dim>
					<dim>104</dim>
				</port>
			</output>
		</layer>
		<layer id="256" name="Conv_62/Dims555072920550" type="Const" version="opset1">
			<data offset="8064" size="64" shape="1,16,1,1" element_type="f32"/>
			<output>
				<port id="0" precision="FP32">
					<dim>1</dim>
					<dim>16</dim>
					<dim>1</dim>
					<dim>1</dim>
				</port>
			</output>
		</layer>
		<layer id="257" name="Conv_62" type="Add" version="opset1">
			<data auto_broadcast="numpy"/>
			<input>
				<port id="0">
					<dim>1</dim>
					<dim>16</dim>
					<dim>104</dim>
					<dim>104</dim>
				</port>
				<port id="1">
					<dim>1</dim>
					<dim>16</dim>
					<dim>1</dim>
					<dim>1</dim>
				</port>
			</input>
			<output>
				<port id="2" precision="FP32" names="1198">
					<dim>1</dim>
					<dim>16</dim>
					<dim>104</dim>
					<dim>104</dim>
				</port>
			</output>
		</layer>
		<layer id="258" name="Mul_64" type="Swish" version="opset4">
			<input>
				<port id="0">
					<dim>1</dim>
					<dim>16</dim>
					<dim>104</dim>
					<dim>104</dim>
				</port>
			</input>
			<output>
				<port id="1" precision="FP32" names="715">
					<dim>1</dim>
					<dim>16</dim>
					<dim>104</dim>
					<dim>104</dim>
				</port>
			</output>
		</layer>
		<layer id="259" name="Add_65/fq_input_0" type="FakeQuantize" version="opset1">
			<data levels="256" auto_broadcast="numpy"/>
			<input>
				<port id="0">
					<dim>1</dim>
					<dim>16</dim>
					<dim>104</dim>
					<dim>104</dim>
				</port>
				<port id="1"/>
				<port id="2"/>
				<port id="3"/>
				<port id="4"/>
			</input>
			<output>
				<port id="5" precision="FP32">
					<dim>1</dim>
					<dim>16</dim>
					<dim>104</dim>
					<dim>104</dim>
				</port>
			</output>
		</layer>
		<layer id="260" name="Add_65" type="Add" version="opset1">
			<data auto_broadcast="numpy"/>
			<input>
				<port id="0">
					<dim>1</dim>
					<dim>16</dim>
					<dim>104</dim>
					<dim>104</dim>
				</port>
				<port id="1">
					<dim>1</dim>
					<dim>16</dim>
					<dim>104</dim>
					<dim>104</dim>
				</port>
			</input>
			<output>
				<port id="2" precision="FP32" names="716">
					<dim>1</dim>
					<dim>16</dim>
					<dim>104</dim>
					<dim>104</dim>
				</port>
			</output>
		</layer>
		<layer id="261" name="Concat_66/fq_input_0" type="FakeQuantize" version="opset1">
			<data levels="256" auto_broadcast="numpy"/>
			<input>
				<port id="0">
					<dim>1</dim>
					<dim>16</dim>
					<dim>104</dim>
					<dim>104</dim>
				</port>
				<port id="1"/>
				<port id="2"/>
				<port id="3"/>
				<port id="4"/>
			</input>
			<output>
				<port id="5" precision="FP32">
					<dim>1</dim>
					<dim>16</dim>
					<dim>104</dim>
					<dim>104</dim>
				</port>
			</output>
		</layer>
		<layer id="262" name="6287629121471" type="Const" version="opset1">
			<data offset="8128" size="4" shape="" element_type="f32"/>
			<output>
				<port id="0" precision="FP32"/>
			</output>
		</layer>
		<layer id="263" name="6288629219311" type="Const" version="opset1">
			<data offset="8132" size="4" shape="" element_type="f32"/>
			<output>
				<port id="0" precision="FP32"/>
			</output>
		</layer>
		<layer id="264" name="6289629320538" type="Const" version="opset1">
			<data offset="8128" size="4" shape="" element_type="f32"/>
			<output>
				<port id="0" precision="FP32"/>
			</output>
		</layer>
		<layer id="265" name="6290629421195" type="Const" version="opset1">
			<data offset="8132" size="4" shape="" element_type="f32"/>
			<output>
				<port id="0" precision="FP32"/>
			</output>
		</layer>
		<layer id="266" name="11907339978/quantized1370320706" type="Const" version="opset1">
			<data offset="8136" size="512" shape="16,32,1,1" element_type="i8"/>
			<output>
				<port id="0" precision="I8">
					<dim>16</dim>
					<dim>32</dim>
					<dim>1</dim>
					<dim>1</dim>
				</port>
			</output>
		</layer>
		<layer id="267" name="11907339978/quantized/to_f32" type="Convert" version="opset1">
			<data destination_type="f32"/>
			<input>
				<port id="0">
					<dim>16</dim>
					<dim>32</dim>
					<dim>1</dim>
					<dim>1</dim>
				</port>
			</input>
			<output>
				<port id="1" precision="FP32">
					<dim>16</dim>
					<dim>32</dim>
					<dim>1</dim>
					<dim>1</dim>
				</port>
			</output>
		</layer>
		<layer id="268" name="Conv_53/WithoutBiases/fq_weights_1/zero_point1372221333" type="Const" version="opset1">
			<data offset="8648" size="64" shape="16,1,1,1" element_type="f32"/>
			<output>
				<port id="0" precision="FP32">
					<dim>16</dim>
					<dim>1</dim>
					<dim>1</dim>
					<dim>1</dim>
				</port>
			</output>
		</layer>
		<layer id="269" name="Conv_53/WithoutBiases/fq_weights_1/minus_zp" type="Subtract" version="opset1">
			<data auto_broadcast="numpy"/>
			<input>
				<port id="0">
					<dim>16</dim>
					<dim>32</dim>
					<dim>1</dim>
					<dim>1</dim>
				</port>
				<port id="1">
					<dim>16</dim>
					<dim>1</dim>
					<dim>1</dim>
					<dim>1</dim>
				</port>
			</input>
			<output>
				<port id="2" precision="FP32">
					<dim>16</dim>
					<dim>32</dim>
					<dim>1</dim>
					<dim>1</dim>
				</port>
			</output>
		</layer>
		<layer id="270" name="Conv_53/WithoutBiases/fq_weights_1/scale1371120520" type="Const" version="opset1">
			<data offset="8712" size="64" shape="16,1,1,1" element_type="f32"/>
			<output>
				<port id="0" precision="FP32">
					<dim>16</dim>
					<dim>1</dim>
					<dim>1</dim>
					<dim>1</dim>
				</port>
			</output>
		</layer>
		<layer id="271" name="Conv_53/WithoutBiases/fq_weights_1/mulpiply_by_scale" type="Multiply" version="opset1">
			<data auto_broadcast="numpy"/>
			<input>
				<port id="0">
					<dim>16</dim>
					<dim>32</dim>
					<dim>1</dim>
					<dim>1</dim>
				</port>
				<port id="1">
					<dim>16</dim>
					<dim>1</dim>
					<dim>1</dim>
					<dim>1</dim>
				</port>
			</input>
			<output>
				<port id="2" precision="FP32">
					<dim>16</dim>
					<dim>32</dim>
					<dim>1</dim>
					<dim>1</dim>
				</port>
			</output>
		</layer>
		<layer id="272" name="Conv_53/WithoutBiases" type="Convolution" version="opset1">
			<data auto_pad="explicit" strides="1,1" dilations="1,1" pads_begin="0,0" pads_end="0,0"/>
			<input>
				<port id="0">
					<dim>1</dim>
					<dim>32</dim>
					<dim>104</dim>
					<dim>104</dim>
				</port>
				<port id="1">
					<dim>16</dim>
					<dim>32</dim>
					<dim>1</dim>
					<dim>1</dim>
				</port>
			</input>
			<output>
				<port id="2" precision="FP32">
					<dim>1</dim>
					<dim>16</dim>
					<dim>104</dim>
					<dim>104</dim>
				</port>
			</output>
		</layer>
		<layer id="273" name="Conv_53/Dims539473520772" type="Const" version="opset1">
			<data offset="8776" size="64" shape="1,16,1,1" element_type="f32"/>
			<output>
				<port id="0" precision="FP32">
					<dim>1</dim>
					<dim>16</dim>
					<dim>1</dim>
					<dim>1</dim>
				</port>
			</output>
		</layer>
		<layer id="274" name="Conv_53" type="Add" version="opset1">
			<data auto_broadcast="numpy"/>
			<input>
				<port id="0">
					<dim>1</dim>
					<dim>16</dim>
					<dim>104</dim>
					<dim>104</dim>
				</port>
				<port id="1">
					<dim>1</dim>
					<dim>16</dim>
					<dim>1</dim>
					<dim>1</dim>
				</port>
			</input>
			<output>
				<port id="2" precision="FP32" names="1189">
					<dim>1</dim>
					<dim>16</dim>
					<dim>104</dim>
					<dim>104</dim>
				</port>
			</output>
		</layer>
		<layer id="275" name="Mul_55" type="Swish" version="opset4">
			<input>
				<port id="0">
					<dim>1</dim>
					<dim>16</dim>
					<dim>104</dim>
					<dim>104</dim>
				</port>
			</input>
			<output>
				<port id="1" precision="FP32" names="703">
					<dim>1</dim>
					<dim>16</dim>
					<dim>104</dim>
					<dim>104</dim>
				</port>
			</output>
		</layer>
		<layer id="276" name="Concat_66/fq_input_1" type="FakeQuantize" version="opset1">
			<data levels="256" auto_broadcast="numpy"/>
			<input>
				<port id="0">
					<dim>1</dim>
					<dim>16</dim>
					<dim>104</dim>
					<dim>104</dim>
				</port>
				<port id="1"/>
				<port id="2"/>
				<port id="3"/>
				<port id="4"/>
			</input>
			<output>
				<port id="5" precision="FP32">
					<dim>1</dim>
					<dim>16</dim>
					<dim>104</dim>
					<dim>104</dim>
				</port>
			</output>
		</layer>
		<layer id="277" name="Concat_66" type="Concat" version="opset1">
			<data axis="1"/>
			<input>
				<port id="0">
					<dim>1</dim>
					<dim>16</dim>
					<dim>104</dim>
					<dim>104</dim>
				</port>
				<port id="1">
					<dim>1</dim>
					<dim>16</dim>
					<dim>104</dim>
					<dim>104</dim>
				</port>
			</input>
			<output>
				<port id="2" precision="FP32" names="717">
					<dim>1</dim>
					<dim>32</dim>
					<dim>104</dim>
					<dim>104</dim>
				</port>
			</output>
		</layer>
		<layer id="278" name="12027399980/quantized1163319185" type="Const" version="opset1">
			<data offset="8840" size="1024" shape="32,32,1,1" element_type="i8"/>
			<output>
				<port id="0" precision="I8">
					<dim>32</dim>
					<dim>32</dim>
					<dim>1</dim>
					<dim>1</dim>
				</port>
			</output>
		</layer>
		<layer id="279" name="12027399980/quantized/to_f32" type="Convert" version="opset1">
			<data destination_type="f32"/>
			<input>
				<port id="0">
					<dim>32</dim>
					<dim>32</dim>
					<dim>1</dim>
					<dim>1</dim>
				</port>
			</input>
			<output>
				<port id="1" precision="FP32">
					<dim>32</dim>
					<dim>32</dim>
					<dim>1</dim>
					<dim>1</dim>
				</port>
			</output>
		</layer>
		<layer id="280" name="Conv_67/WithoutBiases/fq_weights_1/zero_point1165221162" type="Const" version="opset1">
			<data offset="9864" size="128" shape="32,1,1,1" element_type="f32"/>
			<output>
				<port id="0" precision="FP32">
					<dim>32</dim>
					<dim>1</dim>
					<dim>1</dim>
					<dim>1</dim>
				</port>
			</output>
		</layer>
		<layer id="281" name="Conv_67/WithoutBiases/fq_weights_1/minus_zp" type="Subtract" version="opset1">
			<data auto_broadcast="numpy"/>
			<input>
				<port id="0">
					<dim>32</dim>
					<dim>32</dim>
					<dim>1</dim>
					<dim>1</dim>
				</port>
				<port id="1">
					<dim>32</dim>
					<dim>1</dim>
					<dim>1</dim>
					<dim>1</dim>
				</port>
			</input>
			<output>
				<port id="2" precision="FP32">
					<dim>32</dim>
					<dim>32</dim>
					<dim>1</dim>
					<dim>1</dim>
				</port>
			</output>
		</layer>
		<layer id="282" name="Conv_67/WithoutBiases/fq_weights_1/scale1164120268" type="Const" version="opset1">
			<data offset="9992" size="128" shape="32,1,1,1" element_type="f32"/>
			<output>
				<port id="0" precision="FP32">
					<dim>32</dim>
					<dim>1</dim>
					<dim>1</dim>
					<dim>1</dim>
				</port>
			</output>
		</layer>
		<layer id="283" name="Conv_67/WithoutBiases/fq_weights_1/mulpiply_by_scale" type="Multiply" version="opset1">
			<data auto_broadcast="numpy"/>
			<input>
				<port id="0">
					<dim>32</dim>
					<dim>32</dim>
					<dim>1</dim>
					<dim>1</dim>
				</port>
				<port id="1">
					<dim>32</dim>
					<dim>1</dim>
					<dim>1</dim>
					<dim>1</dim>
				</port>
			</input>
			<output>
				<port id="2" precision="FP32">
					<dim>32</dim>
					<dim>32</dim>
					<dim>1</dim>
					<dim>1</dim>
				</port>
			</output>
		</layer>
		<layer id="284" name="Conv_67/WithoutBiases" type="Convolution" version="opset1">
			<data auto_pad="explicit" strides="1,1" dilations="1,1" pads_begin="0,0" pads_end="0,0"/>
			<input>
				<port id="0">
					<dim>1</dim>
					<dim>32</dim>
					<dim>104</dim>
					<dim>104</dim>
				</port>
				<port id="1">
					<dim>32</dim>
					<dim>32</dim>
					<dim>1</dim>
					<dim>1</dim>
				</port>
			</input>
			<output>
				<port id="2" precision="FP32">
					<dim>1</dim>
					<dim>32</dim>
					<dim>104</dim>
					<dim>104</dim>
				</port>
			</output>
		</layer>
		<layer id="285" name="Conv_67/Dims507074118714" type="Const" version="opset1">
			<data offset="10120" size="128" shape="1,32,1,1" element_type="f32"/>
			<output>
				<port id="0" precision="FP32">
					<dim>1</dim>
					<dim>32</dim>
					<dim>1</dim>
					<dim>1</dim>
				</port>
			</output>
		</layer>
		<layer id="286" name="Conv_67" type="Add" version="opset1">
			<data auto_broadcast="numpy"/>
			<input>
				<port id="0">
					<dim>1</dim>
					<dim>32</dim>
					<dim>104</dim>
					<dim>104</dim>
				</port>
				<port id="1">
					<dim>1</dim>
					<dim>32</dim>
					<dim>1</dim>
					<dim>1</dim>
				</port>
			</input>
			<output>
				<port id="2" precision="FP32" names="1201">
					<dim>1</dim>
					<dim>32</dim>
					<dim>104</dim>
					<dim>104</dim>
				</port>
			</output>
		</layer>
		<layer id="287" name="Mul_69" type="Swish" version="opset4">
			<input>
				<port id="0">
					<dim>1</dim>
					<dim>32</dim>
					<dim>104</dim>
					<dim>104</dim>
				</port>
			</input>
			<output>
				<port id="1" precision="FP32" names="721">
					<dim>1</dim>
					<dim>32</dim>
					<dim>104</dim>
					<dim>104</dim>
				</port>
			</output>
		</layer>
		<layer id="288" name="Conv_70/WithoutBiases/fq_input_0" type="FakeQuantize" version="opset1">
			<data levels="256" auto_broadcast="numpy"/>
			<input>
				<port id="0">
					<dim>1</dim>
					<dim>32</dim>
					<dim>104</dim>
					<dim>104</dim>
				</port>
				<port id="1">
					<dim>1</dim>
					<dim>32</dim>
					<dim>1</dim>
					<dim>1</dim>
				</port>
				<port id="2">
					<dim>1</dim>
					<dim>32</dim>
					<dim>1</dim>
					<dim>1</dim>
				</port>
				<port id="3">
					<dim>1</dim>
					<dim>32</dim>
					<dim>1</dim>
					<dim>1</dim>
				</port>
				<port id="4">
					<dim>1</dim>
					<dim>32</dim>
					<dim>1</dim>
					<dim>1</dim>
				</port>
			</input>
			<output>
				<port id="5" precision="FP32">
					<dim>1</dim>
					<dim>32</dim>
					<dim>104</dim>
					<dim>104</dim>
				</port>
			</output>
		</layer>
		<layer id="289" name="16480/value1648220337" type="Const" version="opset1">
			<data offset="10248" size="40" shape="5" element_type="i64"/>
			<output>
				<port id="0" precision="I64">
					<dim>5</dim>
				</port>
			</output>
		</layer>
		<layer id="290" name="12057449982/quantized1217321402" type="Const" version="opset1">
			<data offset="10288" size="288" shape="32,1,3,3" element_type="i8"/>
			<output>
				<port id="0" precision="I8">
					<dim>32</dim>
					<dim>1</dim>
					<dim>3</dim>
					<dim>3</dim>
				</port>
			</output>
		</layer>
		<layer id="291" name="12057449982/quantized/to_f32" type="Convert" version="opset1">
			<data destination_type="f32"/>
			<input>
				<port id="0">
					<dim>32</dim>
					<dim>1</dim>
					<dim>3</dim>
					<dim>3</dim>
				</port>
			</input>
			<output>
				<port id="1" precision="FP32">
					<dim>32</dim>
					<dim>1</dim>
					<dim>3</dim>
					<dim>3</dim>
				</port>
			</output>
		</layer>
		<layer id="292" name="Conv_70/WithoutBiases/fq_weights_1/zero_point1219221420" type="Const" version="opset1">
			<data offset="10576" size="128" shape="32,1,1,1" element_type="f32"/>
			<output>
				<port id="0" precision="FP32">
					<dim>32</dim>
					<dim>1</dim>
					<dim>1</dim>
					<dim>1</dim>
				</port>
			</output>
		</layer>
		<layer id="293" name="Conv_70/WithoutBiases/fq_weights_1/minus_zp" type="Subtract" version="opset1">
			<data auto_broadcast="numpy"/>
			<input>
				<port id="0">
					<dim>32</dim>
					<dim>1</dim>
					<dim>3</dim>
					<dim>3</dim>
				</port>
				<port id="1">
					<dim>32</dim>
					<dim>1</dim>
					<dim>1</dim>
					<dim>1</dim>
				</port>
			</input>
			<output>
				<port id="2" precision="FP32">
					<dim>32</dim>
					<dim>1</dim>
					<dim>3</dim>
					<dim>3</dim>
				</port>
			</output>
		</layer>
		<layer id="294" name="Conv_70/WithoutBiases/fq_weights_1/scale1218118969" type="Const" version="opset1">
			<data offset="10704" size="128" shape="32,1,1,1" element_type="f32"/>
			<output>
				<port id="0" precision="FP32">
					<dim>32</dim>
					<dim>1</dim>
					<dim>1</dim>
					<dim>1</dim>
				</port>
			</output>
		</layer>
		<layer id="295" name="Conv_70/WithoutBiases/fq_weights_1/mulpiply_by_scale" type="Multiply" version="opset1">
			<data auto_broadcast="numpy"/>
			<input>
				<port id="0">
					<dim>32</dim>
					<dim>1</dim>
					<dim>3</dim>
					<dim>3</dim>
				</port>
				<port id="1">
					<dim>32</dim>
					<dim>1</dim>
					<dim>1</dim>
					<dim>1</dim>
				</port>
			</input>
			<output>
				<port id="2" precision="FP32">
					<dim>32</dim>
					<dim>1</dim>
					<dim>3</dim>
					<dim>3</dim>
				</port>
			</output>
		</layer>
		<layer id="296" name="16480" type="Reshape" version="opset1">
			<data special_zero="true"/>
			<input>
				<port id="0">
					<dim>32</dim>
					<dim>1</dim>
					<dim>3</dim>
					<dim>3</dim>
				</port>
				<port id="1">
					<dim>5</dim>
				</port>
			</input>
			<output>
				<port id="2" precision="FP32">
					<dim>32</dim>
					<dim>1</dim>
					<dim>1</dim>
					<dim>3</dim>
					<dim>3</dim>
				</port>
			</output>
		</layer>
		<layer id="297" name="Conv_70/WithoutBiases" type="GroupConvolution" version="opset1">
			<data auto_pad="explicit" strides="2,2" dilations="1,1" pads_begin="1,1" pads_end="1,1"/>
			<input>
				<port id="0">
					<dim>1</dim>
					<dim>32</dim>
					<dim>104</dim>
					<dim>104</dim>
				</port>
				<port id="1">
					<dim>32</dim>
					<dim>1</dim>
					<dim>1</dim>
					<dim>3</dim>
					<dim>3</dim>
				</port>
			</input>
			<output>
				<port id="2" precision="FP32">
					<dim>1</dim>
					<dim>32</dim>
					<dim>52</dim>
					<dim>52</dim>
				</port>
			</output>
		</layer>
		<layer id="298" name="Conv_70/Dims547274619632" type="Const" version="opset1">
			<data offset="10832" size="128" shape="1,32,1,1" element_type="f32"/>
			<output>
				<port id="0" precision="FP32">
					<dim>1</dim>
					<dim>32</dim>
					<dim>1</dim>
					<dim>1</dim>
				</port>
			</output>
		</layer>
		<layer id="299" name="Conv_70" type="Add" version="opset1">
			<data auto_broadcast="numpy"/>
			<input>
				<port id="0">
					<dim>1</dim>
					<dim>32</dim>
					<dim>52</dim>
					<dim>52</dim>
				</port>
				<port id="1">
					<dim>1</dim>
					<dim>32</dim>
					<dim>1</dim>
					<dim>1</dim>
				</port>
			</input>
			<output>
				<port id="2" precision="FP32" names="1204">
					<dim>1</dim>
					<dim>32</dim>
					<dim>52</dim>
					<dim>52</dim>
				</port>
			</output>
		</layer>
		<layer id="300" name="Mul_72" type="Swish" version="opset4">
			<input>
				<port id="0">
					<dim>1</dim>
					<dim>32</dim>
					<dim>52</dim>
					<dim>52</dim>
				</port>
			</input>
			<output>
				<port id="1" precision="FP32" names="725">
					<dim>1</dim>
					<dim>32</dim>
					<dim>52</dim>
					<dim>52</dim>
				</port>
			</output>
		</layer>
		<layer id="301" name="Conv_73/WithoutBiases/fq_input_0" type="FakeQuantize" version="opset1">
			<data levels="256" auto_broadcast="numpy"/>
			<input>
				<port id="0">
					<dim>1</dim>
					<dim>32</dim>
					<dim>52</dim>
					<dim>52</dim>
				</port>
				<port id="1"/>
				<port id="2"/>
				<port id="3"/>
				<port id="4"/>
			</input>
			<output>
				<port id="5" precision="FP32">
					<dim>1</dim>
					<dim>32</dim>
					<dim>52</dim>
					<dim>52</dim>
				</port>
			</output>
		</layer>
		<layer id="302" name="12087499984/quantized1382319773" type="Const" version="opset1">
			<data offset="10960" size="2048" shape="64,32,1,1" element_type="i8"/>
			<output>
				<port id="0" precision="I8">
					<dim>64</dim>
					<dim>32</dim>
					<dim>1</dim>
					<dim>1</dim>
				</port>
			</output>
		</layer>
		<layer id="303" name="12087499984/quantized/to_f32" type="Convert" version="opset1">
			<data destination_type="f32"/>
			<input>
				<port id="0">
					<dim>64</dim>
					<dim>32</dim>
					<dim>1</dim>
					<dim>1</dim>
				</port>
			</input>
			<output>
				<port id="1" precision="FP32">
					<dim>64</dim>
					<dim>32</dim>
					<dim>1</dim>
					<dim>1</dim>
				</port>
			</output>
		</layer>
		<layer id="304" name="Conv_73/WithoutBiases/fq_weights_1/zero_point1384218912" type="Const" version="opset1">
			<data offset="13008" size="256" shape="64,1,1,1" element_type="f32"/>
			<output>
				<port id="0" precision="FP32">
					<dim>64</dim>
					<dim>1</dim>
					<dim>1</dim>
					<dim>1</dim>
				</port>
			</output>
		</layer>
		<layer id="305" name="Conv_73/WithoutBiases/fq_weights_1/minus_zp" type="Subtract" version="opset1">
			<data auto_broadcast="numpy"/>
			<input>
				<port id="0">
					<dim>64</dim>
					<dim>32</dim>
					<dim>1</dim>
					<dim>1</dim>
				</port>
				<port id="1">
					<dim>64</dim>
					<dim>1</dim>
					<dim>1</dim>
					<dim>1</dim>
				</port>
			</input>
			<output>
				<port id="2" precision="FP32">
					<dim>64</dim>
					<dim>32</dim>
					<dim>1</dim>
					<dim>1</dim>
				</port>
			</output>
		</layer>
		<layer id="306" name="Conv_73/WithoutBiases/fq_weights_1/scale1383120523" type="Const" version="opset1">
			<data offset="13264" size="256" shape="64,1,1,1" element_type="f32"/>
			<output>
				<port id="0" precision="FP32">
					<dim>64</dim>
					<dim>1</dim>
					<dim>1</dim>
					<dim>1</dim>
				</port>
			</output>
		</layer>
		<layer id="307" name="Conv_73/WithoutBiases/fq_weights_1/mulpiply_by_scale" type="Multiply" version="opset1">
			<data auto_broadcast="numpy"/>
			<input>
				<port id="0">
					<dim>64</dim>
					<dim>32</dim>
					<dim>1</dim>
					<dim>1</dim>
				</port>
				<port id="1">
					<dim>64</dim>
					<dim>1</dim>
					<dim>1</dim>
					<dim>1</dim>
				</port>
			</input>
			<output>
				<port id="2" precision="FP32">
					<dim>64</dim>
					<dim>32</dim>
					<dim>1</dim>
					<dim>1</dim>
				</port>
			</output>
		</layer>
		<layer id="308" name="Conv_73/WithoutBiases" type="Convolution" version="opset1">
			<data auto_pad="explicit" strides="1,1" dilations="1,1" pads_begin="0,0" pads_end="0,0"/>
			<input>
				<port id="0">
					<dim>1</dim>
					<dim>32</dim>
					<dim>52</dim>
					<dim>52</dim>
				</port>
				<port id="1">
					<dim>64</dim>
					<dim>32</dim>
					<dim>1</dim>
					<dim>1</dim>
				</port>
			</input>
			<output>
				<port id="2" precision="FP32">
					<dim>1</dim>
					<dim>64</dim>
					<dim>52</dim>
					<dim>52</dim>
				</port>
			</output>
		</layer>
		<layer id="309" name="Conv_73/Dims526875118741" type="Const" version="opset1">
			<data offset="13520" size="256" shape="1,64,1,1" element_type="f32"/>
			<output>
				<port id="0" precision="FP32">
					<dim>1</dim>
					<dim>64</dim>
					<dim>1</dim>
					<dim>1</dim>
				</port>
			</output>
		</layer>
		<layer id="310" name="Conv_73" type="Add" version="opset1">
			<data auto_broadcast="numpy"/>
			<input>
				<port id="0">
					<dim>1</dim>
					<dim>64</dim>
					<dim>52</dim>
					<dim>52</dim>
				</port>
				<port id="1">
					<dim>1</dim>
					<dim>64</dim>
					<dim>1</dim>
					<dim>1</dim>
				</port>
			</input>
			<output>
				<port id="2" precision="FP32" names="1207">
					<dim>1</dim>
					<dim>64</dim>
					<dim>52</dim>
					<dim>52</dim>
				</port>
			</output>
		</layer>
		<layer id="311" name="Mul_75" type="Swish" version="opset4">
			<input>
				<port id="0">
					<dim>1</dim>
					<dim>64</dim>
					<dim>52</dim>
					<dim>52</dim>
				</port>
			</input>
			<output>
				<port id="1" precision="FP32" names="729">
					<dim>1</dim>
					<dim>64</dim>
					<dim>52</dim>
					<dim>52</dim>
				</port>
			</output>
		</layer>
		<layer id="312" name="Conv_76/WithoutBiases/fq_input_0" type="FakeQuantize" version="opset1">
			<data levels="256" auto_broadcast="numpy"/>
			<input>
				<port id="0">
					<dim>1</dim>
					<dim>64</dim>
					<dim>52</dim>
					<dim>52</dim>
				</port>
				<port id="1"/>
				<port id="2"/>
				<port id="3"/>
				<port id="4"/>
			</input>
			<output>
				<port id="5" precision="FP32">
					<dim>1</dim>
					<dim>64</dim>
					<dim>52</dim>
					<dim>52</dim>
				</port>
			</output>
		</layer>
		<layer id="313" name="12117549986/quantized1124318858" type="Const" version="opset1">
			<data offset="13776" size="2048" shape="32,64,1,1" element_type="i8"/>
			<output>
				<port id="0" precision="I8">
					<dim>32</dim>
					<dim>64</dim>
					<dim>1</dim>
					<dim>1</dim>
				</port>
			</output>
		</layer>
		<layer id="314" name="12117549986/quantized/to_f32" type="Convert" version="opset1">
			<data destination_type="f32"/>
			<input>
				<port id="0">
					<dim>32</dim>
					<dim>64</dim>
					<dim>1</dim>
					<dim>1</dim>
				</port>
			</input>
			<output>
				<port id="1" precision="FP32">
					<dim>32</dim>
					<dim>64</dim>
					<dim>1</dim>
					<dim>1</dim>
				</port>
			</output>
		</layer>
		<layer id="315" name="Conv_76/WithoutBiases/fq_weights_1/zero_point1126220367" type="Const" version="opset1">
			<data offset="15824" size="128" shape="32,1,1,1" element_type="f32"/>
			<output>
				<port id="0" precision="FP32">
					<dim>32</dim>
					<dim>1</dim>
					<dim>1</dim>
					<dim>1</dim>
				</port>
			</output>
		</layer>
		<layer id="316" name="Conv_76/WithoutBiases/fq_weights_1/minus_zp" type="Subtract" version="opset1">
			<data auto_broadcast="numpy"/>
			<input>
				<port id="0">
					<dim>32</dim>
					<dim>64</dim>
					<dim>1</dim>
					<dim>1</dim>
				</port>
				<port id="1">
					<dim>32</dim>
					<dim>1</dim>
					<dim>1</dim>
					<dim>1</dim>
				</port>
			</input>
			<output>
				<port id="2" precision="FP32">
					<dim>32</dim>
					<dim>64</dim>
					<dim>1</dim>
					<dim>1</dim>
				</port>
			</output>
		</layer>
		<layer id="317" name="Conv_76/WithoutBiases/fq_weights_1/scale1125120316" type="Const" version="opset1">
			<data offset="15952" size="128" shape="32,1,1,1" element_type="f32"/>
			<output>
				<port id="0" precision="FP32">
					<dim>32</dim>
					<dim>1</dim>
					<dim>1</dim>
					<dim>1</dim>
				</port>
			</output>
		</layer>
		<layer id="318" name="Conv_76/WithoutBiases/fq_weights_1/mulpiply_by_scale" type="Multiply" version="opset1">
			<data auto_broadcast="numpy"/>
			<input>
				<port id="0">
					<dim>32</dim>
					<dim>64</dim>
					<dim>1</dim>
					<dim>1</dim>
				</port>
				<port id="1">
					<dim>32</dim>
					<dim>1</dim>
					<dim>1</dim>
					<dim>1</dim>
				</port>
			</input>
			<output>
				<port id="2" precision="FP32">
					<dim>32</dim>
					<dim>64</dim>
					<dim>1</dim>
					<dim>1</dim>
				</port>
			</output>
		</layer>
		<layer id="319" name="Conv_76/WithoutBiases" type="Convolution" version="opset1">
			<data auto_pad="explicit" strides="1,1" dilations="1,1" pads_begin="0,0" pads_end="0,0"/>
			<input>
				<port id="0">
					<dim>1</dim>
					<dim>64</dim>
					<dim>52</dim>
					<dim>52</dim>
				</port>
				<port id="1">
					<dim>32</dim>
					<dim>64</dim>
					<dim>1</dim>
					<dim>1</dim>
				</port>
			</input>
			<output>
				<port id="2" precision="FP32">
					<dim>1</dim>
					<dim>32</dim>
					<dim>52</dim>
					<dim>52</dim>
				</port>
			</output>
		</layer>
		<layer id="320" name="Conv_76/Dims562875620952" type="Const" version="opset1">
			<data offset="16080" size="128" shape="1,32,1,1" element_type="f32"/>
			<output>
				<port id="0" precision="FP32">
					<dim>1</dim>
					<dim>32</dim>
					<dim>1</dim>
					<dim>1</dim>
				</port>
			</output>
		</layer>
		<layer id="321" name="Conv_76" type="Add" version="opset1">
			<data auto_broadcast="numpy"/>
			<input>
				<port id="0">
					<dim>1</dim>
					<dim>32</dim>
					<dim>52</dim>
					<dim>52</dim>
				</port>
				<port id="1">
					<dim>1</dim>
					<dim>32</dim>
					<dim>1</dim>
					<dim>1</dim>
				</port>
			</input>
			<output>
				<port id="2" precision="FP32" names="1210">
					<dim>1</dim>
					<dim>32</dim>
					<dim>52</dim>
					<dim>52</dim>
				</port>
			</output>
		</layer>
		<layer id="322" name="Mul_78" type="Swish" version="opset4">
			<input>
				<port id="0">
					<dim>1</dim>
					<dim>32</dim>
					<dim>52</dim>
					<dim>52</dim>
				</port>
			</input>
			<output>
				<port id="1" precision="FP32" names="733">
					<dim>1</dim>
					<dim>32</dim>
					<dim>52</dim>
					<dim>52</dim>
				</port>
			</output>
		</layer>
		<layer id="323" name="Add_91/fq_input_1" type="FakeQuantize" version="opset1">
			<data levels="256" auto_broadcast="numpy"/>
			<input>
				<port id="0">
					<dim>1</dim>
					<dim>32</dim>
					<dim>52</dim>
					<dim>52</dim>
				</port>
				<port id="1"/>
				<port id="2"/>
				<port id="3"/>
				<port id="4"/>
			</input>
			<output>
				<port id="5" precision="FP32">
					<dim>1</dim>
					<dim>32</dim>
					<dim>52</dim>
					<dim>52</dim>
				</port>
			</output>
		</layer>
		<layer id="324" name="12177599988/quantized1151319281" type="Const" version="opset1">
			<data offset="16208" size="1024" shape="32,32,1,1" element_type="i8"/>
			<output>
				<port id="0" precision="I8">
					<dim>32</dim>
					<dim>32</dim>
					<dim>1</dim>
					<dim>1</dim>
				</port>
			</output>
		</layer>
		<layer id="325" name="12177599988/quantized/to_f32" type="Convert" version="opset1">
			<data destination_type="f32"/>
			<input>
				<port id="0">
					<dim>32</dim>
					<dim>32</dim>
					<dim>1</dim>
					<dim>1</dim>
				</port>
			</input>
			<output>
				<port id="1" precision="FP32">
					<dim>32</dim>
					<dim>32</dim>
					<dim>1</dim>
					<dim>1</dim>
				</port>
			</output>
		</layer>
		<layer id="326" name="Conv_82/WithoutBiases/fq_weights_1/zero_point1153219347" type="Const" version="opset1">
			<data offset="17232" size="128" shape="32,1,1,1" element_type="f32"/>
			<output>
				<port id="0" precision="FP32">
					<dim>32</dim>
					<dim>1</dim>
					<dim>1</dim>
					<dim>1</dim>
				</port>
			</output>
		</layer>
		<layer id="327" name="Conv_82/WithoutBiases/fq_weights_1/minus_zp" type="Subtract" version="opset1">
			<data auto_broadcast="numpy"/>
			<input>
				<port id="0">
					<dim>32</dim>
					<dim>32</dim>
					<dim>1</dim>
					<dim>1</dim>
				</port>
				<port id="1">
					<dim>32</dim>
					<dim>1</dim>
					<dim>1</dim>
					<dim>1</dim>
				</port>
			</input>
			<output>
				<port id="2" precision="FP32">
					<dim>32</dim>
					<dim>32</dim>
					<dim>1</dim>
					<dim>1</dim>
				</port>
			</output>
		</layer>
		<layer id="328" name="Conv_82/WithoutBiases/fq_weights_1/scale1152119869" type="Const" version="opset1">
			<data offset="17360" size="128" shape="32,1,1,1" element_type="f32"/>
			<output>
				<port id="0" precision="FP32">
					<dim>32</dim>
					<dim>1</dim>
					<dim>1</dim>
					<dim>1</dim>
				</port>
			</output>
		</layer>
		<layer id="329" name="Conv_82/WithoutBiases/fq_weights_1/mulpiply_by_scale" type="Multiply" version="opset1">
			<data auto_broadcast="numpy"/>
			<input>
				<port id="0">
					<dim>32</dim>
					<dim>32</dim>
					<dim>1</dim>
					<dim>1</dim>
				</port>
				<port id="1">
					<dim>32</dim>
					<dim>1</dim>
					<dim>1</dim>
					<dim>1</dim>
				</port>
			</input>
			<output>
				<port id="2" precision="FP32">
					<dim>32</dim>
					<dim>32</dim>
					<dim>1</dim>
					<dim>1</dim>
				</port>
			</output>
		</layer>
		<layer id="330" name="Conv_82/WithoutBiases" type="Convolution" version="opset1">
			<data auto_pad="explicit" strides="1,1" dilations="1,1" pads_begin="0,0" pads_end="0,0"/>
			<input>
				<port id="0">
					<dim>1</dim>
					<dim>32</dim>
					<dim>52</dim>
					<dim>52</dim>
				</port>
				<port id="1">
					<dim>32</dim>
					<dim>32</dim>
					<dim>1</dim>
					<dim>1</dim>
				</port>
			</input>
			<output>
				<port id="2" precision="FP32">
					<dim>1</dim>
					<dim>32</dim>
					<dim>52</dim>
					<dim>52</dim>
				</port>
			</output>
		</layer>
		<layer id="331" name="Conv_82/Dims543676119866" type="Const" version="opset1">
			<data offset="17488" size="128" shape="1,32,1,1" element_type="f32"/>
			<output>
				<port id="0" precision="FP32">
					<dim>1</dim>
					<dim>32</dim>
					<dim>1</dim>
					<dim>1</dim>
				</port>
			</output>
		</layer>
		<layer id="332" name="Conv_82" type="Add" version="opset1">
			<data auto_broadcast="numpy"/>
			<input>
				<port id="0">
					<dim>1</dim>
					<dim>32</dim>
					<dim>52</dim>
					<dim>52</dim>
				</port>
				<port id="1">
					<dim>1</dim>
					<dim>32</dim>
					<dim>1</dim>
					<dim>1</dim>
				</port>
			</input>
			<output>
				<port id="2" precision="FP32" names="1216">
					<dim>1</dim>
					<dim>32</dim>
					<dim>52</dim>
					<dim>52</dim>
				</port>
			</output>
		</layer>
		<layer id="333" name="Mul_84" type="Swish" version="opset4">
			<input>
				<port id="0">
					<dim>1</dim>
					<dim>32</dim>
					<dim>52</dim>
					<dim>52</dim>
				</port>
			</input>
			<output>
				<port id="1" precision="FP32" names="741">
					<dim>1</dim>
					<dim>32</dim>
					<dim>52</dim>
					<dim>52</dim>
				</port>
			</output>
		</layer>
		<layer id="334" name="Conv_85/WithoutBiases/fq_input_0" type="FakeQuantize" version="opset1">
			<data levels="256" auto_broadcast="numpy"/>
			<input>
				<port id="0">
					<dim>1</dim>
					<dim>32</dim>
					<dim>52</dim>
					<dim>52</dim>
				</port>
				<port id="1">
					<dim>1</dim>
					<dim>32</dim>
					<dim>1</dim>
					<dim>1</dim>
				</port>
				<port id="2">
					<dim>1</dim>
					<dim>32</dim>
					<dim>1</dim>
					<dim>1</dim>
				</port>
				<port id="3">
					<dim>1</dim>
					<dim>32</dim>
					<dim>1</dim>
					<dim>1</dim>
				</port>
				<port id="4">
					<dim>1</dim>
					<dim>32</dim>
					<dim>1</dim>
					<dim>1</dim>
				</port>
			</input>
			<output>
				<port id="5" precision="FP32">
					<dim>1</dim>
					<dim>32</dim>
					<dim>52</dim>
					<dim>52</dim>
				</port>
			</output>
		</layer>
		<layer id="335" name="16484/value1648620175" type="Const" version="opset1">
			<data offset="10248" size="40" shape="5" element_type="i64"/>
			<output>
				<port id="0" precision="I64">
					<dim>5</dim>
				</port>
			</output>
		</layer>
		<layer id="336" name="12207649990/quantized1415319617" type="Const" version="opset1">
			<data offset="17616" size="288" shape="32,1,3,3" element_type="i8"/>
			<output>
				<port id="0" precision="I8">
					<dim>32</dim>
					<dim>1</dim>
					<dim>3</dim>
					<dim>3</dim>
				</port>
			</output>
		</layer>
		<layer id="337" name="12207649990/quantized/to_f32" type="Convert" version="opset1">
			<data destination_type="f32"/>
			<input>
				<port id="0">
					<dim>32</dim>
					<dim>1</dim>
					<dim>3</dim>
					<dim>3</dim>
				</port>
			</input>
			<output>
				<port id="1" precision="FP32">
					<dim>32</dim>
					<dim>1</dim>
					<dim>3</dim>
					<dim>3</dim>
				</port>
			</output>
		</layer>
		<layer id="338" name="Conv_85/WithoutBiases/fq_weights_1/zero_point1417219287" type="Const" version="opset1">
			<data offset="17904" size="128" shape="32,1,1,1" element_type="f32"/>
			<output>
				<port id="0" precision="FP32">
					<dim>32</dim>
					<dim>1</dim>
					<dim>1</dim>
					<dim>1</dim>
				</port>
			</output>
		</layer>
		<layer id="339" name="Conv_85/WithoutBiases/fq_weights_1/minus_zp" type="Subtract" version="opset1">
			<data auto_broadcast="numpy"/>
			<input>
				<port id="0">
					<dim>32</dim>
					<dim>1</dim>
					<dim>3</dim>
					<dim>3</dim>
				</port>
				<port id="1">
					<dim>32</dim>
					<dim>1</dim>
					<dim>1</dim>
					<dim>1</dim>
				</port>
			</input>
			<output>
				<port id="2" precision="FP32">
					<dim>32</dim>
					<dim>1</dim>
					<dim>3</dim>
					<dim>3</dim>
				</port>
			</output>
		</layer>
		<layer id="340" name="Conv_85/WithoutBiases/fq_weights_1/scale1416119230" type="Const" version="opset1">
			<data offset="18032" size="128" shape="32,1,1,1" element_type="f32"/>
			<output>
				<port id="0" precision="FP32">
					<dim>32</dim>
					<dim>1</dim>
					<dim>1</dim>
					<dim>1</dim>
				</port>
			</output>
		</layer>
		<layer id="341" name="Conv_85/WithoutBiases/fq_weights_1/mulpiply_by_scale" type="Multiply" version="opset1">
			<data auto_broadcast="numpy"/>
			<input>
				<port id="0">
					<dim>32</dim>
					<dim>1</dim>
					<dim>3</dim>
					<dim>3</dim>
				</port>
				<port id="1">
					<dim>32</dim>
					<dim>1</dim>
					<dim>1</dim>
					<dim>1</dim>
				</port>
			</input>
			<output>
				<port id="2" precision="FP32">
					<dim>32</dim>
					<dim>1</dim>
					<dim>3</dim>
					<dim>3</dim>
				</port>
			</output>
		</layer>
		<layer id="342" name="16484" type="Reshape" version="opset1">
			<data special_zero="true"/>
			<input>
				<port id="0">
					<dim>32</dim>
					<dim>1</dim>
					<dim>3</dim>
					<dim>3</dim>
				</port>
				<port id="1">
					<dim>5</dim>
				</port>
			</input>
			<output>
				<port id="2" precision="FP32">
					<dim>32</dim>
					<dim>1</dim>
					<dim>1</dim>
					<dim>3</dim>
					<dim>3</dim>
				</port>
			</output>
		</layer>
		<layer id="343" name="Conv_85/WithoutBiases" type="GroupConvolution" version="opset1">
			<data auto_pad="explicit" strides="1,1" dilations="1,1" pads_begin="1,1" pads_end="1,1"/>
			<input>
				<port id="0">
					<dim>1</dim>
					<dim>32</dim>
					<dim>52</dim>
					<dim>52</dim>
				</port>
				<port id="1">
					<dim>32</dim>
					<dim>1</dim>
					<dim>1</dim>
					<dim>3</dim>
					<dim>3</dim>
				</port>
			</input>
			<output>
				<port id="2" precision="FP32">
					<dim>1</dim>
					<dim>32</dim>
					<dim>52</dim>
					<dim>52</dim>
				</port>
			</output>
		</layer>
		<layer id="344" name="Conv_85/Dims560476620142" type="Const" version="opset1">
			<data offset="18160" size="128" shape="1,32,1,1" element_type="f32"/>
			<output>
				<port id="0" precision="FP32">
					<dim>1</dim>
					<dim>32</dim>
					<dim>1</dim>
					<dim>1</dim>
				</port>
			</output>
		</layer>
		<layer id="345" name="Conv_85" type="Add" version="opset1">
			<data auto_broadcast="numpy"/>
			<input>
				<port id="0">
					<dim>1</dim>
					<dim>32</dim>
					<dim>52</dim>
					<dim>52</dim>
				</port>
				<port id="1">
					<dim>1</dim>
					<dim>32</dim>
					<dim>1</dim>
					<dim>1</dim>
				</port>
			</input>
			<output>
				<port id="2" precision="FP32" names="1219">
					<dim>1</dim>
					<dim>32</dim>
					<dim>52</dim>
					<dim>52</dim>
				</port>
			</output>
		</layer>
		<layer id="346" name="Mul_87" type="Swish" version="opset4">
			<input>
				<port id="0">
					<dim>1</dim>
					<dim>32</dim>
					<dim>52</dim>
					<dim>52</dim>
				</port>
			</input>
			<output>
				<port id="1" precision="FP32" names="745">
					<dim>1</dim>
					<dim>32</dim>
					<dim>52</dim>
					<dim>52</dim>
				</port>
			</output>
		</layer>
		<layer id="347" name="Conv_88/WithoutBiases/fq_input_0" type="FakeQuantize" version="opset1">
			<data levels="256" auto_broadcast="numpy"/>
			<input>
				<port id="0">
					<dim>1</dim>
					<dim>32</dim>
					<dim>52</dim>
					<dim>52</dim>
				</port>
				<port id="1"/>
				<port id="2"/>
				<port id="3"/>
				<port id="4"/>
			</input>
			<output>
				<port id="5" precision="FP32">
					<dim>1</dim>
					<dim>32</dim>
					<dim>52</dim>
					<dim>52</dim>
				</port>
			</output>
		</layer>
		<layer id="348" name="12237699992/quantized1229318639" type="Const" version="opset1">
			<data offset="18288" size="1024" shape="32,32,1,1" element_type="i8"/>
			<output>
				<port id="0" precision="I8">
					<dim>32</dim>
					<dim>32</dim>
					<dim>1</dim>
					<dim>1</dim>
				</port>
			</output>
		</layer>
		<layer id="349" name="12237699992/quantized/to_f32" type="Convert" version="opset1">
			<data destination_type="f32"/>
			<input>
				<port id="0">
					<dim>32</dim>
					<dim>32</dim>
					<dim>1</dim>
					<dim>1</dim>
				</port>
			</input>
			<output>
				<port id="1" precision="FP32">
					<dim>32</dim>
					<dim>32</dim>
					<dim>1</dim>
					<dim>1</dim>
				</port>
			</output>
		</layer>
		<layer id="350" name="Conv_88/WithoutBiases/fq_weights_1/zero_point1231219827" type="Const" version="opset1">
			<data offset="19312" size="128" shape="32,1,1,1" element_type="f32"/>
			<output>
				<port id="0" precision="FP32">
					<dim>32</dim>
					<dim>1</dim>
					<dim>1</dim>
					<dim>1</dim>
				</port>
			</output>
		</layer>
		<layer id="351" name="Conv_88/WithoutBiases/fq_weights_1/minus_zp" type="Subtract" version="opset1">
			<data auto_broadcast="numpy"/>
			<input>
				<port id="0">
					<dim>32</dim>
					<dim>32</dim>
					<dim>1</dim>
					<dim>1</dim>
				</port>
				<port id="1">
					<dim>32</dim>
					<dim>1</dim>
					<dim>1</dim>
					<dim>1</dim>
				</port>
			</input>
			<output>
				<port id="2" precision="FP32">
					<dim>32</dim>
					<dim>32</dim>
					<dim>1</dim>
					<dim>1</dim>
				</port>
			</output>
		</layer>
		<layer id="352" name="Conv_88/WithoutBiases/fq_weights_1/scale1230119275" type="Const" version="opset1">
			<data offset="19440" size="128" shape="32,1,1,1" element_type="f32"/>
			<output>
				<port id="0" precision="FP32">
					<dim>32</dim>
					<dim>1</dim>
					<dim>1</dim>
					<dim>1</dim>
				</port>
			</output>
		</layer>
		<layer id="353" name="Conv_88/WithoutBiases/fq_weights_1/mulpiply_by_scale" type="Multiply" version="opset1">
			<data auto_broadcast="numpy"/>
			<input>
				<port id="0">
					<dim>32</dim>
					<dim>32</dim>
					<dim>1</dim>
					<dim>1</dim>
				</port>
				<port id="1">
					<dim>32</dim>
					<dim>1</dim>
					<dim>1</dim>
					<dim>1</dim>
				</port>
			</input>
			<output>
				<port id="2" precision="FP32">
					<dim>32</dim>
					<dim>32</dim>
					<dim>1</dim>
					<dim>1</dim>
				</port>
			</output>
		</layer>
		<layer id="354" name="Conv_88/WithoutBiases" type="Convolution" version="opset1">
			<data auto_pad="explicit" strides="1,1" dilations="1,1" pads_begin="0,0" pads_end="0,0"/>
			<input>
				<port id="0">
					<dim>1</dim>
					<dim>32</dim>
					<dim>52</dim>
					<dim>52</dim>
				</port>
				<port id="1">
					<dim>32</dim>
					<dim>32</dim>
					<dim>1</dim>
					<dim>1</dim>
				</port>
			</input>
			<output>
				<port id="2" precision="FP32">
					<dim>1</dim>
					<dim>32</dim>
					<dim>52</dim>
					<dim>52</dim>
				</port>
			</output>
		</layer>
		<layer id="355" name="Conv_88/Dims519077121243" type="Const" version="opset1">
			<data offset="19568" size="128" shape="1,32,1,1" element_type="f32"/>
			<output>
				<port id="0" precision="FP32">
					<dim>1</dim>
					<dim>32</dim>
					<dim>1</dim>
					<dim>1</dim>
				</port>
			</output>
		</layer>
		<layer id="356" name="Conv_88" type="Add" version="opset1">
			<data auto_broadcast="numpy"/>
			<input>
				<port id="0">
					<dim>1</dim>
					<dim>32</dim>
					<dim>52</dim>
					<dim>52</dim>
				</port>
				<port id="1">
					<dim>1</dim>
					<dim>32</dim>
					<dim>1</dim>
					<dim>1</dim>
				</port>
			</input>
			<output>
				<port id="2" precision="FP32" names="1222">
					<dim>1</dim>
					<dim>32</dim>
					<dim>52</dim>
					<dim>52</dim>
				</port>
			</output>
		</layer>
		<layer id="357" name="Mul_90" type="Swish" version="opset4">
			<input>
				<port id="0">
					<dim>1</dim>
					<dim>32</dim>
					<dim>52</dim>
					<dim>52</dim>
				</port>
			</input>
			<output>
				<port id="1" precision="FP32" names="749">
					<dim>1</dim>
					<dim>32</dim>
					<dim>52</dim>
					<dim>52</dim>
				</port>
			</output>
		</layer>
		<layer id="358" name="Add_91/fq_input_0" type="FakeQuantize" version="opset1">
			<data levels="256" auto_broadcast="numpy"/>
			<input>
				<port id="0">
					<dim>1</dim>
					<dim>32</dim>
					<dim>52</dim>
					<dim>52</dim>
				</port>
				<port id="1"/>
				<port id="2"/>
				<port id="3"/>
				<port id="4"/>
			</input>
			<output>
				<port id="5" precision="FP32">
					<dim>1</dim>
					<dim>32</dim>
					<dim>52</dim>
					<dim>52</dim>
				</port>
			</output>
		</layer>
		<layer id="359" name="Add_91" type="Add" version="opset1">
			<data auto_broadcast="numpy"/>
			<input>
				<port id="0">
					<dim>1</dim>
					<dim>32</dim>
					<dim>52</dim>
					<dim>52</dim>
				</port>
				<port id="1">
					<dim>1</dim>
					<dim>32</dim>
					<dim>52</dim>
					<dim>52</dim>
				</port>
			</input>
			<output>
				<port id="2" precision="FP32" names="750">
					<dim>1</dim>
					<dim>32</dim>
					<dim>52</dim>
					<dim>52</dim>
				</port>
			</output>
		</layer>
		<layer id="360" name="Add_101/fq_input_1" type="FakeQuantize" version="opset1">
			<data levels="256" auto_broadcast="numpy"/>
			<input>
				<port id="0">
					<dim>1</dim>
					<dim>32</dim>
					<dim>52</dim>
					<dim>52</dim>
				</port>
				<port id="1"/>
				<port id="2"/>
				<port id="3"/>
				<port id="4"/>
			</input>
			<output>
				<port id="5" precision="FP32">
					<dim>1</dim>
					<dim>32</dim>
					<dim>52</dim>
					<dim>52</dim>
				</port>
			</output>
		</layer>
		<layer id="361" name="12267759994/quantized1169318561" type="Const" version="opset1">
			<data offset="19696" size="1024" shape="32,32,1,1" element_type="i8"/>
			<output>
				<port id="0" precision="I8">
					<dim>32</dim>
					<dim>32</dim>
					<dim>1</dim>
					<dim>1</dim>
				</port>
			</output>
		</layer>
		<layer id="362" name="12267759994/quantized/to_f32" type="Convert" version="opset1">
			<data destination_type="f32"/>
			<input>
				<port id="0">
					<dim>32</dim>
					<dim>32</dim>
					<dim>1</dim>
					<dim>1</dim>
				</port>
			</input>
			<output>
				<port id="1" precision="FP32">
					<dim>32</dim>
					<dim>32</dim>
					<dim>1</dim>
					<dim>1</dim>
				</port>
			</output>
		</layer>
		<layer id="363" name="Conv_92/WithoutBiases/fq_weights_1/zero_point1171219413" type="Const" version="opset1">
			<data offset="20720" size="128" shape="32,1,1,1" element_type="f32"/>
			<output>
				<port id="0" precision="FP32">
					<dim>32</dim>
					<dim>1</dim>
					<dim>1</dim>
					<dim>1</dim>
				</port>
			</output>
		</layer>
		<layer id="364" name="Conv_92/WithoutBiases/fq_weights_1/minus_zp" type="Subtract" version="opset1">
			<data auto_broadcast="numpy"/>
			<input>
				<port id="0">
					<dim>32</dim>
					<dim>32</dim>
					<dim>1</dim>
					<dim>1</dim>
				</port>
				<port id="1">
					<dim>32</dim>
					<dim>1</dim>
					<dim>1</dim>
					<dim>1</dim>
				</port>
			</input>
			<output>
				<port id="2" precision="FP32">
					<dim>32</dim>
					<dim>32</dim>
					<dim>1</dim>
					<dim>1</dim>
				</port>
			</output>
		</layer>
		<layer id="365" name="Conv_92/WithoutBiases/fq_weights_1/scale1170119236" type="Const" version="opset1">
			<data offset="20848" size="128" shape="32,1,1,1" element_type="f32"/>
			<output>
				<port id="0" precision="FP32">
					<dim>32</dim>
					<dim>1</dim>
					<dim>1</dim>
					<dim>1</dim>
				</port>
			</output>
		</layer>
		<layer id="366" name="Conv_92/WithoutBiases/fq_weights_1/mulpiply_by_scale" type="Multiply" version="opset1">
			<data auto_broadcast="numpy"/>
			<input>
				<port id="0">
					<dim>32</dim>
					<dim>32</dim>
					<dim>1</dim>
					<dim>1</dim>
				</port>
				<port id="1">
					<dim>32</dim>
					<dim>1</dim>
					<dim>1</dim>
					<dim>1</dim>
				</port>
			</input>
			<output>
				<port id="2" precision="FP32">
					<dim>32</dim>
					<dim>32</dim>
					<dim>1</dim>
					<dim>1</dim>
				</port>
			</output>
		</layer>
		<layer id="367" name="Conv_92/WithoutBiases" type="Convolution" version="opset1">
			<data auto_pad="explicit" strides="1,1" dilations="1,1" pads_begin="0,0" pads_end="0,0"/>
			<input>
				<port id="0">
					<dim>1</dim>
					<dim>32</dim>
					<dim>52</dim>
					<dim>52</dim>
				</port>
				<port id="1">
					<dim>32</dim>
					<dim>32</dim>
					<dim>1</dim>
					<dim>1</dim>
				</port>
			</input>
			<output>
				<port id="2" precision="FP32">
					<dim>1</dim>
					<dim>32</dim>
					<dim>52</dim>
					<dim>52</dim>
				</port>
			</output>
		</layer>
		<layer id="368" name="Conv_92/Dims534677719872" type="Const" version="opset1">
			<data offset="20976" size="128" shape="1,32,1,1" element_type="f32"/>
			<output>
				<port id="0" precision="FP32">
					<dim>1</dim>
					<dim>32</dim>
					<dim>1</dim>
					<dim>1</dim>
				</port>
			</output>
		</layer>
		<layer id="369" name="Conv_92" type="Add" version="opset1">
			<data auto_broadcast="numpy"/>
			<input>
				<port id="0">
					<dim>1</dim>
					<dim>32</dim>
					<dim>52</dim>
					<dim>52</dim>
				</port>
				<port id="1">
					<dim>1</dim>
					<dim>32</dim>
					<dim>1</dim>
					<dim>1</dim>
				</port>
			</input>
			<output>
				<port id="2" precision="FP32" names="1225">
					<dim>1</dim>
					<dim>32</dim>
					<dim>52</dim>
					<dim>52</dim>
				</port>
			</output>
		</layer>
		<layer id="370" name="Mul_94" type="Swish" version="opset4">
			<input>
				<port id="0">
					<dim>1</dim>
					<dim>32</dim>
					<dim>52</dim>
					<dim>52</dim>
				</port>
			</input>
			<output>
				<port id="1" precision="FP32" names="754">
					<dim>1</dim>
					<dim>32</dim>
					<dim>52</dim>
					<dim>52</dim>
				</port>
			</output>
		</layer>
		<layer id="371" name="Conv_95/WithoutBiases/fq_input_0" type="FakeQuantize" version="opset1">
			<data levels="256" auto_broadcast="numpy"/>
			<input>
				<port id="0">
					<dim>1</dim>
					<dim>32</dim>
					<dim>52</dim>
					<dim>52</dim>
				</port>
				<port id="1">
					<dim>1</dim>
					<dim>32</dim>
					<dim>1</dim>
					<dim>1</dim>
				</port>
				<port id="2">
					<dim>1</dim>
					<dim>32</dim>
					<dim>1</dim>
					<dim>1</dim>
				</port>
				<port id="3">
					<dim>1</dim>
					<dim>32</dim>
					<dim>1</dim>
					<dim>1</dim>
				</port>
				<port id="4">
					<dim>1</dim>
					<dim>32</dim>
					<dim>1</dim>
					<dim>1</dim>
				</port>
			</input>
			<output>
				<port id="5" precision="FP32">
					<dim>1</dim>
					<dim>32</dim>
					<dim>52</dim>
					<dim>52</dim>
				</port>
			</output>
		</layer>
		<layer id="372" name="16488/value1649019686" type="Const" version="opset1">
			<data offset="10248" size="40" shape="5" element_type="i64"/>
			<output>
				<port id="0" precision="I64">
					<dim>5</dim>
				</port>
			</output>
		</layer>
		<layer id="373" name="12297809996/quantized1184320643" type="Const" version="opset1">
			<data offset="21104" size="288" shape="32,1,3,3" element_type="i8"/>
			<output>
				<port id="0" precision="I8">
					<dim>32</dim>
					<dim>1</dim>
					<dim>3</dim>
					<dim>3</dim>
				</port>
			</output>
		</layer>
		<layer id="374" name="12297809996/quantized/to_f32" type="Convert" version="opset1">
			<data destination_type="f32"/>
			<input>
				<port id="0">
					<dim>32</dim>
					<dim>1</dim>
					<dim>3</dim>
					<dim>3</dim>
				</port>
			</input>
			<output>
				<port id="1" precision="FP32">
					<dim>32</dim>
					<dim>1</dim>
					<dim>3</dim>
					<dim>3</dim>
				</port>
			</output>
		</layer>
		<layer id="375" name="Conv_95/WithoutBiases/fq_weights_1/zero_point1186219635" type="Const" version="opset1">
			<data offset="21392" size="128" shape="32,1,1,1" element_type="f32"/>
			<output>
				<port id="0" precision="FP32">
					<dim>32</dim>
					<dim>1</dim>
					<dim>1</dim>
					<dim>1</dim>
				</port>
			</output>
		</layer>
		<layer id="376" name="Conv_95/WithoutBiases/fq_weights_1/minus_zp" type="Subtract" version="opset1">
			<data auto_broadcast="numpy"/>
			<input>
				<port id="0">
					<dim>32</dim>
					<dim>1</dim>
					<dim>3</dim>
					<dim>3</dim>
				</port>
				<port id="1">
					<dim>32</dim>
					<dim>1</dim>
					<dim>1</dim>
					<dim>1</dim>
				</port>
			</input>
			<output>
				<port id="2" precision="FP32">
					<dim>32</dim>
					<dim>1</dim>
					<dim>3</dim>
					<dim>3</dim>
				</port>
			</output>
		</layer>
		<layer id="377" name="Conv_95/WithoutBiases/fq_weights_1/scale1185120040" type="Const" version="opset1">
			<data offset="21520" size="128" shape="32,1,1,1" element_type="f32"/>
			<output>
				<port id="0" precision="FP32">
					<dim>32</dim>
					<dim>1</dim>
					<dim>1</dim>
					<dim>1</dim>
				</port>
			</output>
		</layer>
		<layer id="378" name="Conv_95/WithoutBiases/fq_weights_1/mulpiply_by_scale" type="Multiply" version="opset1">
			<data auto_broadcast="numpy"/>
			<input>
				<port id="0">
					<dim>32</dim>
					<dim>1</dim>
					<dim>3</dim>
					<dim>3</dim>
				</port>
				<port id="1">
					<dim>32</dim>
					<dim>1</dim>
					<dim>1</dim>
					<dim>1</dim>
				</port>
			</input>
			<output>
				<port id="2" precision="FP32">
					<dim>32</dim>
					<dim>1</dim>
					<dim>3</dim>
					<dim>3</dim>
				</port>
			</output>
		</layer>
		<layer id="379" name="16488" type="Reshape" version="opset1">
			<data special_zero="true"/>
			<input>
				<port id="0">
					<dim>32</dim>
					<dim>1</dim>
					<dim>3</dim>
					<dim>3</dim>
				</port>
				<port id="1">
					<dim>5</dim>
				</port>
			</input>
			<output>
				<port id="2" precision="FP32">
					<dim>32</dim>
					<dim>1</dim>
					<dim>1</dim>
					<dim>3</dim>
					<dim>3</dim>
				</port>
			</output>
		</layer>
		<layer id="380" name="Conv_95/WithoutBiases" type="GroupConvolution" version="opset1">
			<data auto_pad="explicit" strides="1,1" dilations="1,1" pads_begin="1,1" pads_end="1,1"/>
			<input>
				<port id="0">
					<dim>1</dim>
					<dim>32</dim>
					<dim>52</dim>
					<dim>52</dim>
				</port>
				<port id="1">
					<dim>32</dim>
					<dim>1</dim>
					<dim>1</dim>
					<dim>3</dim>
					<dim>3</dim>
				</port>
			</input>
			<output>
				<port id="2" precision="FP32">
					<dim>1</dim>
					<dim>32</dim>
					<dim>52</dim>
					<dim>52</dim>
				</port>
			</output>
		</layer>
		<layer id="381" name="Conv_95/Dims532878220904" type="Const" version="opset1">
			<data offset="21648" size="128" shape="1,32,1,1" element_type="f32"/>
			<output>
				<port id="0" precision="FP32">
					<dim>1</dim>
					<dim>32</dim>
					<dim>1</dim>
					<dim>1</dim>
				</port>
			</output>
		</layer>
		<layer id="382" name="Conv_95" type="Add" version="opset1">
			<data auto_broadcast="numpy"/>
			<input>
				<port id="0">
					<dim>1</dim>
					<dim>32</dim>
					<dim>52</dim>
					<dim>52</dim>
				</port>
				<port id="1">
					<dim>1</dim>
					<dim>32</dim>
					<dim>1</dim>
					<dim>1</dim>
				</port>
			</input>
			<output>
				<port id="2" precision="FP32" names="1228">
					<dim>1</dim>
					<dim>32</dim>
					<dim>52</dim>
					<dim>52</dim>
				</port>
			</output>
		</layer>
		<layer id="383" name="Mul_97" type="Swish" version="opset4">
			<input>
				<port id="0">
					<dim>1</dim>
					<dim>32</dim>
					<dim>52</dim>
					<dim>52</dim>
				</port>
			</input>
			<output>
				<port id="1" precision="FP32" names="758">
					<dim>1</dim>
					<dim>32</dim>
					<dim>52</dim>
					<dim>52</dim>
				</port>
			</output>
		</layer>
		<layer id="384" name="Conv_98/WithoutBiases/fq_input_0" type="FakeQuantize" version="opset1">
			<data levels="256" auto_broadcast="numpy"/>
			<input>
				<port id="0">
					<dim>1</dim>
					<dim>32</dim>
					<dim>52</dim>
					<dim>52</dim>
				</port>
				<port id="1"/>
				<port id="2"/>
				<port id="3"/>
				<port id="4"/>
			</input>
			<output>
				<port id="5" precision="FP32">
					<dim>1</dim>
					<dim>32</dim>
					<dim>52</dim>
					<dim>52</dim>
				</port>
			</output>
		</layer>
		<layer id="385" name="12327859998/quantized1232319572" type="Const" version="opset1">
			<data offset="21776" size="1024" shape="32,32,1,1" element_type="i8"/>
			<output>
				<port id="0" precision="I8">
					<dim>32</dim>
					<dim>32</dim>
					<dim>1</dim>
					<dim>1</dim>
				</port>
			</output>
		</layer>
		<layer id="386" name="12327859998/quantized/to_f32" type="Convert" version="opset1">
			<data destination_type="f32"/>
			<input>
				<port id="0">
					<dim>32</dim>
					<dim>32</dim>
					<dim>1</dim>
					<dim>1</dim>
				</port>
			</input>
			<output>
				<port id="1" precision="FP32">
					<dim>32</dim>
					<dim>32</dim>
					<dim>1</dim>
					<dim>1</dim>
				</port>
			</output>
		</layer>
		<layer id="387" name="Conv_98/WithoutBiases/fq_weights_1/zero_point1234221192" type="Const" version="opset1">
			<data offset="22800" size="128" shape="32,1,1,1" element_type="f32"/>
			<output>
				<port id="0" precision="FP32">
					<dim>32</dim>
					<dim>1</dim>
					<dim>1</dim>
					<dim>1</dim>
				</port>
			</output>
		</layer>
		<layer id="388" name="Conv_98/WithoutBiases/fq_weights_1/minus_zp" type="Subtract" version="opset1">
			<data auto_broadcast="numpy"/>
			<input>
				<port id="0">
					<dim>32</dim>
					<dim>32</dim>
					<dim>1</dim>
					<dim>1</dim>
				</port>
				<port id="1">
					<dim>32</dim>
					<dim>1</dim>
					<dim>1</dim>
					<dim>1</dim>
				</port>
			</input>
			<output>
				<port id="2" precision="FP32">
					<dim>32</dim>
					<dim>32</dim>
					<dim>1</dim>
					<dim>1</dim>
				</port>
			</output>
		</layer>
		<layer id="389" name="Conv_98/WithoutBiases/fq_weights_1/scale1233120778" type="Const" version="opset1">
			<data offset="22928" size="128" shape="32,1,1,1" element_type="f32"/>
			<output>
				<port id="0" precision="FP32">
					<dim>32</dim>
					<dim>1</dim>
					<dim>1</dim>
					<dim>1</dim>
				</port>
			</output>
		</layer>
		<layer id="390" name="Conv_98/WithoutBiases/fq_weights_1/mulpiply_by_scale" type="Multiply" version="opset1">
			<data auto_broadcast="numpy"/>
			<input>
				<port id="0">
					<dim>32</dim>
					<dim>32</dim>
					<dim>1</dim>
					<dim>1</dim>
				</port>
				<port id="1">
					<dim>32</dim>
					<dim>1</dim>
					<dim>1</dim>
					<dim>1</dim>
				</port>
			</input>
			<output>
				<port id="2" precision="FP32">
					<dim>32</dim>
					<dim>32</dim>
					<dim>1</dim>
					<dim>1</dim>
				</port>
			</output>
		</layer>
		<layer id="391" name="Conv_98/WithoutBiases" type="Convolution" version="opset1">
			<data auto_pad="explicit" strides="1,1" dilations="1,1" pads_begin="0,0" pads_end="0,0"/>
			<input>
				<port id="0">
					<dim>1</dim>
					<dim>32</dim>
					<dim>52</dim>
					<dim>52</dim>
				</port>
				<port id="1">
					<dim>32</dim>
					<dim>32</dim>
					<dim>1</dim>
					<dim>1</dim>
				</port>
			</input>
			<output>
				<port id="2" precision="FP32">
					<dim>1</dim>
					<dim>32</dim>
					<dim>52</dim>
					<dim>52</dim>
				</port>
			</output>
		</layer>
		<layer id="392" name="Conv_98/Dims512478721063" type="Const" version="opset1">
			<data offset="23056" size="128" shape="1,32,1,1" element_type="f32"/>
			<output>
				<port id="0" precision="FP32">
					<dim>1</dim>
					<dim>32</dim>
					<dim>1</dim>
					<dim>1</dim>
				</port>
			</output>
		</layer>
		<layer id="393" name="Conv_98" type="Add" version="opset1">
			<data auto_broadcast="numpy"/>
			<input>
				<port id="0">
					<dim>1</dim>
					<dim>32</dim>
					<dim>52</dim>
					<dim>52</dim>
				</port>
				<port id="1">
					<dim>1</dim>
					<dim>32</dim>
					<dim>1</dim>
					<dim>1</dim>
				</port>
			</input>
			<output>
				<port id="2" precision="FP32" names="1231">
					<dim>1</dim>
					<dim>32</dim>
					<dim>52</dim>
					<dim>52</dim>
				</port>
			</output>
		</layer>
		<layer id="394" name="Mul_100" type="Swish" version="opset4">
			<input>
				<port id="0">
					<dim>1</dim>
					<dim>32</dim>
					<dim>52</dim>
					<dim>52</dim>
				</port>
			</input>
			<output>
				<port id="1" precision="FP32" names="762">
					<dim>1</dim>
					<dim>32</dim>
					<dim>52</dim>
					<dim>52</dim>
				</port>
			</output>
		</layer>
		<layer id="395" name="Add_101/fq_input_0" type="FakeQuantize" version="opset1">
			<data levels="256" auto_broadcast="numpy"/>
			<input>
				<port id="0">
					<dim>1</dim>
					<dim>32</dim>
					<dim>52</dim>
					<dim>52</dim>
				</port>
				<port id="1"/>
				<port id="2"/>
				<port id="3"/>
				<port id="4"/>
			</input>
			<output>
				<port id="5" precision="FP32">
					<dim>1</dim>
					<dim>32</dim>
					<dim>52</dim>
					<dim>52</dim>
				</port>
			</output>
		</layer>
		<layer id="396" name="Add_101" type="Add" version="opset1">
			<data auto_broadcast="numpy"/>
			<input>
				<port id="0">
					<dim>1</dim>
					<dim>32</dim>
					<dim>52</dim>
					<dim>52</dim>
				</port>
				<port id="1">
					<dim>1</dim>
					<dim>32</dim>
					<dim>52</dim>
					<dim>52</dim>
				</port>
			</input>
			<output>
				<port id="2" precision="FP32" names="763">
					<dim>1</dim>
					<dim>32</dim>
					<dim>52</dim>
					<dim>52</dim>
				</port>
			</output>
		</layer>
		<layer id="397" name="Add_111/fq_input_1" type="FakeQuantize" version="opset1">
			<data levels="256" auto_broadcast="numpy"/>
			<input>
				<port id="0">
					<dim>1</dim>
					<dim>32</dim>
					<dim>52</dim>
					<dim>52</dim>
				</port>
				<port id="1"/>
				<port id="2"/>
				<port id="3"/>
				<port id="4"/>
			</input>
			<output>
				<port id="5" precision="FP32">
					<dim>1</dim>
					<dim>32</dim>
					<dim>52</dim>
					<dim>52</dim>
				</port>
			</output>
		</layer>
		<layer id="398" name="123579110000/quantized1310319563" type="Const" version="opset1">
			<data offset="23184" size="1024" shape="32,32,1,1" element_type="i8"/>
			<output>
				<port id="0" precision="I8">
					<dim>32</dim>
					<dim>32</dim>
					<dim>1</dim>
					<dim>1</dim>
				</port>
			</output>
		</layer>
		<layer id="399" name="123579110000/quantized/to_f32" type="Convert" version="opset1">
			<data destination_type="f32"/>
			<input>
				<port id="0">
					<dim>32</dim>
					<dim>32</dim>
					<dim>1</dim>
					<dim>1</dim>
				</port>
			</input>
			<output>
				<port id="1" precision="FP32">
					<dim>32</dim>
					<dim>32</dim>
					<dim>1</dim>
					<dim>1</dim>
				</port>
			</output>
		</layer>
		<layer id="400" name="Conv_102/WithoutBiases/fq_weights_1/zero_point1312219752" type="Const" version="opset1">
			<data offset="24208" size="128" shape="32,1,1,1" element_type="f32"/>
			<output>
				<port id="0" precision="FP32">
					<dim>32</dim>
					<dim>1</dim>
					<dim>1</dim>
					<dim>1</dim>
				</port>
			</output>
		</layer>
		<layer id="401" name="Conv_102/WithoutBiases/fq_weights_1/minus_zp" type="Subtract" version="opset1">
			<data auto_broadcast="numpy"/>
			<input>
				<port id="0">
					<dim>32</dim>
					<dim>32</dim>
					<dim>1</dim>
					<dim>1</dim>
				</port>
				<port id="1">
					<dim>32</dim>
					<dim>1</dim>
					<dim>1</dim>
					<dim>1</dim>
				</port>
			</input>
			<output>
				<port id="2" precision="FP32">
					<dim>32</dim>
					<dim>32</dim>
					<dim>1</dim>
					<dim>1</dim>
				</port>
			</output>
		</layer>
		<layer id="402" name="Conv_102/WithoutBiases/fq_weights_1/scale1311120673" type="Const" version="opset1">
			<data offset="24336" size="128" shape="32,1,1,1" element_type="f32"/>
			<output>
				<port id="0" precision="FP32">
					<dim>32</dim>
					<dim>1</dim>
					<dim>1</dim>
					<dim>1</dim>
				</port>
			</output>
		</layer>
		<layer id="403" name="Conv_102/WithoutBiases/fq_weights_1/mulpiply_by_scale" type="Multiply" version="opset1">
			<data auto_broadcast="numpy"/>
			<input>
				<port id="0">
					<dim>32</dim>
					<dim>32</dim>
					<dim>1</dim>
					<dim>1</dim>
				</port>
				<port id="1">
					<dim>32</dim>
					<dim>1</dim>
					<dim>1</dim>
					<dim>1</dim>
				</port>
			</input>
			<output>
				<port id="2" precision="FP32">
					<dim>32</dim>
					<dim>32</dim>
					<dim>1</dim>
					<dim>1</dim>
				</port>
			</output>
		</layer>
		<layer id="404" name="Conv_102/WithoutBiases" type="Convolution" version="opset1">
			<data auto_pad="explicit" strides="1,1" dilations="1,1" pads_begin="0,0" pads_end="0,0"/>
			<input>
				<port id="0">
					<dim>1</dim>
					<dim>32</dim>
					<dim>52</dim>
					<dim>52</dim>
				</port>
				<port id="1">
					<dim>32</dim>
					<dim>32</dim>
					<dim>1</dim>
					<dim>1</dim>
				</port>
			</input>
			<output>
				<port id="2" precision="FP32">
					<dim>1</dim>
					<dim>32</dim>
					<dim>52</dim>
					<dim>52</dim>
				</port>
			</output>
		</layer>
		<layer id="405" name="Conv_102/Dims526279319299" type="Const" version="opset1">
			<data offset="24464" size="128" shape="1,32,1,1" element_type="f32"/>
			<output>
				<port id="0" precision="FP32">
					<dim>1</dim>
					<dim>32</dim>
					<dim>1</dim>
					<dim>1</dim>
				</port>
			</output>
		</layer>
		<layer id="406" name="Conv_102" type="Add" version="opset1">
			<data auto_broadcast="numpy"/>
			<input>
				<port id="0">
					<dim>1</dim>
					<dim>32</dim>
					<dim>52</dim>
					<dim>52</dim>
				</port>
				<port id="1">
					<dim>1</dim>
					<dim>32</dim>
					<dim>1</dim>
					<dim>1</dim>
				</port>
			</input>
			<output>
				<port id="2" precision="FP32" names="1234">
					<dim>1</dim>
					<dim>32</dim>
					<dim>52</dim>
					<dim>52</dim>
				</port>
			</output>
		</layer>
		<layer id="407" name="Mul_104" type="Swish" version="opset4">
			<input>
				<port id="0">
					<dim>1</dim>
					<dim>32</dim>
					<dim>52</dim>
					<dim>52</dim>
				</port>
			</input>
			<output>
				<port id="1" precision="FP32" names="767">
					<dim>1</dim>
					<dim>32</dim>
					<dim>52</dim>
					<dim>52</dim>
				</port>
			</output>
		</layer>
		<layer id="408" name="Conv_105/WithoutBiases/fq_input_0" type="FakeQuantize" version="opset1">
			<data levels="256" auto_broadcast="numpy"/>
			<input>
				<port id="0">
					<dim>1</dim>
					<dim>32</dim>
					<dim>52</dim>
					<dim>52</dim>
				</port>
				<port id="1">
					<dim>1</dim>
					<dim>32</dim>
					<dim>1</dim>
					<dim>1</dim>
				</port>
				<port id="2">
					<dim>1</dim>
					<dim>32</dim>
					<dim>1</dim>
					<dim>1</dim>
				</port>
				<port id="3">
					<dim>1</dim>
					<dim>32</dim>
					<dim>1</dim>
					<dim>1</dim>
				</port>
				<port id="4">
					<dim>1</dim>
					<dim>32</dim>
					<dim>1</dim>
					<dim>1</dim>
				</port>
			</input>
			<output>
				<port id="5" precision="FP32">
					<dim>1</dim>
					<dim>32</dim>
					<dim>52</dim>
					<dim>52</dim>
				</port>
			</output>
		</layer>
		<layer id="409" name="16492/value1649420532" type="Const" version="opset1">
			<data offset="10248" size="40" shape="5" element_type="i64"/>
			<output>
				<port id="0" precision="I64">
					<dim>5</dim>
				</port>
			</output>
		</layer>
		<layer id="410" name="123879610002/quantized1340320958" type="Const" version="opset1">
			<data offset="24592" size="288" shape="32,1,3,3" element_type="i8"/>
			<output>
				<port id="0" precision="I8">
					<dim>32</dim>
					<dim>1</dim>
					<dim>3</dim>
					<dim>3</dim>
				</port>
			</output>
		</layer>
		<layer id="411" name="123879610002/quantized/to_f32" type="Convert" version="opset1">
			<data destination_type="f32"/>
			<input>
				<port id="0">
					<dim>32</dim>
					<dim>1</dim>
					<dim>3</dim>
					<dim>3</dim>
				</port>
			</input>
			<output>
				<port id="1" precision="FP32">
					<dim>32</dim>
					<dim>1</dim>
					<dim>3</dim>
					<dim>3</dim>
				</port>
			</output>
		</layer>
		<layer id="412" name="Conv_105/WithoutBiases/fq_weights_1/zero_point1342219797" type="Const" version="opset1">
			<data offset="24880" size="128" shape="32,1,1,1" element_type="f32"/>
			<output>
				<port id="0" precision="FP32">
					<dim>32</dim>
					<dim>1</dim>
					<dim>1</dim>
					<dim>1</dim>
				</port>
			</output>
		</layer>
		<layer id="413" name="Conv_105/WithoutBiases/fq_weights_1/minus_zp" type="Subtract" version="opset1">
			<data auto_broadcast="numpy"/>
			<input>
				<port id="0">
					<dim>32</dim>
					<dim>1</dim>
					<dim>3</dim>
					<dim>3</dim>
				</port>
				<port id="1">
					<dim>32</dim>
					<dim>1</dim>
					<dim>1</dim>
					<dim>1</dim>
				</port>
			</input>
			<output>
				<port id="2" precision="FP32">
					<dim>32</dim>
					<dim>1</dim>
					<dim>3</dim>
					<dim>3</dim>
				</port>
			</output>
		</layer>
		<layer id="414" name="Conv_105/WithoutBiases/fq_weights_1/scale1341120799" type="Const" version="opset1">
			<data offset="25008" size="128" shape="32,1,1,1" element_type="f32"/>
			<output>
				<port id="0" precision="FP32">
					<dim>32</dim>
					<dim>1</dim>
					<dim>1</dim>
					<dim>1</dim>
				</port>
			</output>
		</layer>
		<layer id="415" name="Conv_105/WithoutBiases/fq_weights_1/mulpiply_by_scale" type="Multiply" version="opset1">
			<data auto_broadcast="numpy"/>
			<input>
				<port id="0">
					<dim>32</dim>
					<dim>1</dim>
					<dim>3</dim>
					<dim>3</dim>
				</port>
				<port id="1">
					<dim>32</dim>
					<dim>1</dim>
					<dim>1</dim>
					<dim>1</dim>
				</port>
			</input>
			<output>
				<port id="2" precision="FP32">
					<dim>32</dim>
					<dim>1</dim>
					<dim>3</dim>
					<dim>3</dim>
				</port>
			</output>
		</layer>
		<layer id="416" name="16492" type="Reshape" version="opset1">
			<data special_zero="true"/>
			<input>
				<port id="0">
					<dim>32</dim>
					<dim>1</dim>
					<dim>3</dim>
					<dim>3</dim>
				</port>
				<port id="1">
					<dim>5</dim>
				</port>
			</input>
			<output>
				<port id="2" precision="FP32">
					<dim>32</dim>
					<dim>1</dim>
					<dim>1</dim>
					<dim>3</dim>
					<dim>3</dim>
				</port>
			</output>
		</layer>
		<layer id="417" name="Conv_105/WithoutBiases" type="GroupConvolution" version="opset1">
			<data auto_pad="explicit" strides="1,1" dilations="1,1" pads_begin="1,1" pads_end="1,1"/>
			<input>
				<port id="0">
					<dim>1</dim>
					<dim>32</dim>
					<dim>52</dim>
					<dim>52</dim>
				</port>
				<port id="1">
					<dim>32</dim>
					<dim>1</dim>
					<dim>1</dim>
					<dim>3</dim>
					<dim>3</dim>
				</port>
			</input>
			<output>
				<port id="2" precision="FP32">
					<dim>1</dim>
					<dim>32</dim>
					<dim>52</dim>
					<dim>52</dim>
				</port>
			</output>
		</layer>
		<layer id="418" name="Conv_105/Dims555679820976" type="Const" version="opset1">
			<data offset="25136" size="128" shape="1,32,1,1" element_type="f32"/>
			<output>
				<port id="0" precision="FP32">
					<dim>1</dim>
					<dim>32</dim>
					<dim>1</dim>
					<dim>1</dim>
				</port>
			</output>
		</layer>
		<layer id="419" name="Conv_105" type="Add" version="opset1">
			<data auto_broadcast="numpy"/>
			<input>
				<port id="0">
					<dim>1</dim>
					<dim>32</dim>
					<dim>52</dim>
					<dim>52</dim>
				</port>
				<port id="1">
					<dim>1</dim>
					<dim>32</dim>
					<dim>1</dim>
					<dim>1</dim>
				</port>
			</input>
			<output>
				<port id="2" precision="FP32" names="1237">
					<dim>1</dim>
					<dim>32</dim>
					<dim>52</dim>
					<dim>52</dim>
				</port>
			</output>
		</layer>
		<layer id="420" name="Mul_107" type="Swish" version="opset4">
			<input>
				<port id="0">
					<dim>1</dim>
					<dim>32</dim>
					<dim>52</dim>
					<dim>52</dim>
				</port>
			</input>
			<output>
				<port id="1" precision="FP32" names="771">
					<dim>1</dim>
					<dim>32</dim>
					<dim>52</dim>
					<dim>52</dim>
				</port>
			</output>
		</layer>
		<layer id="421" name="Conv_108/WithoutBiases/fq_input_0" type="FakeQuantize" version="opset1">
			<data levels="256" auto_broadcast="numpy"/>
			<input>
				<port id="0">
					<dim>1</dim>
					<dim>32</dim>
					<dim>52</dim>
					<dim>52</dim>
				</port>
				<port id="1"/>
				<port id="2"/>
				<port id="3"/>
				<port id="4"/>
			</input>
			<output>
				<port id="5" precision="FP32">
					<dim>1</dim>
					<dim>32</dim>
					<dim>52</dim>
					<dim>52</dim>
				</port>
			</output>
		</layer>
		<layer id="422" name="124180110004/quantized1274320391" type="Const" version="opset1">
			<data offset="25264" size="1024" shape="32,32,1,1" element_type="i8"/>
			<output>
				<port id="0" precision="I8">
					<dim>32</dim>
…
		<edge from-layer="1206" from-port="2" to-layer="1208" to-port="0"/>
		<edge from-layer="1207" from-port="0" to-layer="1208" to-port="1"/>
		<edge from-layer="1202" from-port="5" to-layer="1209" to-port="0"/>
		<edge from-layer="1208" from-port="2" to-layer="1209" to-port="1"/>
		<edge from-layer="1209" from-port="2" to-layer="1211" to-port="0"/>
		<edge from-layer="1210" from-port="0" to-layer="1211" to-port="1"/>
		<edge from-layer="1211" from-port="2" to-layer="1212" to-port="0"/>
		<edge from-layer="1212" from-port="1" to-layer="1213" to-port="0"/>
		<edge from-layer="1182" from-port="0" to-layer="1213" to-port="1"/>
		<edge from-layer="1183" from-port="0" to-layer="1213" to-port="2"/>
		<edge from-layer="1184" from-port="0" to-layer="1213" to-port="3"/>
		<edge from-layer="1185" from-port="0" to-layer="1213" to-port="4"/>
		<edge from-layer="1215" from-port="0" to-layer="1216" to-port="0"/>
		<edge from-layer="1216" from-port="1" to-layer="1218" to-port="0"/>
		<edge from-layer="1217" from-port="0" to-layer="1218" to-port="1"/>
		<edge from-layer="1218" from-port="2" to-layer="1220" to-port="0"/>
		<edge from-layer="1219" from-port="0" to-layer="1220" to-port="1"/>
		<edge from-layer="1220" from-port="2" to-layer="1221" to-port="0"/>
		<edge from-layer="1214" from-port="0" to-layer="1221" to-port="1"/>
		<edge from-layer="1213" from-port="5" to-layer="1222" to-port="0"/>
		<edge from-layer="1221" from-port="2" to-layer="1222" to-port="1"/>
		<edge from-layer="1222" from-port="2" to-layer="1224" to-port="0"/>
		<edge from-layer="1223" from-port="0" to-layer="1224" to-port="1"/>
		<edge from-layer="1224" from-port="2" to-layer="1225" to-port="0"/>
		<edge from-layer="1225" from-port="1" to-layer="1226" to-port="0"/>
		<edge from-layer="1178" from-port="0" to-layer="1226" to-port="1"/>
		<edge from-layer="1179" from-port="0" to-layer="1226" to-port="2"/>
		<edge from-layer="1180" from-port="0" to-layer="1226" to-port="3"/>
		<edge from-layer="1181" from-port="0" to-layer="1226" to-port="4"/>
		<edge from-layer="1227" from-port="0" to-layer="1228" to-port="0"/>
		<edge from-layer="1228" from-port="1" to-layer="1230" to-port="0"/>
		<edge from-layer="1229" from-port="0" to-layer="1230" to-port="1"/>
		<edge from-layer="1230" from-port="2" to-layer="1232" to-port="0"/>
		<edge from-layer="1231" from-port="0" to-layer="1232" to-port="1"/>
		<edge from-layer="1226" from-port="5" to-layer="1233" to-port="0"/>
		<edge from-layer="1232" from-port="2" to-layer="1233" to-port="1"/>
		<edge from-layer="1233" from-port="2" to-layer="1235" to-port="0"/>
		<edge from-layer="1234" from-port="0" to-layer="1235" to-port="1"/>
		<edge from-layer="1235" from-port="2" to-layer="1236" to-port="0"/>
		<edge from-layer="1236" from-port="1" to-layer="1237" to-port="0"/>
		<edge from-layer="1174" from-port="0" to-layer="1237" to-port="1"/>
		<edge from-layer="1175" from-port="0" to-layer="1237" to-port="2"/>
		<edge from-layer="1176" from-port="0" to-layer="1237" to-port="3"/>
		<edge from-layer="1177" from-port="0" to-layer="1237" to-port="4"/>
		<edge from-layer="1238" from-port="0" to-layer="1239" to-port="0"/>
		<edge from-layer="1239" from-port="1" to-layer="1241" to-port="0"/>
		<edge from-layer="1240" from-port="0" to-layer="1241" to-port="1"/>
		<edge from-layer="1241" from-port="2" to-layer="1243" to-port="0"/>
		<edge from-layer="1242" from-port="0" to-layer="1243" to-port="1"/>
		<edge from-layer="1237" from-port="5" to-layer="1244" to-port="0"/>
		<edge from-layer="1243" from-port="2" to-layer="1244" to-port="1"/>
		<edge from-layer="1244" from-port="2" to-layer="1246" to-port="0"/>
		<edge from-layer="1245" from-port="0" to-layer="1246" to-port="1"/>
		<edge from-layer="1246" from-port="2" to-layer="1247" to-port="0"/>
		<edge from-layer="1163" from-port="2" to-layer="1248" to-port="0"/>
		<edge from-layer="1173" from-port="1" to-layer="1248" to-port="1"/>
		<edge from-layer="1247" from-port="1" to-layer="1248" to-port="2"/>
		<edge from-layer="1248" from-port="3" to-layer="1250" to-port="0"/>
		<edge from-layer="1249" from-port="0" to-layer="1250" to-port="1"/>
		<edge from-layer="1300" from-port="0" to-layer="1301" to-port="0"/>
		<edge from-layer="1301" from-port="1" to-layer="1303" to-port="0"/>
		<edge from-layer="1302" from-port="0" to-layer="1303" to-port="1"/>
		<edge from-layer="1303" from-port="2" to-layer="1305" to-port="0"/>
		<edge from-layer="1304" from-port="0" to-layer="1305" to-port="1"/>
		<edge from-layer="1305" from-port="2" to-layer="1306" to-port="0"/>
		<edge from-layer="1299" from-port="0" to-layer="1306" to-port="1"/>
		<edge from-layer="1095" from-port="5" to-layer="1307" to-port="0"/>
		<edge from-layer="1306" from-port="2" to-layer="1307" to-port="1"/>
		<edge from-layer="1307" from-port="2" to-layer="1309" to-port="0"/>
		<edge from-layer="1308" from-port="0" to-layer="1309" to-port="1"/>
		<edge from-layer="1309" from-port="2" to-layer="1310" to-port="0"/>
		<edge from-layer="1310" from-port="1" to-layer="1311" to-port="0"/>
		<edge from-layer="1295" from-port="0" to-layer="1311" to-port="1"/>
		<edge from-layer="1296" from-port="0" to-layer="1311" to-port="2"/>
		<edge from-layer="1297" from-port="0" to-layer="1311" to-port="3"/>
		<edge from-layer="1298" from-port="0" to-layer="1311" to-port="4"/>
		<edge from-layer="1312" from-port="0" to-layer="1313" to-port="0"/>
		<edge from-layer="1313" from-port="1" to-layer="1315" to-port="0"/>
		<edge from-layer="1314" from-port="0" to-layer="1315" to-port="1"/>
		<edge from-layer="1315" from-port="2" to-layer="1317" to-port="0"/>
		<edge from-layer="1316" from-port="0" to-layer="1317" to-port="1"/>
		<edge from-layer="1311" from-port="5" to-layer="1318" to-port="0"/>
		<edge from-layer="1317" from-port="2" to-layer="1318" to-port="1"/>
		<edge from-layer="1318" from-port="2" to-layer="1320" to-port="0"/>
		<edge from-layer="1319" from-port="0" to-layer="1320" to-port="1"/>
		<edge from-layer="1320" from-port="2" to-layer="1321" to-port="0"/>
		<edge from-layer="1321" from-port="1" to-layer="1322" to-port="0"/>
		<edge from-layer="1291" from-port="0" to-layer="1322" to-port="1"/>
		<edge from-layer="1292" from-port="0" to-layer="1322" to-port="2"/>
		<edge from-layer="1293" from-port="0" to-layer="1322" to-port="3"/>
		<edge from-layer="1294" from-port="0" to-layer="1322" to-port="4"/>
		<edge from-layer="1322" from-port="5" to-layer="1323" to-port="0"/>
		<edge from-layer="1007" from-port="5" to-layer="1323" to-port="1"/>
		<edge from-layer="1324" from-port="0" to-layer="1325" to-port="0"/>
		<edge from-layer="1325" from-port="1" to-layer="1327" to-port="0"/>
		<edge from-layer="1326" from-port="0" to-layer="1327" to-port="1"/>
		<edge from-layer="1327" from-port="2" to-layer="1329" to-port="0"/>
		<edge from-layer="1328" from-port="0" to-layer="1329" to-port="1"/>
		<edge from-layer="1323" from-port="2" to-layer="1330" to-port="0"/>
		<edge from-layer="1329" from-port="2" to-layer="1330" to-port="1"/>
		<edge from-layer="1330" from-port="2" to-layer="1332" to-port="0"/>
		<edge from-layer="1331" from-port="0" to-layer="1332" to-port="1"/>
		<edge from-layer="1332" from-port="2" to-layer="1333" to-port="0"/>
		<edge from-layer="1333" from-port="1" to-layer="1334" to-port="0"/>
		<edge from-layer="1287" from-port="0" to-layer="1334" to-port="1"/>
		<edge from-layer="1288" from-port="0" to-layer="1334" to-port="2"/>
		<edge from-layer="1289" from-port="0" to-layer="1334" to-port="3"/>
		<edge from-layer="1290" from-port="0" to-layer="1334" to-port="4"/>
		<edge from-layer="1335" from-port="0" to-layer="1336" to-port="0"/>
		<edge from-layer="1336" from-port="1" to-layer="1338" to-port="0"/>
		<edge from-layer="1337" from-port="0" to-layer="1338" to-port="1"/>
		<edge from-layer="1338" from-port="2" to-layer="1340" to-port="0"/>
		<edge from-layer="1339" from-port="0" to-layer="1340" to-port="1"/>
		<edge from-layer="1334" from-port="5" to-layer="1341" to-port="0"/>
		<edge from-layer="1340" from-port="2" to-layer="1341" to-port="1"/>
		<edge from-layer="1341" from-port="2" to-layer="1343" to-port="0"/>
		<edge from-layer="1342" from-port="0" to-layer="1343" to-port="1"/>
		<edge from-layer="1343" from-port="2" to-layer="1344" to-port="0"/>
		<edge from-layer="1344" from-port="1" to-layer="1345" to-port="0"/>
		<edge from-layer="1283" from-port="0" to-layer="1345" to-port="1"/>
		<edge from-layer="1284" from-port="0" to-layer="1345" to-port="2"/>
		<edge from-layer="1285" from-port="0" to-layer="1345" to-port="3"/>
		<edge from-layer="1286" from-port="0" to-layer="1345" to-port="4"/>
		<edge from-layer="1347" from-port="0" to-layer="1348" to-port="0"/>
		<edge from-layer="1348" from-port="1" to-layer="1350" to-port="0"/>
		<edge from-layer="1349" from-port="0" to-layer="1350" to-port="1"/>
		<edge from-layer="1350" from-port="2" to-layer="1352" to-port="0"/>
		<edge from-layer="1351" from-port="0" to-layer="1352" to-port="1"/>
		<edge from-layer="1352" from-port="2" to-layer="1353" to-port="0"/>
		<edge from-layer="1346" from-port="0" to-layer="1353" to-port="1"/>
		<edge from-layer="1345" from-port="5" to-layer="1354" to-port="0"/>
		<edge from-layer="1353" from-port="2" to-layer="1354" to-port="1"/>
		<edge from-layer="1354" from-port="2" to-layer="1356" to-port="0"/>
		<edge from-layer="1355" from-port="0" to-layer="1356" to-port="1"/>
		<edge from-layer="1356" from-port="2" to-layer="1357" to-port="0"/>
		<edge from-layer="1357" from-port="1" to-layer="1358" to-port="0"/>
		<edge from-layer="1279" from-port="0" to-layer="1358" to-port="1"/>
		<edge from-layer="1280" from-port="0" to-layer="1358" to-port="2"/>
		<edge from-layer="1281" from-port="0" to-layer="1358" to-port="3"/>
		<edge from-layer="1282" from-port="0" to-layer="1358" to-port="4"/>
		<edge from-layer="1359" from-port="0" to-layer="1360" to-port="0"/>
		<edge from-layer="1360" from-port="1" to-layer="1362" to-port="0"/>
		<edge from-layer="1361" from-port="0" to-layer="1362" to-port="1"/>
		<edge from-layer="1362" from-port="2" to-layer="1364" to-port="0"/>
		<edge from-layer="1363" from-port="0" to-layer="1364" to-port="1"/>
		<edge from-layer="1358" from-port="5" to-layer="1365" to-port="0"/>
		<edge from-layer="1364" from-port="2" to-layer="1365" to-port="1"/>
		<edge from-layer="1365" from-port="2" to-layer="1367" to-port="0"/>
		<edge from-layer="1366" from-port="0" to-layer="1367" to-port="1"/>
		<edge from-layer="1367" from-port="2" to-layer="1368" to-port="0"/>
		<edge from-layer="1368" from-port="1" to-layer="1369" to-port="0"/>
		<edge from-layer="1275" from-port="0" to-layer="1369" to-port="1"/>
		<edge from-layer="1276" from-port="0" to-layer="1369" to-port="2"/>
		<edge from-layer="1277" from-port="0" to-layer="1369" to-port="3"/>
		<edge from-layer="1278" from-port="0" to-layer="1369" to-port="4"/>
		<edge from-layer="1374" from-port="0" to-layer="1375" to-port="0"/>
		<edge from-layer="1375" from-port="1" to-layer="1377" to-port="0"/>
		<edge from-layer="1376" from-port="0" to-layer="1377" to-port="1"/>
		<edge from-layer="1377" from-port="2" to-layer="1379" to-port="0"/>
		<edge from-layer="1378" from-port="0" to-layer="1379" to-port="1"/>
		<edge from-layer="1323" from-port="2" to-layer="1380" to-port="0"/>
		<edge from-layer="1379" from-port="2" to-layer="1380" to-port="1"/>
		<edge from-layer="1380" from-port="2" to-layer="1382" to-port="0"/>
		<edge from-layer="1381" from-port="0" to-layer="1382" to-port="1"/>
		<edge from-layer="1382" from-port="2" to-layer="1383" to-port="0"/>
		<edge from-layer="1383" from-port="1" to-layer="1384" to-port="0"/>
		<edge from-layer="1370" from-port="0" to-layer="1384" to-port="1"/>
		<edge from-layer="1371" from-port="0" to-layer="1384" to-port="2"/>
		<edge from-layer="1372" from-port="0" to-layer="1384" to-port="3"/>
		<edge from-layer="1373" from-port="0" to-layer="1384" to-port="4"/>
		<edge from-layer="1369" from-port="5" to-layer="1385" to-port="0"/>
		<edge from-layer="1384" from-port="5" to-layer="1385" to-port="1"/>
		<edge from-layer="1386" from-port="0" to-layer="1387" to-port="0"/>
		<edge from-layer="1387" from-port="1" to-layer="1389" to-port="0"/>
		<edge from-layer="1388" from-port="0" to-layer="1389" to-port="1"/>
		<edge from-layer="1389" from-port="2" to-layer="1391" to-port="0"/>
		<edge from-layer="1390" from-port="0" to-layer="1391" to-port="1"/>
		<edge from-layer="1385" from-port="2" to-layer="1392" to-port="0"/>
		<edge from-layer="1391" from-port="2" to-layer="1392" to-port="1"/>
		<edge from-layer="1392" from-port="2" to-layer="1394" to-port="0"/>
		<edge from-layer="1393" from-port="0" to-layer="1394" to-port="1"/>
		<edge from-layer="1394" from-port="2" to-layer="1395" to-port="0"/>
		<edge from-layer="1395" from-port="1" to-layer="1396" to-port="0"/>
		<edge from-layer="1271" from-port="0" to-layer="1396" to-port="1"/>
		<edge from-layer="1272" from-port="0" to-layer="1396" to-port="2"/>
		<edge from-layer="1273" from-port="0" to-layer="1396" to-port="3"/>
		<edge from-layer="1274" from-port="0" to-layer="1396" to-port="4"/>
		<edge from-layer="1397" from-port="0" to-layer="1398" to-port="0"/>
		<edge from-layer="1398" from-port="1" to-layer="1400" to-port="0"/>
		<edge from-layer="1399" from-port="0" to-layer="1400" to-port="1"/>
		<edge from-layer="1400" from-port="2" to-layer="1402" to-port="0"/>
		<edge from-layer="1401" from-port="0" to-layer="1402" to-port="1"/>
		<edge from-layer="1396" from-port="5" to-layer="1403" to-port="0"/>
		<edge from-layer="1402" from-port="2" to-layer="1403" to-port="1"/>
		<edge from-layer="1403" from-port="2" to-layer="1405" to-port="0"/>
		<edge from-layer="1404" from-port="0" to-layer="1405" to-port="1"/>
		<edge from-layer="1405" from-port="2" to-layer="1406" to-port="0"/>
		<edge from-layer="1406" from-port="1" to-layer="1407" to-port="0"/>
		<edge from-layer="1267" from-port="0" to-layer="1407" to-port="1"/>
		<edge from-layer="1268" from-port="0" to-layer="1407" to-port="2"/>
		<edge from-layer="1269" from-port="0" to-layer="1407" to-port="3"/>
		<edge from-layer="1270" from-port="0" to-layer="1407" to-port="4"/>
		<edge from-layer="1409" from-port="0" to-layer="1410" to-port="0"/>
		<edge from-layer="1410" from-port="1" to-layer="1412" to-port="0"/>
		<edge from-layer="1411" from-port="0" to-layer="1412" to-port="1"/>
		<edge from-layer="1412" from-port="2" to-layer="1414" to-port="0"/>
		<edge from-layer="1413" from-port="0" to-layer="1414" to-port="1"/>
		<edge from-layer="1414" from-port="2" to-layer="1415" to-port="0"/>
		<edge from-layer="1408" from-port="0" to-layer="1415" to-port="1"/>
		<edge from-layer="1407" from-port="5" to-layer="1416" to-port="0"/>
		<edge from-layer="1415" from-port="2" to-layer="1416" to-port="1"/>
		<edge from-layer="1416" from-port="2" to-layer="1418" to-port="0"/>
		<edge from-layer="1417" from-port="0" to-layer="1418" to-port="1"/>
		<edge from-layer="1418" from-port="2" to-layer="1419" to-port="0"/>
		<edge from-layer="1419" from-port="1" to-layer="1420" to-port="0"/>
		<edge from-layer="1263" from-port="0" to-layer="1420" to-port="1"/>
		<edge from-layer="1264" from-port="0" to-layer="1420" to-port="2"/>
		<edge from-layer="1265" from-port="0" to-layer="1420" to-port="3"/>
		<edge from-layer="1266" from-port="0" to-layer="1420" to-port="4"/>
		<edge from-layer="1421" from-port="0" to-layer="1422" to-port="0"/>
		<edge from-layer="1422" from-port="1" to-layer="1424" to-port="0"/>
		<edge from-layer="1423" from-port="0" to-layer="1424" to-port="1"/>
		<edge from-layer="1424" from-port="2" to-layer="1426" to-port="0"/>
		<edge from-layer="1425" from-port="0" to-layer="1426" to-port="1"/>
		<edge from-layer="1420" from-port="5" to-layer="1427" to-port="0"/>
		<edge from-layer="1426" from-port="2" to-layer="1427" to-port="1"/>
		<edge from-layer="1427" from-port="2" to-layer="1429" to-port="0"/>
		<edge from-layer="1428" from-port="0" to-layer="1429" to-port="1"/>
		<edge from-layer="1429" from-port="2" to-layer="1430" to-port="0"/>
		<edge from-layer="1430" from-port="1" to-layer="1431" to-port="0"/>
		<edge from-layer="1259" from-port="0" to-layer="1431" to-port="1"/>
		<edge from-layer="1260" from-port="0" to-layer="1431" to-port="2"/>
		<edge from-layer="1261" from-port="0" to-layer="1431" to-port="3"/>
		<edge from-layer="1262" from-port="0" to-layer="1431" to-port="4"/>
		<edge from-layer="1433" from-port="0" to-layer="1434" to-port="0"/>
		<edge from-layer="1434" from-port="1" to-layer="1436" to-port="0"/>
		<edge from-layer="1435" from-port="0" to-layer="1436" to-port="1"/>
		<edge from-layer="1436" from-port="2" to-layer="1438" to-port="0"/>
		<edge from-layer="1437" from-port="0" to-layer="1438" to-port="1"/>
		<edge from-layer="1438" from-port="2" to-layer="1439" to-port="0"/>
		<edge from-layer="1432" from-port="0" to-layer="1439" to-port="1"/>
		<edge from-layer="1431" from-port="5" to-layer="1440" to-port="0"/>
		<edge from-layer="1439" from-port="2" to-layer="1440" to-port="1"/>
		<edge from-layer="1440" from-port="2" to-layer="1442" to-port="0"/>
		<edge from-layer="1441" from-port="0" to-layer="1442" to-port="1"/>
		<edge from-layer="1442" from-port="2" to-layer="1443" to-port="0"/>
		<edge from-layer="1443" from-port="1" to-layer="1444" to-port="0"/>
		<edge from-layer="1255" from-port="0" to-layer="1444" to-port="1"/>
		<edge from-layer="1256" from-port="0" to-layer="1444" to-port="2"/>
		<edge from-layer="1257" from-port="0" to-layer="1444" to-port="3"/>
		<edge from-layer="1258" from-port="0" to-layer="1444" to-port="4"/>
		<edge from-layer="1445" from-port="0" to-layer="1446" to-port="0"/>
		<edge from-layer="1446" from-port="1" to-layer="1448" to-port="0"/>
		<edge from-layer="1447" from-port="0" to-layer="1448" to-port="1"/>
		<edge from-layer="1448" from-port="2" to-layer="1450" to-port="0"/>
		<edge from-layer="1449" from-port="0" to-layer="1450" to-port="1"/>
		<edge from-layer="1444" from-port="5" to-layer="1451" to-port="0"/>
		<edge from-layer="1450" from-port="2" to-layer="1451" to-port="1"/>
		<edge from-layer="1451" from-port="2" to-layer="1453" to-port="0"/>
		<edge from-layer="1452" from-port="0" to-layer="1453" to-port="1"/>
		<edge from-layer="1453" from-port="2" to-layer="1454" to-port="0"/>
		<edge from-layer="1454" from-port="1" to-layer="1455" to-port="0"/>
		<edge from-layer="1251" from-port="0" to-layer="1455" to-port="1"/>
		<edge from-layer="1252" from-port="0" to-layer="1455" to-port="2"/>
		<edge from-layer="1253" from-port="0" to-layer="1455" to-port="3"/>
		<edge from-layer="1254" from-port="0" to-layer="1455" to-port="4"/>
		<edge from-layer="1456" from-port="0" to-layer="1457" to-port="0"/>
		<edge from-layer="1457" from-port="1" to-layer="1459" to-port="0"/>
		<edge from-layer="1458" from-port="0" to-layer="1459" to-port="1"/>
		<edge from-layer="1459" from-port="2" to-layer="1461" to-port="0"/>
		<edge from-layer="1460" from-port="0" to-layer="1461" to-port="1"/>
		<edge from-layer="1455" from-port="5" to-layer="1462" to-port="0"/>
		<edge from-layer="1461" from-port="2" to-layer="1462" to-port="1"/>
		<edge from-layer="1462" from-port="2" to-layer="1464" to-port="0"/>
		<edge from-layer="1463" from-port="0" to-layer="1464" to-port="1"/>
		<edge from-layer="1465" from-port="0" to-layer="1466" to-port="0"/>
		<edge from-layer="1466" from-port="1" to-layer="1468" to-port="0"/>
		<edge from-layer="1467" from-port="0" to-layer="1468" to-port="1"/>
		<edge from-layer="1468" from-port="2" to-layer="1470" to-port="0"/>
		<edge from-layer="1469" from-port="0" to-layer="1470" to-port="1"/>
		<edge from-layer="1455" from-port="5" to-layer="1471" to-port="0"/>
		<edge from-layer="1470" from-port="2" to-layer="1471" to-port="1"/>
		<edge from-layer="1471" from-port="2" to-layer="1473" to-port="0"/>
		<edge from-layer="1472" from-port="0" to-layer="1473" to-port="1"/>
		<edge from-layer="1473" from-port="2" to-layer="1474" to-port="0"/>
		<edge from-layer="1492" from-port="0" to-layer="1493" to-port="0"/>
		<edge from-layer="1493" from-port="1" to-layer="1495" to-port="0"/>
		<edge from-layer="1494" from-port="0" to-layer="1495" to-port="1"/>
		<edge from-layer="1495" from-port="2" to-layer="1497" to-port="0"/>
		<edge from-layer="1496" from-port="0" to-layer="1497" to-port="1"/>
		<edge from-layer="1497" from-port="2" to-layer="1498" to-port="0"/>
		<edge from-layer="1491" from-port="0" to-layer="1498" to-port="1"/>
		<edge from-layer="1407" from-port="5" to-layer="1499" to-port="0"/>
		<edge from-layer="1498" from-port="2" to-layer="1499" to-port="1"/>
		<edge from-layer="1499" from-port="2" to-layer="1501" to-port="0"/>
		<edge from-layer="1500" from-port="0" to-layer="1501" to-port="1"/>
		<edge from-layer="1501" from-port="2" to-layer="1502" to-port="0"/>
		<edge from-layer="1502" from-port="1" to-layer="1503" to-port="0"/>
		<edge from-layer="1487" from-port="0" to-layer="1503" to-port="1"/>
		<edge from-layer="1488" from-port="0" to-layer="1503" to-port="2"/>
		<edge from-layer="1489" from-port="0" to-layer="1503" to-port="3"/>
		<edge from-layer="1490" from-port="0" to-layer="1503" to-port="4"/>
		<edge from-layer="1504" from-port="0" to-layer="1505" to-port="0"/>
		<edge from-layer="1505" from-port="1" to-layer="1507" to-port="0"/>
		<edge from-layer="1506" from-port="0" to-layer="1507" to-port="1"/>
		<edge from-layer="1507" from-port="2" to-layer="1509" to-port="0"/>
		<edge from-layer="1508" from-port="0" to-layer="1509" to-port="1"/>
		<edge from-layer="1503" from-port="5" to-layer="1510" to-port="0"/>
		<edge from-layer="1509" from-port="2" to-layer="1510" to-port="1"/>
		<edge from-layer="1510" from-port="2" to-layer="1512" to-port="0"/>
		<edge from-layer="1511" from-port="0" to-layer="1512" to-port="1"/>
		<edge from-layer="1512" from-port="2" to-layer="1513" to-port="0"/>
		<edge from-layer="1513" from-port="1" to-layer="1514" to-port="0"/>
		<edge from-layer="1483" from-port="0" to-layer="1514" to-port="1"/>
		<edge from-layer="1484" from-port="0" to-layer="1514" to-port="2"/>
		<edge from-layer="1485" from-port="0" to-layer="1514" to-port="3"/>
		<edge from-layer="1486" from-port="0" to-layer="1514" to-port="4"/>
		<edge from-layer="1516" from-port="0" to-layer="1517" to-port="0"/>
		<edge from-layer="1517" from-port="1" to-layer="1519" to-port="0"/>
		<edge from-layer="1518" from-port="0" to-layer="1519" to-port="1"/>
		<edge from-layer="1519" from-port="2" to-layer="1521" to-port="0"/>
		<edge from-layer="1520" from-port="0" to-layer="1521" to-port="1"/>
		<edge from-layer="1521" from-port="2" to-layer="1522" to-port="0"/>
		<edge from-layer="1515" from-port="0" to-layer="1522" to-port="1"/>
		<edge from-layer="1514" from-port="5" to-layer="1523" to-port="0"/>
		<edge from-layer="1522" from-port="2" to-layer="1523" to-port="1"/>
		<edge from-layer="1523" from-port="2" to-layer="1525" to-port="0"/>
		<edge from-layer="1524" from-port="0" to-layer="1525" to-port="1"/>
		<edge from-layer="1525" from-port="2" to-layer="1526" to-port="0"/>
		<edge from-layer="1526" from-port="1" to-layer="1527" to-port="0"/>
		<edge from-layer="1479" from-port="0" to-layer="1527" to-port="1"/>
		<edge from-layer="1480" from-port="0" to-layer="1527" to-port="2"/>
		<edge from-layer="1481" from-port="0" to-layer="1527" to-port="3"/>
		<edge from-layer="1482" from-port="0" to-layer="1527" to-port="4"/>
		<edge from-layer="1528" from-port="0" to-layer="1529" to-port="0"/>
		<edge from-layer="1529" from-port="1" to-layer="1531" to-port="0"/>
		<edge from-layer="1530" from-port="0" to-layer="1531" to-port="1"/>
		<edge from-layer="1531" from-port="2" to-layer="1533" to-port="0"/>
		<edge from-layer="1532" from-port="0" to-layer="1533" to-port="1"/>
		<edge from-layer="1527" from-port="5" to-layer="1534" to-port="0"/>
		<edge from-layer="1533" from-port="2" to-layer="1534" to-port="1"/>
		<edge from-layer="1534" from-port="2" to-layer="1536" to-port="0"/>
		<edge from-layer="1535" from-port="0" to-layer="1536" to-port="1"/>
		<edge from-layer="1536" from-port="2" to-layer="1537" to-port="0"/>
		<edge from-layer="1537" from-port="1" to-layer="1538" to-port="0"/>
		<edge from-layer="1475" from-port="0" to-layer="1538" to-port="1"/>
		<edge from-layer="1476" from-port="0" to-layer="1538" to-port="2"/>
		<edge from-layer="1477" from-port="0" to-layer="1538" to-port="3"/>
		<edge from-layer="1478" from-port="0" to-layer="1538" to-port="4"/>
		<edge from-layer="1539" from-port="0" to-layer="1540" to-port="0"/>
		<edge from-layer="1540" from-port="1" to-layer="1542" to-port="0"/>
		<edge from-layer="1541" from-port="0" to-layer="1542" to-port="1"/>
		<edge from-layer="1542" from-port="2" to-layer="1544" to-port="0"/>
		<edge from-layer="1543" from-port="0" to-layer="1544" to-port="1"/>
		<edge from-layer="1538" from-port="5" to-layer="1545" to-port="0"/>
		<edge from-layer="1544" from-port="2" to-layer="1545" to-port="1"/>
		<edge from-layer="1545" from-port="2" to-layer="1547" to-port="0"/>
		<edge from-layer="1546" from-port="0" to-layer="1547" to-port="1"/>
		<edge from-layer="1547" from-port="2" to-layer="1548" to-port="0"/>
		<edge from-layer="1464" from-port="2" to-layer="1549" to-port="0"/>
		<edge from-layer="1474" from-port="1" to-layer="1549" to-port="1"/>
		<edge from-layer="1548" from-port="1" to-layer="1549" to-port="2"/>
		<edge from-layer="1549" from-port="3" to-layer="1551" to-port="0"/>
		<edge from-layer="1550" from-port="0" to-layer="1551" to-port="1"/>
		<edge from-layer="1601" from-port="0" to-layer="1602" to-port="0"/>
		<edge from-layer="1602" from-port="1" to-layer="1604" to-port="0"/>
		<edge from-layer="1603" from-port="0" to-layer="1604" to-port="1"/>
		<edge from-layer="1604" from-port="2" to-layer="1606" to-port="0"/>
		<edge from-layer="1605" from-port="0" to-layer="1606" to-port="1"/>
		<edge from-layer="1606" from-port="2" to-layer="1607" to-port="0"/>
		<edge from-layer="1600" from-port="0" to-layer="1607" to-port="1"/>
		<edge from-layer="1396" from-port="5" to-layer="1608" to-port="0"/>
		<edge from-layer="1607" from-port="2" to-layer="1608" to-port="1"/>
		<edge from-layer="1608" from-port="2" to-layer="1610" to-port="0"/>
		<edge from-layer="1609" from-port="0" to-layer="1610" to-port="1"/>
		<edge from-layer="1610" from-port="2" to-layer="1611" to-port="0"/>
		<edge from-layer="1611" from-port="1" to-layer="1612" to-port="0"/>
		<edge from-layer="1596" from-port="0" to-layer="1612" to-port="1"/>
		<edge from-layer="1597" from-port="0" to-layer="1612" to-port="2"/>
		<edge from-layer="1598" from-port="0" to-layer="1612" to-port="3"/>
		<edge from-layer="1599" from-port="0" to-layer="1612" to-port="4"/>
		<edge from-layer="1613" from-port="0" to-layer="1614" to-port="0"/>
		<edge from-layer="1614" from-port="1" to-layer="1616" to-port="0"/>
		<edge from-layer="1615" from-port="0" to-layer="1616" to-port="1"/>
		<edge from-layer="1616" from-port="2" to-layer="1618" to-port="0"/>
		<edge from-layer="1617" from-port="0" to-layer="1618" to-port="1"/>
		<edge from-layer="1612" from-port="5" to-layer="1619" to-port="0"/>
		<edge from-layer="1618" from-port="2" to-layer="1619" to-port="1"/>
		<edge from-layer="1619" from-port="2" to-layer="1621" to-port="0"/>
		<edge from-layer="1620" from-port="0" to-layer="1621" to-port="1"/>
		<edge from-layer="1621" from-port="2" to-layer="1622" to-port="0"/>
		<edge from-layer="1622" from-port="1" to-layer="1623" to-port="0"/>
		<edge from-layer="1592" from-port="0" to-layer="1623" to-port="1"/>
		<edge from-layer="1593" from-port="0" to-layer="1623" to-port="2"/>
		<edge from-layer="1594" from-port="0" to-layer="1623" to-port="3"/>
		<edge from-layer="1595" from-port="0" to-layer="1623" to-port="4"/>
		<edge from-layer="1623" from-port="5" to-layer="1624" to-port="0"/>
		<edge from-layer="908" from-port="5" to-layer="1624" to-port="1"/>
		<edge from-layer="1625" from-port="0" to-layer="1626" to-port="0"/>
		<edge from-layer="1626" from-port="1" to-layer="1628" to-port="0"/>
		<edge from-layer="1627" from-port="0" to-layer="1628" to-port="1"/>
		<edge from-layer="1628" from-port="2" to-layer="1630" to-port="0"/>
		<edge from-layer="1629" from-port="0" to-layer="1630" to-port="1"/>
		<edge from-layer="1624" from-port="2" to-layer="1631" to-port="0"/>
		<edge from-layer="1630" from-port="2" to-layer="1631" to-port="1"/>
		<edge from-layer="1631" from-port="2" to-layer="1633" to-port="0"/>
		<edge from-layer="1632" from-port="0" to-layer="1633" to-port="1"/>
		<edge from-layer="1633" from-port="2" to-layer="1634" to-port="0"/>
		<edge from-layer="1634" from-port="1" to-layer="1635" to-port="0"/>
		<edge from-layer="1588" from-port="0" to-layer="1635" to-port="1"/>
		<edge from-layer="1589" from-port="0" to-layer="1635" to-port="2"/>
		<edge from-layer="1590" from-port="0" to-layer="1635" to-port="3"/>
		<edge from-layer="1591" from-port="0" to-layer="1635" to-port="4"/>
		<edge from-layer="1636" from-port="0" to-layer="1637" to-port="0"/>
		<edge from-layer="1637" from-port="1" to-layer="1639" to-port="0"/>
		<edge from-layer="1638" from-port="0" to-layer="1639" to-port="1"/>
		<edge from-layer="1639" from-port="2" to-layer="1641" to-port="0"/>
		<edge from-layer="1640" from-port="0" to-layer="1641" to-port="1"/>
		<edge from-layer="1635" from-port="5" to-layer="1642" to-port="0"/>
		<edge from-layer="1641" from-port="2" to-layer="1642" to-port="1"/>
		<edge from-layer="1642" from-port="2" to-layer="1644" to-port="0"/>
		<edge from-layer="1643" from-port="0" to-layer="1644" to-port="1"/>
		<edge from-layer="1644" from-port="2" to-layer="1645" to-port="0"/>
		<edge from-layer="1645" from-port="1" to-layer="1646" to-port="0"/>
		<edge from-layer="1584" from-port="0" to-layer="1646" to-port="1"/>
		<edge from-layer="1585" from-port="0" to-layer="1646" to-port="2"/>
		<edge from-layer="1586" from-port="0" to-layer="1646" to-port="3"/>
		<edge from-layer="1587" from-port="0" to-layer="1646" to-port="4"/>
		<edge from-layer="1648" from-port="0" to-layer="1649" to-port="0"/>
		<edge from-layer="1649" from-port="1" to-layer="1651" to-port="0"/>
		<edge from-layer="1650" from-port="0" to-layer="1651" to-port="1"/>
		<edge from-layer="1651" from-port="2" to-layer="1653" to-port="0"/>
		<edge from-layer="1652" from-port="0" to-layer="1653" to-port="1"/>
		<edge from-layer="1653" from-port="2" to-layer="1654" to-port="0"/>
		<edge from-layer="1647" from-port="0" to-layer="1654" to-port="1"/>
		<edge from-layer="1646" from-port="5" to-layer="1655" to-port="0"/>
		<edge from-layer="1654" from-port="2" to-layer="1655" to-port="1"/>
		<edge from-layer="1655" from-port="2" to-layer="1657" to-port="0"/>
		<edge from-layer="1656" from-port="0" to-layer="1657" to-port="1"/>
		<edge from-layer="1657" from-port="2" to-layer="1658" to-port="0"/>
		<edge from-layer="1658" from-port="1" to-layer="1659" to-port="0"/>
		<edge from-layer="1580" from-port="0" to-layer="1659" to-port="1"/>
		<edge from-layer="1581" from-port="0" to-layer="1659" to-port="2"/>
		<edge from-layer="1582" from-port="0" to-layer="1659" to-port="3"/>
		<edge from-layer="1583" from-port="0" to-layer="1659" to-port="4"/>
		<edge from-layer="1660" from-port="0" to-layer="1661" to-port="0"/>
		<edge from-layer="1661" from-port="1" to-layer="1663" to-port="0"/>
		<edge from-layer="1662" from-port="0" to-layer="1663" to-port="1"/>
		<edge from-layer="1663" from-port="2" to-layer="1665" to-port="0"/>
		<edge from-layer="1664" from-port="0" to-layer="1665" to-port="1"/>
		<edge from-layer="1659" from-port="5" to-layer="1666" to-port="0"/>
		<edge from-layer="1665" from-port="2" to-layer="1666" to-port="1"/>
		<edge from-layer="1666" from-port="2" to-layer="1668" to-port="0"/>
		<edge from-layer="1667" from-port="0" to-layer="1668" to-port="1"/>
		<edge from-layer="1668" from-port="2" to-layer="1669" to-port="0"/>
		<edge from-layer="1669" from-port="1" to-layer="1670" to-port="0"/>
		<edge from-layer="1576" from-port="0" to-layer="1670" to-port="1"/>
		<edge from-layer="1577" from-port="0" to-layer="1670" to-port="2"/>
		<edge from-layer="1578" from-port="0" to-layer="1670" to-port="3"/>
		<edge from-layer="1579" from-port="0" to-layer="1670" to-port="4"/>
		<edge from-layer="1675" from-port="0" to-layer="1676" to-port="0"/>
		<edge from-layer="1676" from-port="1" to-layer="1678" to-port="0"/>
		<edge from-layer="1677" from-port="0" to-layer="1678" to-port="1"/>
		<edge from-layer="1678" from-port="2" to-layer="1680" to-port="0"/>
		<edge from-layer="1679" from-port="0" to-layer="1680" to-port="1"/>
		<edge from-layer="1624" from-port="2" to-layer="1681" to-port="0"/>
		<edge from-layer="1680" from-port="2" to-layer="1681" to-port="1"/>
		<edge from-layer="1681" from-port="2" to-layer="1683" to-port="0"/>
		<edge from-layer="1682" from-port="0" to-layer="1683" to-port="1"/>
		<edge from-layer="1683" from-port="2" to-layer="1684" to-port="0"/>
		<edge from-layer="1684" from-port="1" to-layer="1685" to-port="0"/>
		<edge from-layer="1671" from-port="0" to-layer="1685" to-port="1"/>
		<edge from-layer="1672" from-port="0" to-layer="1685" to-port="2"/>
		<edge from-layer="1673" from-port="0" to-layer="1685" to-port="3"/>
		<edge from-layer="1674" from-port="0" to-layer="1685" to-port="4"/>
		<edge from-layer="1670" from-port="5" to-layer="1686" to-port="0"/>
		<edge from-layer="1685" from-port="5" to-layer="1686" to-port="1"/>
		<edge from-layer="1687" from-port="0" to-layer="1688" to-port="0"/>
		<edge from-layer="1688" from-port="1" to-layer="1690" to-port="0"/>
		<edge from-layer="1689" from-port="0" to-layer="1690" to-port="1"/>
		<edge from-layer="1690" from-port="2" to-layer="1692" to-port="0"/>
		<edge from-layer="1691" from-port="0" to-layer="1692" to-port="1"/>
		<edge from-layer="1686" from-port="2" to-layer="1693" to-port="0"/>
		<edge from-layer="1692" from-port="2" to-layer="1693" to-port="1"/>
		<edge from-layer="1693" from-port="2" to-layer="1695" to-port="0"/>
		<edge from-layer="1694" from-port="0" to-layer="1695" to-port="1"/>
		<edge from-layer="1695" from-port="2" to-layer="1696" to-port="0"/>
		<edge from-layer="1696" from-port="1" to-layer="1697" to-port="0"/>
		<edge from-layer="1572" from-port="0" to-layer="1697" to-port="1"/>
		<edge from-layer="1573" from-port="0" to-layer="1697" to-port="2"/>
		<edge from-layer="1574" from-port="0" to-layer="1697" to-port="3"/>
		<edge from-layer="1575" from-port="0" to-layer="1697" to-port="4"/>
		<edge from-layer="1698" from-port="0" to-layer="1699" to-port="0"/>
		<edge from-layer="1699" from-port="1" to-layer="1701" to-port="0"/>
		<edge from-layer="1700" from-port="0" to-layer="1701" to-port="1"/>
		<edge from-layer="1701" from-port="2" to-layer="1703" to-port="0"/>
		<edge from-layer="1702" from-port="0" to-layer="1703" to-port="1"/>
		<edge from-layer="1697" from-port="5" to-layer="1704" to-port="0"/>
		<edge from-layer="1703" from-port="2" to-layer="1704" to-port="1"/>
		<edge from-layer="1704" from-port="2" to-layer="1706" to-port="0"/>
		<edge from-layer="1705" from-port="0" to-layer="1706" to-port="1"/>
		<edge from-layer="1706" from-port="2" to-layer="1707" to-port="0"/>
		<edge from-layer="1707" from-port="1" to-layer="1708" to-port="0"/>
		<edge from-layer="1568" from-port="0" to-layer="1708" to-port="1"/>
		<edge from-layer="1569" from-port="0" to-layer="1708" to-port="2"/>
		<edge from-layer="1570" from-port="0" to-layer="1708" to-port="3"/>
		<edge from-layer="1571" from-port="0" to-layer="1708" to-port="4"/>
		<edge from-layer="1710" from-port="0" to-layer="1711" to-port="0"/>
		<edge from-layer="1711" from-port="1" to-layer="1713" to-port="0"/>
		<edge from-layer="1712" from-port="0" to-layer="1713" to-port="1"/>
		<edge from-layer="1713" from-port="2" to-layer="1715" to-port="0"/>
		<edge from-layer="1714" from-port="0" to-layer="1715" to-port="1"/>
		<edge from-layer="1715" from-port="2" to-layer="1716" to-port="0"/>
		<edge from-layer="1709" from-port="0" to-layer="1716" to-port="1"/>
		<edge from-layer="1708" from-port="5" to-layer="1717" to-port="0"/>
		<edge from-layer="1716" from-port="2" to-layer="1717" to-port="1"/>
		<edge from-layer="1717" from-port="2" to-layer="1719" to-port="0"/>
		<edge from-layer="1718" from-port="0" to-layer="1719" to-port="1"/>
		<edge from-layer="1719" from-port="2" to-layer="1720" to-port="0"/>
		<edge from-layer="1720" from-port="1" to-layer="1721" to-port="0"/>
		<edge from-layer="1564" from-port="0" to-layer="1721" to-port="1"/>
		<edge from-layer="1565" from-port="0" to-layer="1721" to-port="2"/>
		<edge from-layer="1566" from-port="0" to-layer="1721" to-port="3"/>
		<edge from-layer="1567" from-port="0" to-layer="1721" to-port="4"/>
		<edge from-layer="1722" from-port="0" to-layer="1723" to-port="0"/>
		<edge from-layer="1723" from-port="1" to-layer="1725" to-port="0"/>
		<edge from-layer="1724" from-port="0" to-layer="1725" to-port="1"/>
		<edge from-layer="1725" from-port="2" to-layer="1727" to-port="0"/>
		<edge from-layer="1726" from-port="0" to-layer="1727" to-port="1"/>
		<edge from-layer="1721" from-port="5" to-layer="1728" to-port="0"/>
		<edge from-layer="1727" from-port="2" to-layer="1728" to-port="1"/>
		<edge from-layer="1728" from-port="2" to-layer="1730" to-port="0"/>
		<edge from-layer="1729" from-port="0" to-layer="1730" to-port="1"/>
		<edge from-layer="1730" from-port="2" to-layer="1731" to-port="0"/>
		<edge from-layer="1731" from-port="1" to-layer="1732" to-port="0"/>
		<edge from-layer="1560" from-port="0" to-layer="1732" to-port="1"/>
		<edge from-layer="1561" from-port="0" to-layer="1732" to-port="2"/>
		<edge from-layer="1562" from-port="0" to-layer="1732" to-port="3"/>
		<edge from-layer="1563" from-port="0" to-layer="1732" to-port="4"/>
		<edge from-layer="1734" from-port="0" to-layer="1735" to-port="0"/>
		<edge from-layer="1735" from-port="1" to-layer="1737" to-port="0"/>
		<edge from-layer="1736" from-port="0" to-layer="1737" to-port="1"/>
		<edge from-layer="1737" from-port="2" to-layer="1739" to-port="0"/>
		<edge from-layer="1738" from-port="0" to-layer="1739" to-port="1"/>
		<edge from-layer="1739" from-port="2" to-layer="1740" to-port="0"/>
		<edge from-layer="1733" from-port="0" to-layer="1740" to-port="1"/>
		<edge from-layer="1732" from-port="5" to-layer="1741" to-port="0"/>
		<edge from-layer="1740" from-port="2" to-layer="1741" to-port="1"/>
		<edge from-layer="1741" from-port="2" to-layer="1743" to-port="0"/>
		<edge from-layer="1742" from-port="0" to-layer="1743" to-port="1"/>
		<edge from-layer="1743" from-port="2" to-layer="1744" to-port="0"/>
		<edge from-layer="1744" from-port="1" to-layer="1745" to-port="0"/>
		<edge from-layer="1556" from-port="0" to-layer="1745" to-port="1"/>
		<edge from-layer="1557" from-port="0" to-layer="1745" to-port="2"/>
		<edge from-layer="1558" from-port="0" to-layer="1745" to-port="3"/>
		<edge from-layer="1559" from-port="0" to-layer="1745" to-port="4"/>
		<edge from-layer="1746" from-port="0" to-layer="1747" to-port="0"/>
		<edge from-layer="1747" from-port="1" to-layer="1749" to-port="0"/>
		<edge from-layer="1748" from-port="0" to-layer="1749" to-port="1"/>
		<edge from-layer="1749" from-port="2" to-layer="1751" to-port="0"/>
		<edge from-layer="1750" from-port="0" to-layer="1751" to-port="1"/>
		<edge from-layer="1745" from-port="5" to-layer="1752" to-port="0"/>
		<edge from-layer="1751" from-port="2" to-layer="1752" to-port="1"/>
		<edge from-layer="1752" from-port="2" to-layer="1754" to-port="0"/>
		<edge from-layer="1753" from-port="0" to-layer="1754" to-port="1"/>
		<edge from-layer="1754" from-port="2" to-layer="1755" to-port="0"/>
		<edge from-layer="1755" from-port="1" to-layer="1756" to-port="0"/>
		<edge from-layer="1552" from-port="0" to-layer="1756" to-port="1"/>
		<edge from-layer="1553" from-port="0" to-layer="1756" to-port="2"/>
		<edge from-layer="1554" from-port="0" to-layer="1756" to-port="3"/>
		<edge from-layer="1555" from-port="0" to-layer="1756" to-port="4"/>
		<edge from-layer="1757" from-port="0" to-layer="1758" to-port="0"/>
		<edge from-layer="1758" from-port="1" to-layer="1760" to-port="0"/>
		<edge from-layer="1759" from-port="0" to-layer="1760" to-port="1"/>
		<edge from-layer="1760" from-port="2" to-layer="1762" to-port="0"/>
		<edge from-layer="1761" from-port="0" to-layer="1762" to-port="1"/>
		<edge from-layer="1756" from-port="5" to-layer="1763" to-port="0"/>
		<edge from-layer="1762" from-port="2" to-layer="1763" to-port="1"/>
		<edge from-layer="1763" from-port="2" to-layer="1765" to-port="0"/>
		<edge from-layer="1764" from-port="0" to-layer="1765" to-port="1"/>
		<edge from-layer="1766" from-port="0" to-layer="1767" to-port="0"/>
		<edge from-layer="1767" from-port="1" to-layer="1769" to-port="0"/>
		<edge from-layer="1768" from-port="0" to-layer="1769" to-port="1"/>
		<edge from-layer="1769" from-port="2" to-layer="1771" to-port="0"/>
		<edge from-layer="1770" from-port="0" to-layer="1771" to-port="1"/>
		<edge from-layer="1756" from-port="5" to-layer="1772" to-port="0"/>
		<edge from-layer="1771" from-port="2" to-layer="1772" to-port="1"/>
		<edge from-layer="1772" from-port="2" to-layer="1774" to-port="0"/>
		<edge from-layer="1773" from-port="0" to-layer="1774" to-port="1"/>
		<edge from-layer="1774" from-port="2" to-layer="1775" to-port="0"/>
		<edge from-layer="1793" from-port="0" to-layer="1794" to-port="0"/>
		<edge from-layer="1794" from-port="1" to-layer="1796" to-port="0"/>
		<edge from-layer="1795" from-port="0" to-layer="1796" to-port="1"/>
		<edge from-layer="1796" from-port="2" to-layer="1798" to-port="0"/>
		<edge from-layer="1797" from-port="0" to-layer="1798" to-port="1"/>
		<edge from-layer="1798" from-port="2" to-layer="1799" to-port="0"/>
		<edge from-layer="1792" from-port="0" to-layer="1799" to-port="1"/>
		<edge from-layer="1708" from-port="5" to-layer="1800" to-port="0"/>
		<edge from-layer="1799" from-port="2" to-layer="1800" to-port="1"/>
		<edge from-layer="1800" from-port="2" to-layer="1802" to-port="0"/>
		<edge from-layer="1801" from-port="0" to-layer="1802" to-port="1"/>
		<edge from-layer="1802" from-port="2" to-layer="1803" to-port="0"/>
		<edge from-layer="1803" from-port="1" to-layer="1804" to-port="0"/>
		<edge from-layer="1788" from-port="0" to-layer="1804" to-port="1"/>
		<edge from-layer="1789" from-port="0" to-layer="1804" to-port="2"/>
		<edge from-layer="1790" from-port="0" to-layer="1804" to-port="3"/>
		<edge from-layer="1791" from-port="0" to-layer="1804" to-port="4"/>
		<edge from-layer="1805" from-port="0" to-layer="1806" to-port="0"/>
		<edge from-layer="1806" from-port="1" to-layer="1808" to-port="0"/>
		<edge from-layer="1807" from-port="0" to-layer="1808" to-port="1"/>
		<edge from-layer="1808" from-port="2" to-layer="1810" to-port="0"/>
		<edge from-layer="1809" from-port="0" to-layer="1810" to-port="1"/>
		<edge from-layer="1804" from-port="5" to-layer="1811" to-port="0"/>
		<edge from-layer="1810" from-port="2" to-layer="1811" to-port="1"/>
		<edge from-layer="1811" from-port="2" to-layer="1813" to-port="0"/>
		<edge from-layer="1812" from-port="0" to-layer="1813" to-port="1"/>
		<edge from-layer="1813" from-port="2" to-layer="1814" to-port="0"/>
		<edge from-layer="1814" from-port="1" to-layer="1815" to-port="0"/>
		<edge from-layer="1784" from-port="0" to-layer="1815" to-port="1"/>
		<edge from-layer="1785" from-port="0" to-layer="1815" to-port="2"/>
		<edge from-layer="1786" from-port="0" to-layer="1815" to-port="3"/>
		<edge from-layer="1787" from-port="0" to-layer="1815" to-port="4"/>
		<edge from-layer="1817" from-port="0" to-layer="1818" to-port="0"/>
		<edge from-layer="1818" from-port="1" to-layer="1820" to-port="0"/>
		<edge from-layer="1819" from-port="0" to-layer="1820" to-port="1"/>
		<edge from-layer="1820" from-port="2" to-layer="1822" to-port="0"/>
		<edge from-layer="1821" from-port="0" to-layer="1822" to-port="1"/>
		<edge from-layer="1822" from-port="2" to-layer="1823" to-port="0"/>
		<edge from-layer="1816" from-port="0" to-layer="1823" to-port="1"/>
		<edge from-layer="1815" from-port="5" to-layer="1824" to-port="0"/>
		<edge from-layer="1823" from-port="2" to-layer="1824" to-port="1"/>
		<edge from-layer="1824" from-port="2" to-layer="1826" to-port="0"/>
		<edge from-layer="1825" from-port="0" to-layer="1826" to-port="1"/>
		<edge from-layer="1826" from-port="2" to-layer="1827" to-port="0"/>
		<edge from-layer="1827" from-port="1" to-layer="1828" to-port="0"/>
		<edge from-layer="1780" from-port="0" to-layer="1828" to-port="1"/>
		<edge from-layer="1781" from-port="0" to-layer="1828" to-port="2"/>
		<edge from-layer="1782" from-port="0" to-layer="1828" to-port="3"/>
		<edge from-layer="1783" from-port="0" to-layer="1828" to-port="4"/>
		<edge from-layer="1829" from-port="0" to-layer="1830" to-port="0"/>
		<edge from-layer="1830" from-port="1" to-layer="1832" to-port="0"/>
		<edge from-layer="1831" from-port="0" to-layer="1832" to-port="1"/>
		<edge from-layer="1832" from-port="2" to-layer="1834" to-port="0"/>
		<edge from-layer="1833" from-port="0" to-layer="1834" to-port="1"/>
		<edge from-layer="1828" from-port="5" to-layer="1835" to-port="0"/>
		<edge from-layer="1834" from-port="2" to-layer="1835" to-port="1"/>
		<edge from-layer="1835" from-port="2" to-layer="1837" to-port="0"/>
		<edge from-layer="1836" from-port="0" to-layer="1837" to-port="1"/>
		<edge from-layer="1837" from-port="2" to-layer="1838" to-port="0"/>
		<edge from-layer="1838" from-port="1" to-layer="1839" to-port="0"/>
		<edge from-layer="1776" from-port="0" to-layer="1839" to-port="1"/>
		<edge from-layer="1777" from-port="0" to-layer="1839" to-port="2"/>
		<edge from-layer="1778" from-port="0" to-layer="1839" to-port="3"/>
		<edge from-layer="1779" from-port="0" to-layer="1839" to-port="4"/>
		<edge from-layer="1840" from-port="0" to-layer="1841" to-port="0"/>
		<edge from-layer="1841" from-port="1" to-layer="1843" to-port="0"/>
		<edge from-layer="1842" from-port="0" to-layer="1843" to-port="1"/>
		<edge from-layer="1843" from-port="2" to-layer="1845" to-port="0"/>
		<edge from-layer="1844" from-port="0" to-layer="1845" to-port="1"/>
		<edge from-layer="1839" from-port="5" to-layer="1846" to-port="0"/>
		<edge from-layer="1845" from-port="2" to-layer="1846" to-port="1"/>
		<edge from-layer="1846" from-port="2" to-layer="1848" to-port="0"/>
		<edge from-layer="1847" from-port="0" to-layer="1848" to-port="1"/>
		<edge from-layer="1848" from-port="2" to-layer="1849" to-port="0"/>
		<edge from-layer="1765" from-port="2" to-layer="1850" to-port="0"/>
		<edge from-layer="1775" from-port="1" to-layer="1850" to-port="1"/>
		<edge from-layer="1849" from-port="1" to-layer="1850" to-port="2"/>
		<edge from-layer="1850" from-port="3" to-layer="1852" to-port="0"/>
		<edge from-layer="1851" from-port="0" to-layer="1852" to-port="1"/>
		<edge from-layer="1250" from-port="2" to-layer="1853" to-port="0"/>
		<edge from-layer="1551" from-port="2" to-layer="1853" to-port="1"/>
		<edge from-layer="1852" from-port="2" to-layer="1853" to-port="2"/>
		<edge from-layer="1853" from-port="3" to-layer="1855" to-port="0"/>
		<edge from-layer="1854" from-port="0" to-layer="1855" to-port="1"/>
		<edge from-layer="1855" from-port="2" to-layer="1856" to-port="0"/>
	</edges>
	<meta_data>
		<MO_version value="2021.4.2-3976-0943ed67223-refs/pull/539/head"/>
		<cli_parameters>
			<caffe_parser_path value="DIR"/>
			<data_type value="float"/>
			<disable_nhwc_to_nchw value="False"/>
			<disable_omitting_optional value="False"/>
			<disable_resnet_optimization value="False"/>
			<disable_weights_compression value="False"/>
			<enable_concat_optimization value="False"/>
			<enable_flattening_nested_params value="False"/>
			<enable_ssd_gluoncv value="False"/>
			<extensions value="DIR"/>
			<framework value="onnx"/>
			<freeze_placeholder_with_value value="{}"/>
			<generate_deprecated_IR_V7 value="False"/>
			<input_model value="DIR/mw-A513v2-glb1cls10_yolox-n.onnx"/>
			<input_model_is_text value="False"/>
			<k value="DIR/CustomLayersMapping.xml"/>
			<keep_shape_ops value="True"/>
			<legacy_ir_generation value="False"/>
			<legacy_mxnet_model value="False"/>
			<log_level value="ERROR"/>
			<mean_scale_values value="{}"/>
			<mean_values value="()"/>
			<model_name value="mw-A513v2-glb1cls10_yolox-n"/>
			<output_dir value="DIR"/>
			<placeholder_data_types value="{}"/>
			<progress value="False"/>
			<remove_memory value="False"/>
			<remove_output_softmax value="False"/>
			<reverse_input_channels value="False"/>
			<save_params_from_nd value="False"/>
			<scale_values value="()"/>
			<silent value="False"/>
			<static_shape value="False"/>
			<stream_output value="False"/>
			<transform value=""/>
			<unset unset_cli_parameters="batch, counts, disable_fusing, disable_gfusing, finegrain_fusing, input, input_checkpoint, input_meta_graph, input_proto, input_shape, input_symbol, mean_file, mean_file_offsets, move_to_preprocess, nd_prefix_name, output, placeholder_shapes, pretrained_model_name, saved_model_dir, saved_model_tags, scale, tensorboard_logdir, tensorflow_custom_layer_libraries, tensorflow_custom_operations_config_update, tensorflow_object_detection_api_pipeline_config, tensorflow_use_custom_operations_config, transformations_config"/>
		</cli_parameters>
	</meta_data>
	<quantization_parameters>
		<config>{
		'compression': {
			'target_device': 'CPU',
			'algorithms': [
				{
					'name': 'DefaultQuantization',
					'params': {
						'preset': 'performance',
						'stat_subset_size': 300,
						'shuffle_data': false
					}
				}
			]
		},
		'engine': {
			'type': 'simplified',
			'data_source': 'PATH',
			'device': 'CPU'
		}
	}</config>
		<version value="1.0"/>
		<cli_params value="{'quantize': None, 'preset': None, 'model': None, 'weights': None, 'name': None, 'ac_config': None, 'max_drop': None, 'evaluate': False, 'output_dir': 'PATH', 'direct_dump': True, 'log_level': 'INFO', 'pbar': False, 'stream_output': False, 'keep_uncompressed_weights': False}"/>
	</quantization_parameters>
</net>
