<?xml version="1.0" ?>
<net name="mbv2-backbone-3-class-concat" version="10">
	<layers>
		<layer id="0" name="input_image" type="Parameter" version="opset1">
			<data shape="1, 3, 224, 224" element_type="f32"/>
			<output>
				<port id="0" precision="FP32" names="input_image">
					<dim>1</dim>
					<dim>3</dim>
					<dim>224</dim>
					<dim>224</dim>
				</port>
			</output>
		</layer>
		<layer id="1" name="Div_4/Fused_Mul__copy" type="Const" version="opset1">
			<data element_type="f32" shape="32, 3, 3, 3" offset="0" size="3456"/>
			<output>
				<port id="0" precision="FP32" names="features.0.0.weight">
					<dim>32</dim>
					<dim>3</dim>
					<dim>3</dim>
					<dim>3</dim>
				</port>
			</output>
		</layer>
		<layer id="2" name="Conv_0" type="Convolution" version="opset1">
			<data strides="2, 2" dilations="1, 1" pads_begin="1, 1" pads_end="1, 1" auto_pad="explicit"/>
			<input>
				<port id="0" precision="FP32">
					<dim>1</dim>
					<dim>3</dim>
					<dim>224</dim>
					<dim>224</dim>
				</port>
				<port id="1" precision="FP32">
					<dim>32</dim>
					<dim>3</dim>
					<dim>3</dim>
					<dim>3</dim>
				</port>
			</input>
			<output>
				<port id="2" precision="FP32" names="163">
					<dim>1</dim>
					<dim>32</dim>
					<dim>112</dim>
					<dim>112</dim>
				</port>
			</output>
		</layer>
		<layer id="3" name="Clip_9" type="Clamp" version="opset1">
			<data min="0" max="6"/>
			<input>
				<port id="0" precision="FP32">
					<dim>1</dim>
					<dim>32</dim>
					<dim>112</dim>
					<dim>112</dim>
				</port>
			</input>
			<output>
				<port id="1" precision="FP32" names="166">
					<dim>1</dim>
					<dim>32</dim>
					<dim>112</dim>
					<dim>112</dim>
				</port>
			</output>
		</layer>
		<layer id="4" name="2152" type="Const" version="opset1">
			<data element_type="i64" shape="1, 1, 1, 1" offset="3456" size="8"/>
			<output>
				<port id="0" precision="I64" names="2152">
					<dim>1</dim>
					<dim>1</dim>
					<dim>1</dim>
					<dim>1</dim>
				</port>
			</output>
		</layer>
		<layer id="5" name="215268006" type="Const" version="opset1">
			<data element_type="i64" shape="1, 1, 1, 1" offset="3456" size="8"/>
			<output>
				<port id="0" precision="I64" names="2152">
					<dim>1</dim>
					<dim>1</dim>
					<dim>1</dim>
					<dim>1</dim>
				</port>
			</output>
		</layer>
		<layer id="6" name="Constant_24" type="Const" version="opset1">
			<data element_type="i64" shape="" offset="3456" size="8"/>
			<output>
				<port id="0" precision="I64" names="182"/>
			</output>
		</layer>
		<layer id="7" name="Shape_20" type="ShapeOf" version="opset3">
			<data output_type="i64"/>
			<input>
				<port id="0" precision="FP32">
					<dim>1</dim>
					<dim>32</dim>
					<dim>112</dim>
					<dim>112</dim>
				</port>
			</input>
			<output>
				<port id="1" precision="I64" names="178">
					<dim>4</dim>
				</port>
			</output>
		</layer>
		<layer id="8" name="Constant_21" type="Const" version="opset1">
			<data element_type="i32" shape="" offset="3464" size="4"/>
			<output>
				<port id="0" precision="I32" names="179"/>
			</output>
		</layer>
		<layer id="9" name="Gather_22/axis" type="Const" version="opset1">
			<data element_type="i64" shape="" offset="3456" size="8"/>
			<output>
				<port id="0" precision="I64"/>
			</output>
		</layer>
		<layer id="10" name="Gather_222408" type="Gather" version="opset7">
			<data batch_dims="0"/>
			<input>
				<port id="0" precision="I64">
					<dim>4</dim>
				</port>
				<port id="1" precision="I32"/>
				<port id="2" precision="I64"/>
			</input>
			<output>
				<port id="3" precision="I64" names="180,181"/>
			</output>
		</layer>
		<layer id="11" name="Constant_25" type="Const" version="opset1">
			<data element_type="i64" shape="" offset="3468" size="8"/>
			<output>
				<port id="0" precision="I64" names="183"/>
			</output>
		</layer>
		<layer id="12" name="Range_26" type="Range" version="opset4">
			<data output_type="i64"/>
			<input>
				<port id="0" precision="I64"/>
				<port id="1" precision="I64"/>
				<port id="2" precision="I64"/>
			</input>
			<output>
				<port id="3" precision="I64" names="184">
					<dim>32</dim>
				</port>
			</output>
		</layer>
		<layer id="13" name="Slice_31/Concat2066567028" type="Const" version="opset1">
			<data element_type="i64" shape="1" offset="3456" size="8"/>
			<output>
				<port id="0" precision="I64">
					<dim>1</dim>
				</port>
			</output>
		</layer>
		<layer id="14" name="Slice_31/Concat206552066667733" type="Const" version="opset1">
			<data element_type="i64" shape="1" offset="3476" size="8"/>
			<output>
				<port id="0" precision="I64">
					<dim>1</dim>
				</port>
			</output>
		</layer>
		<layer id="15" name="Slice_31/Strides2066766887" type="Const" version="opset1">
			<data element_type="i64" shape="1" offset="3468" size="8"/>
			<output>
				<port id="0" precision="I64">
					<dim>1</dim>
				</port>
			</output>
		</layer>
		<layer id="16" name="Slice_31" type="StridedSlice" version="opset1">
			<data begin_mask="0" end_mask="0" new_axis_mask="0" shrink_axis_mask="0" ellipsis_mask="0"/>
			<input>
				<port id="0" precision="I64">
					<dim>32</dim>
				</port>
				<port id="1" precision="I64">
					<dim>1</dim>
				</port>
				<port id="2" precision="I64">
					<dim>1</dim>
				</port>
				<port id="3" precision="I64">
					<dim>1</dim>
				</port>
			</input>
			<output>
				<port id="4" precision="I64" names="189">
					<dim>8</dim>
				</port>
			</output>
		</layer>
		<layer id="17" name="Constant_46" type="Const" version="opset1">
			<data element_type="i64" shape="3" offset="3484" size="24"/>
			<output>
				<port id="0" precision="I64" names="206">
					<dim>3</dim>
				</port>
			</output>
		</layer>
		<layer id="18" name="Reshape_47" type="Reshape" version="opset1">
			<data special_zero="true"/>
			<input>
				<port id="0" precision="I64">
					<dim>8</dim>
				</port>
				<port id="1" precision="I64">
					<dim>3</dim>
				</port>
			</input>
			<output>
				<port id="2" precision="I64">
					<dim>8</dim>
					<dim>1</dim>
					<dim>1</dim>
				</port>
			</output>
		</layer>
		<layer id="19" name="Reshape_47/EltwiseUnsqueeze_input_port_1/value3393466959" type="Const" version="opset1">
			<data element_type="i64" shape="1" offset="3456" size="8"/>
			<output>
				<port id="0" precision="I64">
					<dim>1</dim>
				</port>
			</output>
		</layer>
		<layer id="20" name="Reshape_47/EltwiseUnsqueeze" type="Unsqueeze" version="opset1">
			<input>
				<port id="0" precision="I64">
					<dim>8</dim>
					<dim>1</dim>
					<dim>1</dim>
				</port>
				<port id="1" precision="I64">
					<dim>1</dim>
				</port>
			</input>
			<output>
				<port id="2" precision="I64" names="207">
					<dim>1</dim>
					<dim>8</dim>
					<dim>1</dim>
					<dim>1</dim>
				</port>
			</output>
		</layer>
		<layer id="21" name="Add_50" type="Add" version="opset1">
			<data auto_broadcast="numpy"/>
			<input>
				<port id="0" precision="I64">
					<dim>1</dim>
					<dim>1</dim>
					<dim>1</dim>
					<dim>1</dim>
				</port>
				<port id="1" precision="I64">
					<dim>1</dim>
					<dim>8</dim>
					<dim>1</dim>
					<dim>1</dim>
				</port>
			</input>
			<output>
				<port id="2" precision="I64" names="210">
					<dim>1</dim>
					<dim>8</dim>
					<dim>1</dim>
					<dim>1</dim>
				</port>
			</output>
		</layer>
		<layer id="22" name="Constant_36" type="Const" version="opset1">
			<data element_type="i64" shape="" offset="3456" size="8"/>
			<output>
				<port id="0" precision="I64" names="194"/>
			</output>
		</layer>
		<layer id="23" name="Shape_32" type="ShapeOf" version="opset3">
			<data output_type="i64"/>
			<input>
				<port id="0" precision="FP32">
					<dim>1</dim>
					<dim>32</dim>
					<dim>112</dim>
					<dim>112</dim>
				</port>
			</input>
			<output>
				<port id="1" precision="I64" names="190">
					<dim>4</dim>
				</port>
			</output>
		</layer>
		<layer id="24" name="Constant_33" type="Const" version="opset1">
			<data element_type="i32" shape="" offset="3508" size="4"/>
			<output>
				<port id="0" precision="I32" names="191"/>
			</output>
		</layer>
		<layer id="25" name="Gather_34/axis" type="Const" version="opset1">
			<data element_type="i64" shape="" offset="3456" size="8"/>
			<output>
				<port id="0" precision="I64"/>
			</output>
		</layer>
		<layer id="26" name="Gather_342488" type="Gather" version="opset7">
			<data batch_dims="0"/>
			<input>
				<port id="0" precision="I64">
					<dim>4</dim>
				</port>
				<port id="1" precision="I32"/>
				<port id="2" precision="I64"/>
			</input>
			<output>
				<port id="3" precision="I64" names="192,193"/>
			</output>
		</layer>
		<layer id="27" name="Constant_37" type="Const" version="opset1">
			<data element_type="i64" shape="" offset="3468" size="8"/>
			<output>
				<port id="0" precision="I64" names="195"/>
			</output>
		</layer>
		<layer id="28" name="Range_38" type="Range" version="opset4">
			<data output_type="i64"/>
			<input>
				<port id="0" precision="I64"/>
				<port id="1" precision="I64"/>
				<port id="2" precision="I64"/>
			</input>
			<output>
				<port id="3" precision="I64" names="196">
					<dim>112</dim>
				</port>
			</output>
		</layer>
		<layer id="29" name="Constant_48" type="Const" version="opset1">
			<data element_type="i64" shape="2" offset="3512" size="16"/>
			<output>
				<port id="0" precision="I64" names="208">
					<dim>2</dim>
				</port>
			</output>
		</layer>
		<layer id="30" name="Reshape_49" type="Reshape" version="opset1">
			<data special_zero="true"/>
			<input>
				<port id="0" precision="I64">
					<dim>112</dim>
				</port>
				<port id="1" precision="I64">
					<dim>2</dim>
				</port>
			</input>
			<output>
				<port id="2" precision="I64">
					<dim>112</dim>
					<dim>1</dim>
				</port>
			</output>
		</layer>
		<layer id="31" name="Reshape_49/EltwiseUnsqueeze_input_port_1/value3393868240" type="Const" version="opset1">
			<data element_type="i64" shape="2" offset="3528" size="16"/>
			<output>
				<port id="0" precision="I64">
					<dim>2</dim>
				</port>
			</output>
		</layer>
		<layer id="32" name="Reshape_49/EltwiseUnsqueeze" type="Unsqueeze" version="opset1">
			<input>
				<port id="0" precision="I64">
					<dim>112</dim>
					<dim>1</dim>
				</port>
				<port id="1" precision="I64">
					<dim>2</dim>
				</port>
			</input>
			<output>
				<port id="2" precision="I64" names="209">
					<dim>1</dim>
					<dim>1</dim>
					<dim>112</dim>
					<dim>1</dim>
				</port>
			</output>
		</layer>
		<layer id="33" name="Add_51" type="Add" version="opset1">
			<data auto_broadcast="numpy"/>
			<input>
				<port id="0" precision="I64">
					<dim>1</dim>
					<dim>8</dim>
					<dim>1</dim>
					<dim>1</dim>
				</port>
				<port id="1" precision="I64">
					<dim>1</dim>
					<dim>1</dim>
					<dim>112</dim>
					<dim>1</dim>
				</port>
			</input>
			<output>
				<port id="2" precision="I64" names="211">
					<dim>1</dim>
					<dim>8</dim>
					<dim>112</dim>
					<dim>1</dim>
				</port>
			</output>
		</layer>
		<layer id="34" name="Constant_43" type="Const" version="opset1">
			<data element_type="i64" shape="" offset="3456" size="8"/>
			<output>
				<port id="0" precision="I64" names="201"/>
			</output>
		</layer>
		<layer id="35" name="Shape_39" type="ShapeOf" version="opset3">
			<data output_type="i64"/>
			<input>
				<port id="0" precision="FP32">
					<dim>1</dim>
					<dim>32</dim>
					<dim>112</dim>
					<dim>112</dim>
				</port>
			</input>
			<output>
				<port id="1" precision="I64" names="197">
					<dim>4</dim>
				</port>
			</output>
		</layer>
		<layer id="36" name="Constant_40" type="Const" version="opset1">
			<data element_type="i32" shape="" offset="3544" size="4"/>
			<output>
				<port id="0" precision="I32" names="198"/>
			</output>
		</layer>
		<layer id="37" name="Gather_41/axis" type="Const" version="opset1">
			<data element_type="i64" shape="" offset="3456" size="8"/>
			<output>
				<port id="0" precision="I64"/>
			</output>
		</layer>
		<layer id="38" name="Gather_412436" type="Gather" version="opset7">
			<data batch_dims="0"/>
			<input>
				<port id="0" precision="I64">
					<dim>4</dim>
				</port>
				<port id="1" precision="I32"/>
				<port id="2" precision="I64"/>
			</input>
			<output>
				<port id="3" precision="I64" names="199,200"/>
			</output>
		</layer>
		<layer id="39" name="Constant_44" type="Const" version="opset1">
			<data element_type="i64" shape="" offset="3468" size="8"/>
			<output>
				<port id="0" precision="I64" names="202"/>
			</output>
		</layer>
		<layer id="40" name="Range_45" type="Range" version="opset4">
			<data output_type="i64"/>
			<input>
				<port id="0" precision="I64"/>
				<port id="1" precision="I64"/>
				<port id="2" precision="I64"/>
			</input>
			<output>
				<port id="3" precision="I64">
					<dim>112</dim>
				</port>
			</output>
		</layer>
		<layer id="41" name="Range_45/EltwiseUnsqueeze_input_port_1/value3394267613" type="Const" version="opset1">
			<data element_type="i64" shape="3" offset="3548" size="24"/>
			<output>
				<port id="0" precision="I64">
					<dim>3</dim>
				</port>
			</output>
		</layer>
		<layer id="42" name="Range_45/EltwiseUnsqueeze" type="Unsqueeze" version="opset1">
			<input>
				<port id="0" precision="I64">
					<dim>112</dim>
				</port>
				<port id="1" precision="I64">
					<dim>3</dim>
				</port>
			</input>
			<output>
				<port id="2" precision="I64" names="203">
					<dim>1</dim>
					<dim>1</dim>
					<dim>1</dim>
					<dim>112</dim>
				</port>
			</output>
		</layer>
		<layer id="43" name="Add_52" type="Add" version="opset1">
			<data auto_broadcast="numpy"/>
			<input>
				<port id="0" precision="I64">
					<dim>1</dim>
					<dim>8</dim>
					<dim>112</dim>
					<dim>1</dim>
				</port>
				<port id="1" precision="I64">
					<dim>1</dim>
					<dim>1</dim>
					<dim>1</dim>
					<dim>112</dim>
				</port>
			</input>
			<output>
				<port id="2" precision="I64" names="212">
					<dim>1</dim>
					<dim>8</dim>
					<dim>112</dim>
					<dim>112</dim>
				</port>
			</output>
		</layer>
		<layer id="44" name="Shape_53" type="ShapeOf" version="opset3">
			<data output_type="i64"/>
			<input>
				<port id="0" precision="I64">
					<dim>1</dim>
					<dim>8</dim>
					<dim>112</dim>
					<dim>112</dim>
				</port>
			</input>
			<output>
				<port id="1" precision="I64" names="213,252">
					<dim>4</dim>
				</port>
			</output>
		</layer>
		<layer id="45" name="ConstantOfShape_55/Broadcast/FillValue" type="Const" version="opset1">
			<data element_type="i64" shape="1" offset="3468" size="8"/>
			<output>
				<port id="0" precision="I64">
					<dim>1</dim>
				</port>
			</output>
		</layer>
		<layer id="46" name="Shape_54" type="ShapeOf" version="opset3">
			<data output_type="i64"/>
			<input>
				<port id="0" precision="I64">
					<dim>4</dim>
				</port>
			</input>
			<output>
				<port id="1" precision="I64" names="214">
					<dim>1</dim>
				</port>
			</output>
		</layer>
		<layer id="47" name="ConstantOfShape_55/Broadcast" type="Broadcast" version="opset3">
			<data mode="numpy"/>
			<input>
				<port id="0" precision="I64">
					<dim>1</dim>
				</port>
				<port id="1" precision="I64">
					<dim>1</dim>
				</port>
			</input>
			<output>
				<port id="2" precision="I64" names="215">
					<dim>4</dim>
				</port>
			</output>
		</layer>
		<layer id="48" name="Mul_57/Negate" type="Negative" version="opset1">
			<input>
				<port id="0" precision="I64">
					<dim>4</dim>
				</port>
			</input>
			<output>
				<port id="1" precision="I64" names="217">
					<dim>4</dim>
				</port>
			</output>
		</layer>
		<layer id="49" name="Equal_58" type="Equal" version="opset1">
			<input>
				<port id="0" precision="I64">
					<dim>4</dim>
				</port>
				<port id="1" precision="I64">
					<dim>4</dim>
				</port>
			</input>
			<output>
				<port id="2" precision="BOOL" names="218">
					<dim>4</dim>
				</port>
			</output>
		</layer>
		<layer id="50" name="Where_59" type="Select" version="opset1">
			<data auto_broadcast="numpy"/>
			<input>
				<port id="0" precision="BOOL">
					<dim>4</dim>
				</port>
				<port id="1" precision="I64">
					<dim>4</dim>
				</port>
				<port id="2" precision="I64">
					<dim>4</dim>
				</port>
			</input>
			<output>
				<port id="3" precision="I64" names="219">
					<dim>4</dim>
				</port>
			</output>
		</layer>
		<layer id="51" name="Expand_60" type="Broadcast" version="opset3">
			<data mode="bidirectional"/>
			<input>
				<port id="0" precision="I64">
					<dim>1</dim>
					<dim>1</dim>
					<dim>1</dim>
					<dim>1</dim>
				</port>
				<port id="1" precision="I64">
					<dim>4</dim>
				</port>
			</input>
			<output>
				<port id="2" precision="I64" names="220">
					<dim>1</dim>
					<dim>8</dim>
					<dim>112</dim>
					<dim>112</dim>
				</port>
			</output>
		</layer>
		<layer id="52" name="Unsqueeze_61/Dims" type="Const" version="opset1">
			<data element_type="i64" shape="1" offset="3572" size="8"/>
			<output>
				<port id="0" precision="I64">
					<dim>1</dim>
				</port>
			</output>
		</layer>
		<layer id="53" name="Unsqueeze_61/Unsqueeze" type="Unsqueeze" version="opset1">
			<input>
				<port id="0" precision="I64">
					<dim>1</dim>
					<dim>8</dim>
					<dim>112</dim>
					<dim>112</dim>
				</port>
				<port id="1" precision="I64">
					<dim>1</dim>
				</port>
			</input>
			<output>
				<port id="2" precision="I64" names="221">
					<dim>1</dim>
					<dim>8</dim>
					<dim>112</dim>
					<dim>112</dim>
					<dim>1</dim>
				</port>
			</output>
		</layer>
		<layer id="54" name="ConstantOfShape_63/Broadcast/FillValue" type="Const" version="opset1">
			<data element_type="i64" shape="1" offset="3468" size="8"/>
			<output>
				<port id="0" precision="I64">
					<dim>1</dim>
				</port>
			</output>
		</layer>
		<layer id="55" name="Shape_62" type="ShapeOf" version="opset3">
			<data output_type="i64"/>
			<input>
				<port id="0" precision="I64">
					<dim>4</dim>
				</port>
			</input>
			<output>
				<port id="1" precision="I64" names="222">
					<dim>1</dim>
				</port>
			</output>
		</layer>
		<layer id="56" name="ConstantOfShape_63/Broadcast" type="Broadcast" version="opset3">
			<data mode="numpy"/>
			<input>
				<port id="0" precision="I64">
					<dim>1</dim>
				</port>
				<port id="1" precision="I64">
					<dim>1</dim>
				</port>
			</input>
			<output>
				<port id="2" precision="I64" names="223">
					<dim>4</dim>
				</port>
			</output>
		</layer>
		<layer id="57" name="Mul_65/Negate" type="Negative" version="opset1">
			<input>
				<port id="0" precision="I64">
					<dim>4</dim>
				</port>
			</input>
			<output>
				<port id="1" precision="I64" names="225">
					<dim>4</dim>
				</port>
			</output>
		</layer>
		<layer id="58" name="Equal_66" type="Equal" version="opset1">
			<input>
				<port id="0" precision="I64">
					<dim>4</dim>
				</port>
				<port id="1" precision="I64">
					<dim>4</dim>
				</port>
			</input>
			<output>
				<port id="2" precision="BOOL" names="226">
					<dim>4</dim>
				</port>
			</output>
		</layer>
		<layer id="59" name="Where_67" type="Select" version="opset1">
			<data auto_broadcast="numpy"/>
			<input>
				<port id="0" precision="BOOL">
					<dim>4</dim>
				</port>
				<port id="1" precision="I64">
					<dim>4</dim>
				</port>
				<port id="2" precision="I64">
					<dim>4</dim>
				</port>
			</input>
			<output>
				<port id="3" precision="I64" names="227">
					<dim>4</dim>
				</port>
			</output>
		</layer>
		<layer id="60" name="Expand_68" type="Broadcast" version="opset3">
			<data mode="bidirectional"/>
			<input>
				<port id="0" precision="I64">
					<dim>8</dim>
					<dim>1</dim>
					<dim>1</dim>
				</port>
				<port id="1" precision="I64">
					<dim>4</dim>
				</port>
			</input>
			<output>
				<port id="2" precision="I64" names="228">
					<dim>1</dim>
					<dim>8</dim>
					<dim>112</dim>
					<dim>112</dim>
				</port>
			</output>
		</layer>
		<layer id="61" name="Unsqueeze_69/Dims" type="Const" version="opset1">
			<data element_type="i64" shape="1" offset="3572" size="8"/>
			<output>
				<port id="0" precision="I64">
					<dim>1</dim>
				</port>
			</output>
		</layer>
		<layer id="62" name="Unsqueeze_69/Unsqueeze" type="Unsqueeze" version="opset1">
			<input>
				<port id="0" precision="I64">
					<dim>1</dim>
					<dim>8</dim>
					<dim>112</dim>
					<dim>112</dim>
				</port>
				<port id="1" precision="I64">
					<dim>1</dim>
				</port>
			</input>
			<output>
				<port id="2" precision="I64" names="229">
					<dim>1</dim>
					<dim>8</dim>
					<dim>112</dim>
					<dim>112</dim>
					<dim>1</dim>
				</port>
			</output>
		</layer>
		<layer id="63" name="ConstantOfShape_71/Broadcast/FillValue" type="Const" version="opset1">
			<data element_type="i64" shape="1" offset="3468" size="8"/>
			<output>
				<port id="0" precision="I64">
					<dim>1</dim>
				</port>
			</output>
		</layer>
		<layer id="64" name="Shape_70" type="ShapeOf" version="opset3">
			<data output_type="i64"/>
			<input>
				<port id="0" precision="I64">
					<dim>4</dim>
				</port>
			</input>
			<output>
				<port id="1" precision="I64" names="230">
					<dim>1</dim>
				</port>
			</output>
		</layer>
		<layer id="65" name="ConstantOfShape_71/Broadcast" type="Broadcast" version="opset3">
			<data mode="numpy"/>
			<input>
				<port id="0" precision="I64">
					<dim>1</dim>
				</port>
				<port id="1" precision="I64">
					<dim>1</dim>
				</port>
			</input>
			<output>
				<port id="2" precision="I64" names="231">
					<dim>4</dim>
				</port>
			</output>
		</layer>
		<layer id="66" name="Mul_73/Negate" type="Negative" version="opset1">
			<input>
				<port id="0" precision="I64">
					<dim>4</dim>
				</port>
			</input>
			<output>
				<port id="1" precision="I64" names="233">
					<dim>4</dim>
				</port>
			</output>
		</layer>
		<layer id="67" name="Equal_74" type="Equal" version="opset1">
			<input>
				<port id="0" precision="I64">
					<dim>4</dim>
				</port>
				<port id="1" precision="I64">
					<dim>4</dim>
				</port>
			</input>
			<output>
				<port id="2" precision="BOOL" names="234">
					<dim>4</dim>
				</port>
			</output>
		</layer>
		<layer id="68" name="Where_75" type="Select" version="opset1">
			<data auto_broadcast="numpy"/>
			<input>
				<port id="0" precision="BOOL">
					<dim>4</dim>
				</port>
				<port id="1" precision="I64">
					<dim>4</dim>
				</port>
				<port id="2" precision="I64">
					<dim>4</dim>
				</port>
			</input>
			<output>
				<port id="3" precision="I64" names="235">
					<dim>4</dim>
				</port>
			</output>
		</layer>
		<layer id="69" name="Expand_76" type="Broadcast" version="opset3">
			<data mode="bidirectional"/>
			<input>
				<port id="0" precision="I64">
					<dim>112</dim>
					<dim>1</dim>
				</port>
				<port id="1" precision="I64">
					<dim>4</dim>
				</port>
			</input>
			<output>
				<port id="2" precision="I64" names="236">
					<dim>1</dim>
					<dim>8</dim>
					<dim>112</dim>
					<dim>112</dim>
				</port>
			</output>
		</layer>
		<layer id="70" name="Unsqueeze_77/Dims" type="Const" version="opset1">
			<data element_type="i64" shape="1" offset="3572" size="8"/>
			<output>
				<port id="0" precision="I64">
					<dim>1</dim>
				</port>
			</output>
		</layer>
		<layer id="71" name="Unsqueeze_77/Unsqueeze" type="Unsqueeze" version="opset1">
			<input>
				<port id="0" precision="I64">
					<dim>1</dim>
					<dim>8</dim>
					<dim>112</dim>
					<dim>112</dim>
				</port>
				<port id="1" precision="I64">
					<dim>1</dim>
				</port>
			</input>
			<output>
				<port id="2" precision="I64" names="237">
					<dim>1</dim>
					<dim>8</dim>
					<dim>112</dim>
					<dim>112</dim>
					<dim>1</dim>
				</port>
			</output>
		</layer>
		<layer id="72" name="ConstantOfShape_79/Broadcast/FillValue" type="Const" version="opset1">
			<data element_type="i64" shape="1" offset="3468" size="8"/>
			<output>
				<port id="0" precision="I64">
					<dim>1</dim>
				</port>
			</output>
		</layer>
		<layer id="73" name="Shape_78" type="ShapeOf" version="opset3">
			<data output_type="i64"/>
			<input>
				<port id="0" precision="I64">
					<dim>4</dim>
				</port>
			</input>
			<output>
				<port id="1" precision="I64" names="238">
					<dim>1</dim>
				</port>
			</output>
		</layer>
		<layer id="74" name="ConstantOfShape_79/Broadcast" type="Broadcast" version="opset3">
			<data mode="numpy"/>
			<input>
				<port id="0" precision="I64">
					<dim>1</dim>
				</port>
				<port id="1" precision="I64">
					<dim>1</dim>
				</port>
			</input>
			<output>
				<port id="2" precision="I64" names="239">
					<dim>4</dim>
				</port>
			</output>
		</layer>
		<layer id="75" name="Mul_81/Negate" type="Negative" version="opset1">
			<input>
				<port id="0" precision="I64">
					<dim>4</dim>
				</port>
			</input>
			<output>
				<port id="1" precision="I64" names="241">
					<dim>4</dim>
				</port>
			</output>
		</layer>
		<layer id="76" name="Equal_82" type="Equal" version="opset1">
			<input>
				<port id="0" precision="I64">
					<dim>4</dim>
				</port>
				<port id="1" precision="I64">
					<dim>4</dim>
				</port>
			</input>
			<output>
				<port id="2" precision="BOOL" names="242">
					<dim>4</dim>
				</port>
			</output>
		</layer>
		<layer id="77" name="Where_83" type="Select" version="opset1">
			<data auto_broadcast="numpy"/>
			<input>
				<port id="0" precision="BOOL">
					<dim>4</dim>
				</port>
				<port id="1" precision="I64">
					<dim>4</dim>
				</port>
				<port id="2" precision="I64">
					<dim>4</dim>
				</port>
			</input>
			<output>
				<port id="3" precision="I64" names="243">
					<dim>4</dim>
				</port>
			</output>
		</layer>
		<layer id="78" name="Expand_84" type="Broadcast" version="opset3">
			<data mode="bidirectional"/>
			<input>
				<port id="0" precision="I64">
					<dim>112</dim>
				</port>
				<port id="1" precision="I64">
					<dim>4</dim>
				</port>
			</input>
			<output>
				<port id="2" precision="I64" names="244">
					<dim>1</dim>
					<dim>8</dim>
					<dim>112</dim>
					<dim>112</dim>
				</port>
			</output>
		</layer>
		<layer id="79" name="Unsqueeze_85/Dims" type="Const" version="opset1">
			<data element_type="i64" shape="1" offset="3572" size="8"/>
			<output>
				<port id="0" precision="I64">
					<dim>1</dim>
				</port>
			</output>
		</layer>
		<layer id="80" name="Unsqueeze_85/Unsqueeze" type="Unsqueeze" version="opset1">
			<input>
				<port id="0" precision="I64">
					<dim>1</dim>
					<dim>8</dim>
					<dim>112</dim>
					<dim>112</dim>
				</port>
				<port id="1" precision="I64">
					<dim>1</dim>
				</port>
			</input>
			<output>
				<port id="2" precision="I64" names="245">
					<dim>1</dim>
					<dim>8</dim>
					<dim>112</dim>
					<dim>112</dim>
					<dim>1</dim>
				</port>
			</output>
		</layer>
		<layer id="81" name="Concat_86" type="Concat" version="opset1">
			<data axis="4"/>
			<input>
				<port id="0" precision="I64">
					<dim>1</dim>
					<dim>8</dim>
					<dim>112</dim>
					<dim>112</dim>
					<dim>1</dim>
				</port>
				<port id="1" precision="I64">
					<dim>1</dim>
					<dim>8</dim>
					<dim>112</dim>
					<dim>112</dim>
					<dim>1</dim>
				</port>
				<port id="2" precision="I64">
					<dim>1</dim>
					<dim>8</dim>
					<dim>112</dim>
					<dim>112</dim>
					<dim>1</dim>
				</port>
				<port id="3" precision="I64">
					<dim>1</dim>
					<dim>8</dim>
					<dim>112</dim>
					<dim>112</dim>
					<dim>1</dim>
				</port>
			</input>
			<output>
				<port id="4" precision="I64" names="246">
					<dim>1</dim>
					<dim>8</dim>
					<dim>112</dim>
					<dim>112</dim>
					<dim>4</dim>
				</port>
			</output>
		</layer>
		<layer id="82" name="Constant_17" type="Const" version="opset1">
			<data element_type="i64" shape="8, 112, 112" offset="3580" size="802816"/>
			<output>
				<port id="0" precision="I64" names="174">
					<dim>8</dim>
					<dim>112</dim>
					<dim>112</dim>
				</port>
			</output>
		</layer>
		<layer id="83" name="Constant_10" type="Const" version="opset1">
			<data element_type="i32" shape="" offset="806396" size="4"/>
			<output>
				<port id="0" precision="I32" names="167"/>
			</output>
		</layer>
		<layer id="84" name="Gather_11/axis" type="Const" version="opset1">
			<data element_type="i64" shape="" offset="3456" size="8"/>
			<output>
				<port id="0" precision="I64"/>
			</output>
		</layer>
		<layer id="85" name="Gather_112534" type="Gather" version="opset7">
			<data batch_dims="0"/>
			<input>
				<port id="0" precision="FP32">
					<dim>1</dim>
					<dim>32</dim>
					<dim>112</dim>
					<dim>112</dim>
				</port>
				<port id="1" precision="I32"/>
				<port id="2" precision="I64"/>
			</input>
			<output>
				<port id="3" precision="FP32" names="168">
					<dim>32</dim>
					<dim>112</dim>
					<dim>112</dim>
				</port>
			</output>
		</layer>
		<layer id="86" name="Slice_16/Concat2062966692" type="Const" version="opset1">
			<data element_type="i64" shape="3" offset="806400" size="24"/>
			<output>
				<port id="0" precision="I64">
					<dim>3</dim>
				</port>
			</output>
		</layer>
		<layer id="87" name="Slice_16/Concat206152063066560" type="Const" version="opset1">
			<data element_type="i64" shape="3" offset="806424" size="24"/>
			<output>
				<port id="0" precision="I64">
					<dim>3</dim>
				</port>
			</output>
		</layer>
		<layer id="88" name="Slice_16/Strides2063167652" type="Const" version="opset1">
			<data element_type="i64" shape="3" offset="806448" size="24"/>
			<output>
				<port id="0" precision="I64">
					<dim>3</dim>
				</port>
			</output>
		</layer>
		<layer id="89" name="Slice_16" type="StridedSlice" version="opset1">
			<data begin_mask="0, 1, 1" end_mask="0, 1, 1" new_axis_mask="0, 0, 0" shrink_axis_mask="0, 0, 0" ellipsis_mask="0, 0, 0"/>
			<input>
				<port id="0" precision="FP32">
					<dim>32</dim>
					<dim>112</dim>
					<dim>112</dim>
				</port>
				<port id="1" precision="I64">
					<dim>3</dim>
				</port>
				<port id="2" precision="I64">
					<dim>3</dim>
				</port>
				<port id="3" precision="I64">
					<dim>3</dim>
				</port>
			</input>
			<output>
				<port id="4" precision="FP32" names="173">
					<dim>8</dim>
					<dim>112</dim>
					<dim>112</dim>
				</port>
			</output>
		</layer>
		<layer id="90" name="Shape_18" type="ShapeOf" version="opset3">
			<data output_type="i64"/>
			<input>
				<port id="0" precision="FP32">
					<dim>8</dim>
					<dim>112</dim>
					<dim>112</dim>
				</port>
			</input>
			<output>
				<port id="1" precision="I64" names="175">
					<dim>3</dim>
				</port>
			</output>
		</layer>
		<layer id="91" name="Expand_19" type="Broadcast" version="opset3">
			<data mode="bidirectional"/>
			<input>
				<port id="0" precision="I64">
					<dim>8</dim>
					<dim>112</dim>
					<dim>112</dim>
				</port>
				<port id="1" precision="I64">
					<dim>3</dim>
				</port>
			</input>
			<output>
				<port id="2" precision="I64" names="176">
					<dim>8</dim>
					<dim>112</dim>
					<dim>112</dim>
				</port>
			</output>
		</layer>
		<layer id="92" name="Reshape_93" type="Reshape" version="opset1">
			<data special_zero="true"/>
			<input>
				<port id="0" precision="I64">
					<dim>8</dim>
					<dim>112</dim>
					<dim>112</dim>
				</port>
				<port id="1" precision="I64">
					<dim>4</dim>
				</port>
			</input>
			<output>
				<port id="2" precision="I64" names="253">
					<dim>1</dim>
					<dim>8</dim>
					<dim>112</dim>
					<dim>112</dim>
				</port>
			</output>
		</layer>
		<layer id="93" name="Cast_94" type="Convert" version="opset1">
			<data destination_type="f32"/>
			<input>
				<port id="0" precision="I64">
					<dim>1</dim>
					<dim>8</dim>
					<dim>112</dim>
					<dim>112</dim>
				</port>
			</input>
			<output>
				<port id="1" precision="FP32" names="254">
					<dim>1</dim>
					<dim>8</dim>
					<dim>112</dim>
					<dim>112</dim>
				</port>
			</output>
		</layer>
		<layer id="94" name="ScatterND_95" type="ScatterNDUpdate" version="opset4">
			<input>
				<port id="0" precision="FP32">
					<dim>1</dim>
					<dim>32</dim>
					<dim>112</dim>
					<dim>112</dim>
				</port>
				<port id="1" precision="I64">
					<dim>1</dim>
					<dim>8</dim>
					<dim>112</dim>
					<dim>112</dim>
					<dim>4</dim>
				</port>
				<port id="2" precision="FP32">
					<dim>1</dim>
					<dim>8</dim>
					<dim>112</dim>
					<dim>112</dim>
				</port>
			</input>
			<output>
				<port id="3" precision="FP32" names="255">
					<dim>1</dim>
					<dim>32</dim>
					<dim>112</dim>
					<dim>112</dim>
				</port>
			</output>
		</layer>
		<layer id="95" name="Div_100/Fused_Mul__copy" type="Const" version="opset1">
			<data element_type="f32" shape="32, 1, 1, 3, 3" offset="806472" size="1152"/>
			<output>
				<port id="0" precision="FP32" names="features.1.conv.0.0.weight">
					<dim>32</dim>
					<dim>1</dim>
					<dim>1</dim>
					<dim>3</dim>
					<dim>3</dim>
				</port>
			</output>
		</layer>
		<layer id="96" name="Conv_96" type="GroupConvolution" version="opset1">
			<data strides="1, 1" pads_begin="1, 1" pads_end="1, 1" dilations="1, 1" auto_pad="explicit"/>
			<input>
				<port id="0" precision="FP32">
					<dim>1</dim>
					<dim>32</dim>
					<dim>112</dim>
					<dim>112</dim>
				</port>
				<port id="1" precision="FP32">
					<dim>32</dim>
					<dim>1</dim>
					<dim>1</dim>
					<dim>3</dim>
					<dim>3</dim>
				</port>
			</input>
			<output>
				<port id="2" precision="FP32" names="262">
					<dim>1</dim>
					<dim>32</dim>
					<dim>112</dim>
					<dim>112</dim>
				</port>
			</output>
		</layer>
		<layer id="97" name="Clip_105" type="Clamp" version="opset1">
			<data min="0" max="6"/>
			<input>
				<port id="0" precision="FP32">
					<dim>1</dim>
					<dim>32</dim>
					<dim>112</dim>
					<dim>112</dim>
				</port>
			</input>
			<output>
				<port id="1" precision="FP32" names="265">
					<dim>1</dim>
					<dim>32</dim>
					<dim>112</dim>
					<dim>112</dim>
				</port>
			</output>
		</layer>
		<layer id="98" name="Div_110/Fused_Mul__copy" type="Const" version="opset1">
			<data element_type="f32" shape="16, 32, 1, 1" offset="807624" size="2048"/>
			<output>
				<port id="0" precision="FP32" names="features.1.conv.1.weight">
					<dim>16</dim>
					<dim>32</dim>
					<dim>1</dim>
					<dim>1</dim>
				</port>
			</output>
		</layer>
		<layer id="99" name="Conv_106" type="Convolution" version="opset1">
			<data strides="1, 1" dilations="1, 1" pads_begin="0, 0" pads_end="0, 0" auto_pad="explicit"/>
			<input>
				<port id="0" precision="FP32">
					<dim>1</dim>
					<dim>32</dim>
					<dim>112</dim>
					<dim>112</dim>
				</port>
				<port id="1" precision="FP32">
					<dim>16</dim>
					<dim>32</dim>
					<dim>1</dim>
					<dim>1</dim>
				</port>
			</input>
			<output>
				<port id="2" precision="FP32" names="272">
					<dim>1</dim>
					<dim>16</dim>
					<dim>112</dim>
					<dim>112</dim>
				</port>
			</output>
		</layer>
		<layer id="100" name="215468276" type="Const" version="opset1">
			<data element_type="i64" shape="1, 1, 1, 1" offset="3456" size="8"/>
			<output>
				<port id="0" precision="I64" names="2154">
					<dim>1</dim>
					<dim>1</dim>
					<dim>1</dim>
					<dim>1</dim>
				</port>
			</output>
		</layer>
		<layer id="101" name="2154" type="Const" version="opset1">
			<data element_type="i64" shape="1, 1, 1, 1" offset="3456" size="8"/>
			<output>
				<port id="0" precision="I64" names="2154">
					<dim>1</dim>
					<dim>1</dim>
					<dim>1</dim>
					<dim>1</dim>
				</port>
			</output>
		</layer>
		<layer id="102" name="Constant_127" type="Const" version="opset1">
			<data element_type="i64" shape="" offset="3456" size="8"/>
			<output>
				<port id="0" precision="I64" names="288"/>
			</output>
		</layer>
		<layer id="103" name="Shape_123" type="ShapeOf" version="opset3">
			<data output_type="i64"/>
			<input>
				<port id="0" precision="FP32">
					<dim>1</dim>
					<dim>16</dim>
					<dim>112</dim>
					<dim>112</dim>
				</port>
			</input>
			<output>
				<port id="1" precision="I64" names="284">
					<dim>4</dim>
				</port>
			</output>
		</layer>
		<layer id="104" name="Constant_124" type="Const" version="opset1">
			<data element_type="i32" shape="" offset="3464" size="4"/>
			<output>
				<port id="0" precision="I32" names="285"/>
			</output>
		</layer>
		<layer id="105" name="Gather_125/axis" type="Const" version="opset1">
			<data element_type="i64" shape="" offset="3456" size="8"/>
			<output>
				<port id="0" precision="I64"/>
			</output>
		</layer>
		<layer id="106" name="Gather_1252516" type="Gather" version="opset7">
			<data batch_dims="0"/>
			<input>
				<port id="0" precision="I64">
					<dim>4</dim>
				</port>
				<port id="1" precision="I32"/>
				<port id="2" precision="I64"/>
			</input>
			<output>
				<port id="3" precision="I64" names="286,287"/>
			</output>
		</layer>
		<layer id="107" name="Constant_128" type="Const" version="opset1">
			<data element_type="i64" shape="" offset="3468" size="8"/>
			<output>
				<port id="0" precision="I64" names="289"/>
			</output>
		</layer>
		<layer id="108" name="Range_129" type="Range" version="opset4">
			<data output_type="i64"/>
			<input>
				<port id="0" precision="I64"/>
				<port id="1" precision="I64"/>
				<port id="2" precision="I64"/>
			</input>
			<output>
				<port id="3" precision="I64" names="290">
					<dim>16</dim>
				</port>
			</output>
		</layer>
		<layer id="109" name="Slice_134/Concat2078167460" type="Const" version="opset1">
			<data element_type="i64" shape="1" offset="3456" size="8"/>
			<output>
				<port id="0" precision="I64">
					<dim>1</dim>
				</port>
			</output>
		</layer>
		<layer id="110" name="Slice_134/Concat207712078267130" type="Const" version="opset1">
			<data element_type="i64" shape="1" offset="3572" size="8"/>
			<output>
				<port id="0" precision="I64">
					<dim>1</dim>
				</port>
			</output>
		</layer>
		<layer id="111" name="Slice_134/Strides2078367040" type="Const" version="opset1">
			<data element_type="i64" shape="1" offset="3468" size="8"/>
			<output>
				<port id="0" precision="I64">
					<dim>1</dim>
				</port>
			</output>
		</layer>
		<layer id="112" name="Slice_134" type="StridedSlice" version="opset1">
			<data begin_mask="0" end_mask="0" new_axis_mask="0" shrink_axis_mask="0" ellipsis_mask="0"/>
			<input>
				<port id="0" precision="I64">
					<dim>16</dim>
				</port>
				<port id="1" precision="I64">
					<dim>1</dim>
				</port>
				<port id="2" precision="I64">
					<dim>1</dim>
				</port>
				<port id="3" precision="I64">
					<dim>1</dim>
				</port>
			</input>
			<output>
				<port id="4" precision="I64" names="295">
					<dim>4</dim>
				</port>
			</output>
		</layer>
		<layer id="113" name="Constant_149" type="Const" version="opset1">
			<data element_type="i64" shape="3" offset="3484" size="24"/>
			<output>
				<port id="0" precision="I64" names="312">
					<dim>3</dim>
				</port>
			</output>
		</layer>
		<layer id="114" name="Reshape_150" type="Reshape" version="opset1">
			<data special_zero="true"/>
			<input>
				<port id="0" precision="I64">
					<dim>4</dim>
				</port>
				<port id="1" precision="I64">
					<dim>3</dim>
				</port>
			</input>
			<output>
				<port id="2" precision="I64">
					<dim>4</dim>
					<dim>1</dim>
					<dim>1</dim>
				</port>
			</output>
		</layer>
		<layer id="115" name="Reshape_150/EltwiseUnsqueeze_input_port_1/value3396267043" type="Const" version="opset1">
			<data element_type="i64" shape="1" offset="3456" size="8"/>
			<output>
				<port id="0" precision="I64">
					<dim>1</dim>
				</port>
			</output>
		</layer>
		<layer id="116" name="Reshape_150/EltwiseUnsqueeze" type="Unsqueeze" version="opset1">
			<input>
				<port id="0" precision="I64">
					<dim>4</dim>
					<dim>1</dim>
					<dim>1</dim>
				</port>
				<port id="1" precision="I64">
					<dim>1</dim>
				</port>
			</input>
			<output>
				<port id="2" precision="I64" names="313">
					<dim>1</dim>
					<dim>4</dim>
					<dim>1</dim>
					<dim>1</dim>
				</port>
			</output>
		</layer>
		<layer id="117" name="Add_153" type="Add" version="opset1">
			<data auto_broadcast="numpy"/>
			<input>
				<port id="0" precision="I64">
					<dim>1</dim>
					<dim>1</dim>
					<dim>1</dim>
					<dim>1</dim>
				</port>
				<port id="1" precision="I64">
					<dim>1</dim>
					<dim>4</dim>
					<dim>1</dim>
					<dim>1</dim>
				</port>
			</input>
			<output>
				<port id="2" precision="I64" names="316">
					<dim>1</dim>
					<dim>4</dim>
					<dim>1</dim>
					<dim>1</dim>
				</port>
			</output>
		</layer>
		<layer id="118" name="Constant_139" type="Const" version="opset1">
			<data element_type="i64" shape="" offset="3456" size="8"/>
			<output>
				<port id="0" precision="I64" names="300"/>
			</output>
		</layer>
		<layer id="119" name="Shape_135" type="ShapeOf" version="opset3">
			<data output_type="i64"/>
			<input>
				<port id="0" precision="FP32">
					<dim>1</dim>
					<dim>16</dim>
					<dim>112</dim>
					<dim>112</dim>
				</port>
			</input>
			<output>
				<port id="1" precision="I64" names="296">
					<dim>4</dim>
				</port>
			</output>
		</layer>
		<layer id="120" name="Constant_136" type="Const" version="opset1">
			<data element_type="i32" shape="" offset="3508" size="4"/>
			<output>
				<port id="0" precision="I32" names="297"/>
			</output>
		</layer>
		<layer id="121" name="Gather_137/axis" type="Const" version="opset1">
			<data element_type="i64" shape="" offset="3456" size="8"/>
			<output>
				<port id="0" precision="I64"/>
			</output>
		</layer>
		<layer id="122" name="Gather_1372468" type="Gather" version="opset7">
			<data batch_dims="0"/>
			<input>
				<port id="0" precision="I64">
					<dim>4</dim>
				</port>
				<port id="1" precision="I32"/>
				<port id="2" precision="I64"/>
			</input>
			<output>
				<port id="3" precision="I64" names="298,299"/>
			</output>
		</layer>
		<layer id="123" name="Constant_140" type="Const" version="opset1">
			<data element_type="i64" shape="" offset="3468" size="8"/>
			<output>
				<port id="0" precision="I64" names="301"/>
			</output>
		</layer>
		<layer id="124" name="Range_141" type="Range" version="opset4">
			<data output_type="i64"/>
			<input>
				<port id="0" precision="I64"/>
				<port id="1" precision="I64"/>
				<port id="2" precision="I64"/>
			</input>
			<output>
				<port id="3" precision="I64" names="302">
					<dim>112</dim>
				</port>
			</output>
		</layer>
		<layer id="125" name="Constant_151" type="Const" version="opset1">
			<data element_type="i64" shape="2" offset="3512" size="16"/>
			<output>
				<port id="0" precision="I64" names="314">
					<dim>2</dim>
				</port>
			</output>
		</layer>
		<layer id="126" name="Reshape_152" type="Reshape" version="opset1">
			<data special_zero="true"/>
			<input>
				<port id="0" precision="I64">
					<dim>112</dim>
				</port>
				<port id="1" precision="I64">
					<dim>2</dim>
				</port>
			</input>
			<output>
				<port id="2" precision="I64">
					<dim>112</dim>
					<dim>1</dim>
				</port>
			</output>
		</layer>
		<layer id="127" name="Reshape_152/EltwiseUnsqueeze_input_port_1/value3396667580" type="Const" version="opset1">
			<data element_type="i64" shape="2" offset="3528" size="16"/>
			<output>
				<port id="0" precision="I64">
					<dim>2</dim>
				</port>
			</output>
		</layer>
		<layer id="128" name="Reshape_152/EltwiseUnsqueeze" type="Unsqueeze" version="opset1">
			<input>
				<port id="0" precision="I64">
					<dim>112</dim>
					<dim>1</dim>
				</port>
				<port id="1" precision="I64">
					<dim>2</dim>
				</port>
			</input>
			<output>
				<port id="2" precision="I64" names="315">
					<dim>1</dim>
					<dim>1</dim>
					<dim>112</dim>
					<dim>1</dim>
				</port>
			</output>
		</layer>
		<layer id="129" name="Add_154" type="Add" version="opset1">
			<data auto_broadcast="numpy"/>
			<input>
				<port id="0" precision="I64">
					<dim>1</dim>
					<dim>4</dim>
					<dim>1</dim>
					<dim>1</dim>
				</port>
				<port id="1" precision="I64">
					<dim>1</dim>
					<dim>1</dim>
					<dim>112</dim>
					<dim>1</dim>
				</port>
			</input>
			<output>
				<port id="2" precision="I64" names="317">
					<dim>1</dim>
					<dim>4</dim>
					<dim>112</dim>
					<dim>1</dim>
				</port>
			</output>
		</layer>
		<layer id="130" name="Constant_146" type="Const" version="opset1">
			<data element_type="i64" shape="" offset="3456" size="8"/>
			<output>
				<port id="0" precision="I64" names="307"/>
			</output>
		</layer>
		<layer id="131" name="Shape_142" type="ShapeOf" version="opset3">
			<data output_type="i64"/>
			<input>
				<port id="0" precision="FP32">
					<dim>1</dim>
					<dim>16</dim>
					<dim>112</dim>
					<dim>112</dim>
				</port>
			</input>
			<output>
				<port id="1" precision="I64" names="303">
					<dim>4</dim>
				</port>
			</output>
		</layer>
		<layer id="132" name="Constant_143" type="Const" version="opset1">
			<data element_type="i32" shape="" offset="3544" size="4"/>
			<output>
				<port id="0" precision="I32" names="304"/>
			</output>
		</layer>
		<layer id="133" name="Gather_144/axis" type="Const" version="opset1">
			<data element_type="i64" shape="" offset="3456" size="8"/>
			<output>
				<port id="0" precision="I64"/>
			</output>
		</layer>
		<layer id="134" name="Gather_1442448" type="Gather" version="opset7">
			<data batch_dims="0"/>
			<input>
				<port id="0" precision="I64">
					<dim>4</dim>
				</port>
				<port id="1" precision="I32"/>
				<port id="2" precision="I64"/>
			</input>
			<output>
				<port id="3" precision="I64" names="305,306"/>
			</output>
		</layer>
		<layer id="135" name="Constant_147" type="Const" version="opset1">
			<data element_type="i64" shape="" offset="3468" size="8"/>
			<output>
				<port id="0" precision="I64" names="308"/>
			</output>
		</layer>
		<layer id="136" name="Range_148" type="Range" version="opset4">
			<data output_type="i64"/>
			<input>
				<port id="0" precision="I64"/>
				<port id="1" precision="I64"/>
				<port id="2" precision="I64"/>
			</input>
			<output>
				<port id="3" precision="I64">
					<dim>112</dim>
				</port>
			</output>
		</layer>
		<layer id="137" name="Range_148/EltwiseUnsqueeze_input_port_1/value3397068048" type="Const" version="opset1">
			<data element_type="i64" shape="3" offset="3548" size="24"/>
			<output>
				<port id="0" precision="I64">
					<dim>3</dim>
				</port>
			</output>
		</layer>
		<layer id="138" name="Range_148/EltwiseUnsqueeze" type="Unsqueeze" version="opset1">
			<input>
				<port id="0" precision="I64">
					<dim>112</dim>
				</port>
				<port id="1" precision="I64">
					<dim>3</dim>
				</port>
			</input>
			<output>
				<port id="2" precision="I64" names="309">
					<dim>1</dim>
					<dim>1</dim>
					<dim>1</dim>
					<dim>112</dim>
				</port>
			</output>
		</layer>
		<layer id="139" name="Add_155" type="Add" version="opset1">
			<data auto_broadcast="numpy"/>
			<input>
				<port id="0" precision="I64">
					<dim>1</dim>
					<dim>4</dim>
					<dim>112</dim>
					<dim>1</dim>
				</port>
				<port id="1" precision="I64">
					<dim>1</dim>
					<dim>1</dim>
					<dim>1</dim>
					<dim>112</dim>
				</port>
			</input>
			<output>
				<port id="2" precision="I64" names="318">
					<dim>1</dim>
					<dim>4</dim>
					<dim>112</dim>
					<dim>112</dim>
				</port>
			</output>
		</layer>
		<layer id="140" name="Shape_156" type="ShapeOf" version="opset3">
			<data output_type="i64"/>
			<input>
				<port id="0" precision="I64">
					<dim>1</dim>
					<dim>4</dim>
					<dim>112</dim>
					<dim>112</dim>
				</port>
			</input>
			<output>
				<port id="1" precision="I64" names="319,358">
					<dim>4</dim>
				</port>
			</output>
		</layer>
		<layer id="141" name="ConstantOfShape_158/Broadcast/FillValue" type="Const" version="opset1">
			<data element_type="i64" shape="1" offset="3468" size="8"/>
			<output>
				<port id="0" precision="I64">
					<dim>1</dim>
				</port>
			</output>
		</layer>
		<layer id="142" name="Shape_157" type="ShapeOf" version="opset3">
			<data output_type="i64"/>
			<input>
				<port id="0" precision="I64">
					<dim>4</dim>
				</port>
			</input>
			<output>
				<port id="1" precision="I64" names="320">
					<dim>1</dim>
				</port>
			</output>
		</layer>
		<layer id="143" name="ConstantOfShape_158/Broadcast" type="Broadcast" version="opset3">
			<data mode="numpy"/>
			<input>
				<port id="0" precision="I64">
					<dim>1</dim>
				</port>
				<port id="1" precision="I64">
					<dim>1</dim>
				</port>
			</input>
			<output>
				<port id="2" precision="I64" names="321">
					<dim>4</dim>
				</port>
			</output>
		</layer>
		<layer id="144" name="Mul_160/Negate" type="Negative" version="opset1">
			<input>
				<port id="0" precision="I64">
					<dim>4</dim>
				</port>
			</input>
			<output>
				<port id="1" precision="I64" names="323">
					<dim>4</dim>
				</port>
			</output>
		</layer>
		<layer id="145" name="Equal_161" type="Equal" version="opset1">
			<input>
				<port id="0" precision="I64">
					<dim>4</dim>
				</port>
				<port id="1" precision="I64">
					<dim>4</dim>
				</port>
			</input>
			<output>
				<port id="2" precision="BOOL" names="324">
					<dim>4</dim>
				</port>
			</output>
		</layer>
		<layer id="146" name="Where_162" type="Select" version="opset1">
			<data auto_broadcast="numpy"/>
			<input>
				<port id="0" precision="BOOL">
					<dim>4</dim>
				</port>
				<port id="1" precision="I64">
					<dim>4</dim>
				</port>
				<port id="2" precision="I64">
					<dim>4</dim>
				</port>
			</input>
			<output>
				<port id="3" precision="I64" names="325">
					<dim>4</dim>
				</port>
			</output>
		</layer>
		<layer id="147" name="Expand_163" type="Broadcast" version="opset3">
			<data mode="bidirectional"/>
			<input>
				<port id="0" precision="I64">
					<dim>1</dim>
					<dim>1</dim>
					<dim>1</dim>
					<dim>1</dim>
				</port>
				<port id="1" precision="I64">
					<dim>4</dim>
				</port>
			</input>
			<output>
				<port id="2" precision="I64" names="326">
					<dim>1</dim>
					<dim>4</dim>
					<dim>112</dim>
					<dim>112</dim>
				</port>
			</output>
		</layer>
		<layer id="148" name="Unsqueeze_164/Dims" type="Const" version="opset1">
			<data element_type="i64" shape="1" offset="3572" size="8"/>
			<output>
				<port id="0" precision="I64">
					<dim>1</dim>
				</port>
			</output>
		</layer>
		<layer id="149" name="Unsqueeze_164/Unsqueeze" type="Unsqueeze" version="opset1">
			<input>
				<port id="0" precision="I64">
					<dim>1</dim>
					<dim>4</dim>
					<dim>112</dim>
					<dim>112</dim>
				</port>
				<port id="1" precision="I64">
					<dim>1</dim>
				</port>
			</input>
			<output>
				<port id="2" precision="I64" names="327">
					<dim>1</dim>
					<dim>4</dim>
					<dim>112</dim>
					<dim>112</dim>
					<dim>1</dim>
				</port>
			</output>
		</layer>
		<layer id="150" name="ConstantOfShape_166/Broadcast/FillValue" type="Const" version="opset1">
			<data element_type="i64" shape="1" offset="3468" size="8"/>
			<output>
				<port id="0" precision="I64">
					<dim>1</dim>
				</port>
			</output>
		</layer>
		<layer id="151" name="Shape_165" type="ShapeOf" version="opset3">
			<data output_type="i64"/>
			<input>
				<port id="0" precision="I64">
					<dim>4</dim>
				</port>
			</input>
			<output>
				<port id="1" precision="I64" names="328">
					<dim>1</dim>
				</port>
			</output>
		</layer>
		<layer id="152" name="ConstantOfShape_166/Broadcast" type="Broadcast" version="opset3">
			<data mode="numpy"/>
			<input>
				<port id="0" precision="I64">
					<dim>1</dim>
				</port>
				<port id="1" precision="I64">
					<dim>1</dim>
				</port>
			</input>
			<output>
				<port id="2" precision="I64" names="329">
					<dim>4</dim>
				</port>
			</output>
		</layer>
		<layer id="153" name="Mul_168/Negate" type="Negative" version="opset1">
			<input>
				<port id="0" precision="I64">
					<dim>4</dim>
				</port>
			</input>
			<output>
				<port id="1" precision="I64" names="331">
					<dim>4</dim>
				</port>
			</output>
		</layer>
		<layer id="154" name="Equal_169" type="Equal" version="opset1">
			<input>
				<port id="0" precision="I64">
					<dim>4</dim>
				</port>
				<port id="1" precision="I64">
					<dim>4</dim>
				</port>
			</input>
			<output>
				<port id="2" precision="BOOL" names="332">
					<dim>4</dim>
				</port>
			</output>
		</layer>
		<layer id="155" name="Where_170" type="Select" version="opset1">
			<data auto_broadcast="numpy"/>
			<input>
				<port id="0" precision="BOOL">
					<dim>4</dim>
				</port>
				<port id="1" precision="I64">
					<dim>4</dim>
				</port>
				<port id="2" precision="I64">
					<dim>4</dim>
				</port>
			</input>
			<output>
				<port id="3" precision="I64" names="333">
					<dim>4</dim>
				</port>
			</output>
		</layer>
		<layer id="156" name="Expand_171" type="Broadcast" version="opset3">
			<data mode="bidirectional"/>
			<input>
				<port id="0" precision="I64">
					<dim>4</dim>
					<dim>1</dim>
					<dim>1</dim>
				</port>
				<port id="1" precision="I64">
					<dim>4</dim>
				</port>
			</input>
			<output>
				<port id="2" precision="I64" names="334">
					<dim>1</dim>
					<dim>4</dim>
					<dim>112</dim>
					<dim>112</dim>
				</port>
			</output>
		</layer>
		<layer id="157" name="Unsqueeze_172/Dims" type="Const" version="opset1">
			<data element_type="i64" shape="1" offset="3572" size="8"/>
			<output>
				<port id="0" precision="I64">
					<dim>1</dim>
				</port>
			</output>
		</layer>
		<layer id="158" name="Unsqueeze_172/Unsqueeze" type="Unsqueeze" version="opset1">
			<input>
				<port id="0" precision="I64">
					<dim>1</dim>
					<dim>4</dim>
					<dim>112</dim>
					<dim>112</dim>
				</port>
				<port id="1" precision="I64">
					<dim>1</dim>
				</port>
			</input>
			<output>
				<port id="2" precision="I64" names="335">
					<dim>1</dim>
					<dim>4</dim>
					<dim>112</dim>
					<dim>112</dim>
					<dim>1</dim>
				</port>
			</output>
		</layer>
		<layer id="159" name="ConstantOfShape_174/Broadcast/FillValue" type="Const" version="opset1">
			<data element_type="i64" shape="1" offset="3468" size="8"/>
			<output>
				<port id="0" precision="I64">
					<dim>1</dim>
				</port>
			</output>
		</layer>
		<layer id="160" name="Shape_173" type="ShapeOf" version="opset3">
			<data output_type="i64"/>
			<input>
				<port id="0" precision="I64">
					<dim>4</dim>
				</port>
			</input>
			<output>
				<port id="1" precision="I64" names="336">
					<dim>1</dim>
				</port>
			</output>
		</layer>
		<layer id="161" name="ConstantOfShape_174/Broadcast" type="Broadcast" version="opset3">
			<data mode="numpy"/>
			<input>
				<port id="0" precision="I64">
					<dim>1</dim>
				</port>
				<port id="1" precision="I64">
					<dim>1</dim>
				</port>
			</input>
			<output>
				<port id="2" precision="I64" names="337">
					<dim>4</dim>
				</port>
			</output>
		</layer>
		<layer id="162" name="Mul_176/Negate" type="Negative" version="opset1">
			<input>
				<port id="0" precision="I64">
					<dim>4</dim>
				</port>
			</input>
			<output>
				<port id="1" precision="I64" names="339">
					<dim>4</dim>
				</port>
			</output>
		</layer>
		<layer id="163" name="Equal_177" type="Equal" version="opset1">
			<input>
				<port id="0" precision="I64">
					<dim>4</dim>
				</port>
				<port id="1" precision="I64">
					<dim>4</dim>
				</port>
			</input>
			<output>
				<port id="2" precision="BOOL" names="340">
					<dim>4</dim>
				</port>
			</output>
		</layer>
		<layer id="164" name="Where_178" type="Select" version="opset1">
			<data auto_broadcast="numpy"/>
			<input>
				<port id="0" precision="BOOL">
					<dim>4</dim>
				</port>
				<port id="1" precision="I64">
					<dim>4</dim>
				</port>
				<port id="2" precision="I64">
					<dim>4</dim>
				</port>
			</input>
			<output>
				<port id="3" precision="I64" names="341">
					<dim>4</dim>
				</port>
			</output>
		</layer>
		<layer id="165" name="Expand_179" type="Broadcast" version="opset3">
			<data mode="bidirectional"/>
			<input>
				<port id="0" precision="I64">
					<dim>112</dim>
					<dim>1</dim>
				</port>
				<port id="1" precision="I64">
					<dim>4</dim>
				</port>
			</input>
			<output>
				<port id="2" precision="I64" names="342">
					<dim>1</dim>
					<dim>4</dim>
					<dim>112</dim>
					<dim>112</dim>
				</port>
			</output>
		</layer>
		<layer id="166" name="Unsqueeze_180/Dims" type="Const" version="opset1">
			<data element_type="i64" shape="1" offset="3572" size="8"/>
			<output>
				<port id="0" precision="I64">
					<dim>1</dim>
				</port>
			</output>
		</layer>
		<layer id="167" name="Unsqueeze_180/Unsqueeze" type="Unsqueeze" version="opset1">
			<input>
				<port id="0" precision="I64">
					<dim>1</dim>
					<dim>4</dim>
					<dim>112</dim>
					<dim>112</dim>
				</port>
				<port id="1" precision="I64">
					<dim>1</dim>
				</port>
			</input>
			<output>
				<port id="2" precision="I64" names="343">
					<dim>1</dim>
					<dim>4</dim>
					<dim>112</dim>
					<dim>112</dim>
					<dim>1</dim>
				</port>
			</output>
		</layer>
		<layer id="168" name="ConstantOfShape_182/Broadcast/FillValue" type="Const" version="opset1">
			<data element_type="i64" shape="1" offset="3468" size="8"/>
			<output>
				<port id="0" precision="I64">
					<dim>1</dim>
				</port>
			</output>
		</layer>
		<layer id="169" name="Shape_181" type="ShapeOf" version="opset3">
			<data output_type="i64"/>
			<input>
				<port id="0" precision="I64">
					<dim>4</dim>
				</port>
			</input>
			<output>
				<port id="1" precision="I64" names="344">
					<dim>1</dim>
				</port>
			</output>
		</layer>
		<layer id="170" name="ConstantOfShape_182/Broadcast" type="Broadcast" version="opset3">
			<data mode="numpy"/>
			<input>
				<port id="0" precision="I64">
					<dim>1</dim>
				</port>
				<port id="1" precision="I64">
					<dim>1</dim>
				</port>
			</input>
			<output>
				<port id="2" precision="I64" names="345">
					<dim>4</dim>
				</port>
			</output>
		</layer>
		<layer id="171" name="Mul_184/Negate" type="Negative" version="opset1">
			<input>
				<port id="0" precision="I64">
					<dim>4</dim>
				</port>
			</input>
			<output>
				<port id="1" precision="I64" names="347">
					<dim>4</dim>
				</port>
			</output>
		</layer>
		<layer id="172" name="Equal_185" type="Equal" version="opset1">
			<input>
				<port id="0" precision="I64">
					<dim>4</dim>
				</port>
				<port id="1" precision="I64">
					<dim>4</dim>
				</port>
			</input>
			<output>
				<port id="2" precision="BOOL" names="348">
					<dim>4</dim>
				</port>
			</output>
		</layer>
		<layer id="173" name="Where_186" type="Select" version="opset1">
			<data auto_broadcast="numpy"/>
			<input>
				<port id="0" precision="BOOL">
					<dim>4</dim>
				</port>
				<port id="1" precision="I64">
					<dim>4</dim>
				</port>
				<port id="2" precision="I64">
					<dim>4</dim>
				</port>
			</input>
			<output>
				<port id="3" precision="I64" names="349">
					<dim>4</dim>
				</port>
			</output>
		</layer>
		<layer id="174" name="Expand_187" type="Broadcast" version="opset3">
			<data mode="bidirectional"/>
			<input>
				<port id="0" precision="I64">
					<dim>112</dim>
				</port>
				<port id="1" precision="I64">
					<dim>4</dim>
				</port>
			</input>
			<output>
				<port id="2" precision="I64" names="350">
					<dim>1</dim>
					<dim>4</dim>
					<dim>112</dim>
					<dim>112</dim>
				</port>
			</output>
		</layer>
		<layer id="175" name="Unsqueeze_188/Dims" type="Const" version="opset1">
			<data element_type="i64" shape="1" offset="3572" size="8"/>
			<output>
				<port id="0" precision="I64">
					<dim>1</dim>
				</port>
			</output>
		</layer>
		<layer id="176" name="Unsqueeze_188/Unsqueeze" type="Unsqueeze" version="opset1">
			<input>
				<port id="0" precision="I64">
					<dim>1</dim>
					<dim>4</dim>
					<dim>112</dim>
					<dim>112</dim>
				</port>
				<port id="1" precision="I64">
					<dim>1</dim>
				</port>
			</input>
			<output>
				<port id="2" precision="I64" names="351">
					<dim>1</dim>
					<dim>4</dim>
					<dim>112</dim>
					<dim>112</dim>
					<dim>1</dim>
				</port>
			</output>
		</layer>
		<layer id="177" name="Concat_189" type="Concat" version="opset1">
			<data axis="4"/>
			<input>
				<port id="0" precision="I64">
					<dim>1</dim>
					<dim>4</dim>
					<dim>112</dim>
					<dim>112</dim>
					<dim>1</dim>
				</port>
				<port id="1" precision="I64">
					<dim>1</dim>
					<dim>4</dim>
					<dim>112</dim>
					<dim>112</dim>
					<dim>1</dim>
				</port>
				<port id="2" precision="I64">
					<dim>1</dim>
					<dim>4</dim>
					<dim>112</dim>
					<dim>112</dim>
					<dim>1</dim>
				</port>
				<port id="3" precision="I64">
					<dim>1</dim>
					<dim>4</dim>
					<dim>112</dim>
					<dim>112</dim>
					<dim>1</dim>
				</port>
			</input>
			<output>
				<port id="4" precision="I64" names="352">
					<dim>1</dim>
					<dim>4</dim>
					<dim>112</dim>
					<dim>112</dim>
					<dim>4</dim>
				</port>
			</output>
		</layer>
		<layer id="178" name="Constant_120" type="Const" version="opset1">
			<data element_type="i64" shape="4, 112, 112" offset="809672" size="401408"/>
			<output>
				<port id="0" precision="I64" names="280">
					<dim>4</dim>
					<dim>112</dim>
					<dim>112</dim>
				</port>
			</output>
		</layer>
		<layer id="179" name="Constant_113" type="Const" version="opset1">
			<data element_type="i32" shape="" offset="806396" size="4"/>
			<output>
				<port id="0" precision="I32" names="273"/>
			</output>
		</layer>
		<layer id="180" name="Gather_114/axis" type="Const" version="opset1">
			<data element_type="i64" shape="" offset="3456" size="8"/>
			<output>
				<port id="0" precision="I64"/>
			</output>
		</layer>
		<layer id="181" name="Gather_1142434" type="Gather" version="opset7">
			<data batch_dims="0"/>
			<input>
				<port id="0" precision="FP32">
					<dim>1</dim>
					<dim>16</dim>
					<dim>112</dim>
					<dim>112</dim>
				</port>
				<port id="1" precision="I32"/>
				<port id="2" precision="I64"/>
			</input>
			<output>
				<port id="3" precision="FP32" names="274">
					<dim>16</dim>
					<dim>112</dim>
					<dim>112</dim>
				</port>
			</output>
		</layer>
		<layer id="182" name="Slice_119/Concat2074568426" type="Const" version="opset1">
			<data element_type="i64" shape="3" offset="806400" size="24"/>
			<output>
				<port id="0" precision="I64">
					<dim>3</dim>
				</port>
			</output>
		</layer>
		<layer id="183" name="Slice_119/Concat207312074667322" type="Const" version="opset1">
			<data element_type="i64" shape="3" offset="1211080" size="24"/>
			<output>
				<port id="0" precision="I64">
					<dim>3</dim>
				</port>
			</output>
		</layer>
		<layer id="184" name="Slice_119/Strides2074767931" type="Const" version="opset1">
			<data element_type="i64" shape="3" offset="806448" size="24"/>
			<output>
				<port id="0" precision="I64">
					<dim>3</dim>
				</port>
			</output>
		</layer>
		<layer id="185" name="Slice_119" type="StridedSlice" version="opset1">
			<data begin_mask="0, 1, 1" end_mask="0, 1, 1" new_axis_mask="0, 0, 0" shrink_axis_mask="0, 0, 0" ellipsis_mask="0, 0, 0"/>
			<input>
				<port id="0" precision="FP32">
					<dim>16</dim>
					<dim>112</dim>
					<dim>112</dim>
				</port>
				<port id="1" precision="I64">
					<dim>3</dim>
				</port>
				<port id="2" precision="I64">
					<dim>3</dim>
				</port>
				<port id="3" precision="I64">
					<dim>3</dim>
				</port>
			</input>
			<output>
				<port id="4" precision="FP32" names="279">
					<dim>4</dim>
					<dim>112</dim>
					<dim>112</dim>
				</port>
			</output>
		</layer>
		<layer id="186" name="Shape_121" type="ShapeOf" version="opset3">
			<data output_type="i64"/>
			<input>
				<port id="0" precision="FP32">
					<dim>4</dim>
					<dim>112</dim>
					<dim>112</dim>
				</port>
			</input>
			<output>
				<port id="1" precision="I64" names="281">
					<dim>3</dim>
				</port>
			</output>
		</layer>
		<layer id="187" name="Expand_122" type="Broadcast" version="opset3">
			<data mode="bidirectional"/>
			<input>
				<port id="0" precision="I64">
					<dim>4</dim>
					<dim>112</dim>
					<dim>112</dim>
				</port>
				<port id="1" precision="I64">
					<dim>3</dim>
				</port>
			</input>
			<output>
				<port id="2" precision="I64" names="282">
					<dim>4</dim>
					<dim>112</dim>
					<dim>112</dim>
				</port>
			</output>
		</layer>
		<layer id="188" name="Reshape_196" type="Reshape" version="opset1">
			<data special_zero="true"/>
			<input>
				<port id="0" precision="I64">
					<dim>4</dim>
					<dim>112</dim>
					<dim>112</dim>
				</port>
				<port id="1" precision="I64">
					<dim>4</dim>
				</port>
			</input>
			<output>
				<port id="2" precision="I64" names="359">
					<dim>1</dim>
					<dim>4</dim>
					<dim>112</dim>
					<dim>112</dim>
				</port>
			</output>
		</layer>
		<layer id="189" name="Cast_197" type="Convert" version="opset1">
			<data destination_type="f32"/>
			<input>
				<port id="0" precision="I64">
					<dim>1</dim>
					<dim>4</dim>
					<dim>112</dim>
					<dim>112</dim>
				</port>
			</input>
			<output>
				<port id="1" precision="FP32" names="360">
					<dim>1</dim>
					<dim>4</dim>
					<dim>112</dim>
					<dim>112</dim>
				</port>
			</output>
		</layer>
		<layer id="190" name="ScatterND_198" type="ScatterNDUpdate" version="opset4">
			<input>
				<port id="0" precision="FP32">
					<dim>1</dim>
					<dim>16</dim>
					<dim>112</dim>
					<dim>112</dim>
				</port>
				<port id="1" precision="I64">
					<dim>1</dim>
					<dim>4</dim>
					<dim>112</dim>
					<dim>112</dim>
					<dim>4</dim>
				</port>
				<port id="2" precision="FP32">
					<dim>1</dim>
					<dim>4</dim>
					<dim>112</dim>
					<dim>112</dim>
				</port>
			</input>
			<output>
				<port id="3" precision="FP32" names="361">
					<dim>1</dim>
					<dim>16</dim>
					<dim>112</dim>
					<dim>112</dim>
				</port>
			</output>
		</layer>
		<layer id="191" name="Div_203/Fused_Mul__copy" type="Const" version="opset1">
			<data element_type="f32" shape="96, 16, 1, 1" offset="1211104" size="6144"/>
			<output>
				<port id="0" precision="FP32" names="features.2.conv.0.0.weight">
					<dim>96</dim>
					<dim>16</dim>
					<dim>1</dim>
					<dim>1</dim>
				</port>
			</output>
		</layer>
		<layer id="192" name="Conv_199" type="Convolution" version="opset1">
			<data strides="1, 1" dilations="1, 1" pads_begin="0, 0" pads_end="0, 0" auto_pad="explicit"/>
			<input>
				<port id="0" precision="FP32">
					<dim>1</dim>
					<dim>16</dim>
					<dim>112</dim>
					<dim>112</dim>
				</port>
				<port id="1" precision="FP32">
					<dim>96</dim>
					<dim>16</dim>
					<dim>1</dim>
					<dim>1</dim>
				</port>
			</input>
			<output>
				<port id="2" precision="FP32" names="368">
					<dim>1</dim>
					<dim>96</dim>
					<dim>112</dim>
					<dim>112</dim>
				</port>
			</output>
		</layer>
		<layer id="193" name="Clip_208" type="Clamp" version="opset1">
			<data min="0" max="6"/>
			<input>
				<port id="0" precision="FP32">
					<dim>1</dim>
					<dim>96</dim>
					<dim>112</dim>
					<dim>112</dim>
				</port>
			</input>
			<output>
				<port id="1" precision="FP32" names="371">
					<dim>1</dim>
					<dim>96</dim>
					<dim>112</dim>
					<dim>112</dim>
				</port>
			</output>
		</layer>
		<layer id="194" name="Div_213/Fused_Mul__copy" type="Const" version="opset1">
			<data element_type="f32" shape="96, 1, 1, 3, 3" offset="1217248" size="3456"/>
			<output>
				<port id="0" precision="FP32" names="features.2.conv.1.0.weight">
					<dim>96</dim>
					<dim>1</dim>
					<dim>1</dim>
					<dim>3</dim>
					<dim>3</dim>
				</port>
			</output>
		</layer>
		<layer id="195" name="Conv_209" type="GroupConvolution" version="opset1">
			<data strides="2, 2" pads_begin="1, 1" pads_end="1, 1" dilations="1, 1" auto_pad="explicit"/>
			<input>
				<port id="0" precision="FP32">
					<dim>1</dim>
					<dim>96</dim>
					<dim>112</dim>
					<dim>112</dim>
				</port>
				<port id="1" precision="FP32">
					<dim>96</dim>
					<dim>1</dim>
					<dim>1</dim>
					<dim>3</dim>
					<dim>3</dim>
				</port>
			</input>
			<output>
				<port id="2" precision="FP32" names="378">
					<dim>1</dim>
					<dim>96</dim>
					<dim>56</dim>
					<dim>56</dim>
				</port>
			</output>
		</layer>
		<layer id="196" name="Clip_218" type="Clamp" version="opset1">
			<data min="0" max="6"/>
			<input>
				<port id="0" precision="FP32">
					<dim>1</dim>
					<dim>96</dim>
					<dim>56</dim>
					<dim>56</dim>
				</port>
			</input>
			<output>
				<port id="1" precision="FP32" names="381">
					<dim>1</dim>
					<dim>96</dim>
					<dim>56</dim>
					<dim>56</dim>
				</port>
			</output>
		</layer>
		<layer id="197" name="Div_223/Fused_Mul__copy" type="Const" version="opset1">
			<data element_type="f32" shape="24, 96, 1, 1" offset="1220704" size="9216"/>
			<output>
				<port id="0" precision="FP32" names="features.2.conv.2.weight">
					<dim>24</dim>
					<dim>96</dim>
					<dim>1</dim>
					<dim>1</dim>
				</port>
			</output>
		</layer>
		<layer id="198" name="Conv_219" type="Convolution" version="opset1">
			<data strides="1, 1" dilations="1, 1" pads_begin="0, 0" pads_end="0, 0" auto_pad="explicit"/>
			<input>
				<port id="0" precision="FP32">
					<dim>1</dim>
					<dim>96</dim>
					<dim>56</dim>
					<dim>56</dim>
				</port>
				<port id="1" precision="FP32">
					<dim>24</dim>
					<dim>96</dim>
					<dim>1</dim>
					<dim>1</dim>
				</port>
			</input>
			<output>
				<port id="2" precision="FP32" names="388">
					<dim>1</dim>
					<dim>24</dim>
					<dim>56</dim>
					<dim>56</dim>
				</port>
			</output>
		</layer>
		<layer id="199" name="2156" type="Const" version="opset1">
			<data element_type="i64" shape="1, 1, 1, 1" offset="3456" size="8"/>
			<output>
				<port id="0" precision="I64" names="2156">
					<dim>1</dim>
					<dim>1</dim>
					<dim>1</dim>
					<dim>1</dim>
				</port>
			</output>
		</layer>
		<layer id="200" name="215667151" type="Const" version="opset1">
			<data element_type="i64" shape="1, 1, 1, 1" offset="3456" size="8"/>
			<output>
				<port id="0" precision="I64" names="2156">
					<dim>1</dim>
					<dim>1</dim>
					<dim>1</dim>
					<dim>1</dim>
				</port>
			</output>
		</layer>
		<layer id="201" name="Constant_240" type="Const" version="opset1">
			<data element_type="i64" shape="" offset="3456" size="8"/>
			<output>
				<port id="0" precision="I64" names="404"/>
			</output>
		</layer>
		<layer id="202" name="Shape_236" type="ShapeOf" version="opset3">
			<data output_type="i64"/>
			<input>
				<port id="0" precision="FP32">
					<dim>1</dim>
					<dim>24</dim>
					<dim>56</dim>
					<dim>56</dim>
				</port>
			</input>
			<output>
				<port id="1" precision="I64" names="400">
					<dim>4</dim>
				</port>
			</output>
		</layer>
		<layer id="203" name="Constant_237" type="Const" version="opset1">
			<data element_type="i32" shape="" offset="3464" size="4"/>
			<output>
				<port id="0" precision="I32" names="401"/>
			</output>
		</layer>
		<layer id="204" name="Gather_238/axis" type="Const" version="opset1">
			<data element_type="i64" shape="" offset="3456" size="8"/>
			<output>
				<port id="0" precision="I64"/>
			</output>
		</layer>
		<layer id="205" name="Gather_2382418" type="Gather" version="opset7">
			<data batch_dims="0"/>
			<input>
				<port id="0" precision="I64">
					<dim>4</dim>
				</port>
				<port id="1" precision="I32"/>
				<port id="2" precision="I64"/>
			</input>
			<output>
				<port id="3" precision="I64" names="402,403"/>
			</output>
		</layer>
		<layer id="206" name="Constant_241" type="Const" version="opset1">
			<data element_type="i64" shape="" offset="3468" size="8"/>
			<output>
				<port id="0" precision="I64" names="405"/>
			</output>
		</layer>
		<layer id="207" name="Range_242" type="Range" version="opset4">
			<data output_type="i64"/>
			<input>
				<port id="0" precision="I64"/>
				<port id="1" precision="I64"/>
				<port id="2" precision="I64"/>
			</input>
			<output>
				<port id="3" precision="I64" names="406">
					<dim>24</dim>
				</port>
			</output>
		</layer>
		<layer id="208" name="Slice_247/Concat2089768222" type="Const" version="opset1">
			<data element_type="i64" shape="1" offset="3456" size="8"/>
			<output>
				<port id="0" precision="I64">
					<dim>1</dim>
				</port>
			</output>
		</layer>
		<layer id="209" name="Slice_247/Concat208872089867283" type="Const" version="opset1">
			<data element_type="i64" shape="1" offset="1229920" size="8"/>
			<output>
				<port id="0" precision="I64">
					<dim>1</dim>
				</port>
			</output>
		</layer>
		<layer id="210" name="Slice_247/Strides2089967835" type="Const" version="opset1">
			<data element_type="i64" shape="1" offset="3468" size="8"/>
			<output>
				<port id="0" precision="I64">
					<dim>1</dim>
				</port>
			</output>
		</layer>
		<layer id="211" name="Slice_247" type="StridedSlice" version="opset1">
			<data begin_mask="0" end_mask="0" new_axis_mask="0" shrink_axis_mask="0" ellipsis_mask="0"/>
			<input>
				<port id="0" precision="I64">
					<dim>24</dim>
				</port>
				<port id="1" precision="I64">
					<dim>1</dim>
				</port>
				<port id="2" precision="I64">
					<dim>1</dim>
				</port>
				<port id="3" precision="I64">
					<dim>1</dim>
				</port>
			</input>
			<output>
				<port id="4" precision="I64" names="411">
					<dim>6</dim>
				</port>
			</output>
		</layer>
		<layer id="212" name="Constant_262" type="Const" version="opset1">
			<data element_type="i64" shape="3" offset="3484" size="24"/>
			<output>
				<port id="0" precision="I64" names="428">
					<dim>3</dim>
				</port>
			</output>
		</layer>
		<layer id="213" name="Reshape_263" type="Reshape" version="opset1">
			<data special_zero="true"/>
			<input>
				<port id="0" precision="I64">
					<dim>6</dim>
				</port>
				<port id="1" precision="I64">
					<dim>3</dim>
				</port>
			</input>
			<output>
				<port id="2" precision="I64">
					<dim>6</dim>
					<dim>1</dim>
					<dim>1</dim>
				</port>
			</output>
		</layer>
		<layer id="214" name="Reshape_263/EltwiseUnsqueeze_input_port_1/value3399068141" type="Const" version="opset1">
			<data element_type="i64" shape="1" offset="3456" size="8"/>
			<output>
				<port id="0" precision="I64">
					<dim>1</dim>
				</port>
			</output>
		</layer>
		<layer id="215" name="Reshape_263/EltwiseUnsqueeze" type="Unsqueeze" version="opset1">
			<input>
				<port id="0" precision="I64">
					<dim>6</dim>
					<dim>1</dim>
					<dim>1</dim>
				</port>
				<port id="1" precision="I64">
					<dim>1</dim>
				</port>
			</input>
			<output>
				<port id="2" precision="I64" names="429">
					<dim>1</dim>
					<dim>6</dim>
					<dim>1</dim>
					<dim>1</dim>
				</port>
			</output>
		</layer>
		<layer id="216" name="Add_266" type="Add" version="opset1">
			<data auto_broadcast="numpy"/>
			<input>
				<port id="0" precision="I64">
					<dim>1</dim>
					<dim>1</dim>
					<dim>1</dim>
					<dim>1</dim>
				</port>
				<port id="1" precision="I64">
					<dim>1</dim>
					<dim>6</dim>
					<dim>1</dim>
					<dim>1</dim>
				</port>
			</input>
			<output>
				<port id="2" precision="I64" names="432">
					<dim>1</dim>
					<dim>6</dim>
					<dim>1</dim>
					<dim>1</dim>
				</port>
			</output>
		</layer>
		<layer id="217" name="Constant_252" type="Const" version="opset1">
			<data element_type="i64" shape="" offset="3456" size="8"/>
			<output>
				<port id="0" precision="I64" names="416"/>
			</output>
		</layer>
		<layer id="218" name="Shape_248" type="ShapeOf" version="opset3">
			<data output_type="i64"/>
			<input>
				<port id="0" precision="FP32">
					<dim>1</dim>
					<dim>24</dim>
					<dim>56</dim>
					<dim>56</dim>
				</port>
			</input>
			<output>
				<port id="1" precision="I64" names="412">
					<dim>4</dim>
				</port>
			</output>
		</layer>
		<layer id="219" name="Constant_249" type="Const" version="opset1">
			<data element_type="i32" shape="" offset="3508" size="4"/>
			<output>
				<port id="0" precision="I32" names="413"/>
			</output>
		</layer>
		<layer id="220" name="Gather_250/axis" type="Const" version="opset1">
			<data element_type="i64" shape="" offset="3456" size="8"/>
			<output>
				<port id="0" precision="I64"/>
			</output>
		</layer>
		<layer id="221" name="Gather_2502524" type="Gather" version="opset7">
			<data batch_dims="0"/>
			<input>
				<port id="0" precision="I64">
					<dim>4</dim>
				</port>
				<port id="1" precision="I32"/>
				<port id="2" precision="I64"/>
			</input>
			<output>
				<port id="3" precision="I64" names="414,415"/>
			</output>
		</layer>
		<layer id="222" name="Constant_253" type="Const" version="opset1">
			<data element_type="i64" shape="" offset="3468" size="8"/>
			<output>
				<port id="0" precision="I64" names="417"/>
			</output>
		</layer>
		<layer id="223" name="Range_254" type="Range" version="opset4">
			<data output_type="i64"/>
			<input>
				<port id="0" precision="I64"/>
				<port id="1" precision="I64"/>
				<port id="2" precision="I64"/>
			</input>
			<output>
				<port id="3" precision="I64" names="418">
					<dim>56</dim>
				</port>
			</output>
		</layer>
		<layer id="224" name="Constant_264" type="Const" version="opset1">
			<data element_type="i64" shape="2" offset="3512" size="16"/>
			<output>
				<port id="0" precision="I64" names="430">
					<dim>2</dim>
				</port>
			</output>
		</layer>
		<layer id="225" name="Reshape_265" type="Reshape" version="opset1">
			<data special_zero="true"/>
			<input>
				<port id="0" precision="I64">
					<dim>56</dim>
				</port>
				<port id="1" precision="I64">
					<dim>2</dim>
				</port>
			</input>
			<output>
				<port id="2" precision="I64">
					<dim>56</dim>
					<dim>1</dim>
				</port>
			</output>
		</layer>
		<layer id="226" name="Reshape_265/EltwiseUnsqueeze_input_port_1/value3399468402" type="Const" version="opset1">
			<data element_type="i64" shape="2" offset="3528" size="16"/>
			<output>
				<port id="0" precision="I64">
					<dim>2</dim>
				</port>
			</output>
		</layer>
		<layer id="227" name="Reshape_265/EltwiseUnsqueeze" type="Unsqueeze" version="opset1">
			<input>
				<port id="0" precision="I64">
					<dim>56</dim>
					<dim>1</dim>
				</port>
				<port id="1" precision="I64">
					<dim>2</dim>
				</port>
			</input>
			<output>
				<port id="2" precision="I64" names="431">
					<dim>1</dim>
					<dim>1</dim>
					<dim>56</dim>
					<dim>1</dim>
				</port>
			</output>
		</layer>
		<layer id="228" name="Add_267" type="Add" version="opset1">
			<data auto_broadcast="numpy"/>
			<input>
				<port id="0" precision="I64">
					<dim>1</dim>
					<dim>6</dim>
					<dim>1</dim>
					<dim>1</dim>
				</port>
				<port id="1" precision="I64">
					<dim>1</dim>
					<dim>1</dim>
					<dim>56</dim>
					<dim>1</dim>
				</port>
			</input>
			<output>
				<port id="2" precision="I64" names="433">
					<dim>1</dim>
					<dim>6</dim>
					<dim>56</dim>
					<dim>1</dim>
				</port>
			</output>
		</layer>
		<layer id="229" name="Constant_259" type="Const" version="opset1">
			<data element_type="i64" shape="" offset="3456" size="8"/>
			<output>
				<port id="0" precision="I64" names="423"/>
			</output>
		</layer>
		<layer id="230" name="Shape_255" type="ShapeOf" version="opset3">
			<data output_type="i64"/>
			<input>
				<port id="0" precision="FP32">
					<dim>1</dim>
					<dim>24</dim>
					<dim>56</dim>
					<dim>56</dim>
				</port>
			</input>
			<output>
				<port id="1" precision="I64" names="419">
					<dim>4</dim>
				</port>
			</output>
		</layer>
		<layer id="231" name="Constant_256" type="Const" version="opset1">
			<data element_type="i32" shape="" offset="3544" size="4"/>
			<output>
				<port id="0" precision="I32" names="420"/>
			</output>
		</layer>
		<layer id="232" name="Gather_257/axis" type="Const" version="opset1">
			<data element_type="i64" shape="" offset="3456" size="8"/>
			<output>
				<port id="0" precision="I64"/>
			</output>
		</layer>
		<layer id="233" name="Gather_2572438" type="Gather" version="opset7">
			<data batch_dims="0"/>
			<input>
				<port id="0" precision="I64">
					<dim>4</dim>
				</port>
				<port id="1" precision="I32"/>
				<port id="2" precision="I64"/>
			</input>
			<output>
				<port id="3" precision="I64" names="421,422"/>
			</output>
		</layer>
		<layer id="234" name="Constant_260" type="Const" version="opset1">
			<data element_type="i64" shape="" offset="3468" size="8"/>
			<output>
				<port id="0" precision="I64" names="424"/>
			</output>
		</layer>
		<layer id="235" name="Range_261" type="Range" version="opset4">
			<data output_type="i64"/>
			<input>
				<port id="0" precision="I64"/>
				<port id="1" precision="I64"/>
				<port id="2" precision="I64"/>
			</input>
			<output>
				<port id="3" precision="I64">
					<dim>56</dim>
				</port>
			</output>
		</layer>
		<layer id="236" name="Range_261/EltwiseUnsqueeze_input_port_1/value3399866602" type="Const" version="opset1">
			<data element_type="i64" shape="3" offset="3548" size="24"/>
			<output>
				<port id="0" precision="I64">
					<dim>3</dim>
				</port>
			</output>
		</layer>
		<layer id="237" name="Range_261/EltwiseUnsqueeze" type="Unsqueeze" version="opset1">
			<input>
				<port id="0" precision="I64">
					<dim>56</dim>
				</port>
				<port id="1" precision="I64">
					<dim>3</dim>
				</port>
			</input>
			<output>
				<port id="2" precision="I64" names="425">
					<dim>1</dim>
					<dim>1</dim>
					<dim>1</dim>
					<dim>56</dim>
				</port>
			</output>
		</layer>
		<layer id="238" name="Add_268" type="Add" version="opset1">
			<data auto_broadcast="numpy"/>
			<input>
				<port id="0" precision="I64">
					<dim>1</dim>
					<dim>6</dim>
					<dim>56</dim>
					<dim>1</dim>
				</port>
				<port id="1" precision="I64">
					<dim>1</dim>
					<dim>1</dim>
					<dim>1</dim>
					<dim>56</dim>
				</port>
			</input>
			<output>
				<port id="2" precision="I64" names="434">
					<dim>1</dim>
					<dim>6</dim>
					<dim>56</dim>
					<dim>56</dim>
				</port>
			</output>
		</layer>
		<layer id="239" name="Shape_269" type="ShapeOf" version="opset3">
			<data output_type="i64"/>
			<input>
				<port id="0" precision="I64">
					<dim>1</dim>
					<dim>6</dim>
					<dim>56</dim>
					<dim>56</dim>
				</port>
			</input>
			<output>
				<port id="1" precision="I64" names="435,474">
					<dim>4</dim>
				</port>
			</output>
		</layer>
		<layer id="240" name="ConstantOfShape_271/Broadcast/FillValue" type="Const" version="opset1">
			<data element_type="i64" shape="1" offset="3468" size="8"/>
			<output>
				<port id="0" precision="I64">
					<dim>1</dim>
				</port>
			</output>
		</layer>
		<layer id="241" name="Shape_270" type="ShapeOf" version="opset3">
			<data output_type="i64"/>
			<input>
				<port id="0" precision="I64">
					<dim>4</dim>
				</port>
			</input>
			<output>
				<port id="1" precision="I64" names="436">
					<dim>1</dim>
				</port>
			</output>
		</layer>
		<layer id="242" name="ConstantOfShape_271/Broadcast" type="Broadcast" version="opset3">
			<data mode="numpy"/>
			<input>
				<port id="0" precision="I64">
					<dim>1</dim>
				</port>
				<port id="1" precision="I64">
					<dim>1</dim>
				</port>
			</input>
			<output>
				<port id="2" precision="I64" names="437">
					<dim>4</dim>
				</port>
			</output>
		</layer>
		<layer id="243" name="Mul_273/Negate" type="Negative" version="opset1">
			<input>
				<port id="0" precision="I64">
					<dim>4</dim>
				</port>
			</input>
			<output>
				<port id="1" precision="I64" names="439">
					<dim>4</dim>
				</port>
			</output>
		</layer>
		<layer id="244" name="Equal_274" type="Equal" version="opset1">
			<input>
				<port id="0" precision="I64">
					<dim>4</dim>
				</port>
				<port id="1" precision="I64">
					<dim>4</dim>
				</port>
			</input>
			<output>
				<port id="2" precision="BOOL" names="440">
					<dim>4</dim>
				</port>
			</output>
		</layer>
		<layer id="245" name="Where_275" type="Select" version="opset1">
			<data auto_broadcast="numpy"/>
			<input>
				<port id="0" precision="BOOL">
					<dim>4</dim>
				</port>
				<port id="1" precision="I64">
					<dim>4</dim>
				</port>
				<port id="2" precision="I64">
					<dim>4</dim>
				</port>
			</input>
			<output>
				<port id="3" precision="I64" names="441">
					<dim>4</dim>
				</port>
			</output>
		</layer>
		<layer id="246" name="Expand_276" type="Broadcast" version="opset3">
			<data mode="bidirectional"/>
			<input>
				<port id="0" precision="I64">
					<dim>1</dim>
					<dim>1</dim>
					<dim>1</dim>
					<dim>1</dim>
				</port>
				<port id="1" precision="I64">
					<dim>4</dim>
				</port>
			</input>
			<output>
				<port id="2" precision="I64" names="442">
					<dim>1</dim>
					<dim>6</dim>
					<dim>56</dim>
					<dim>56</dim>
				</port>
			</output>
		</layer>
		<layer id="247" name="Unsqueeze_277/Dims" type="Const" version="opset1">
			<data element_type="i64" shape="1" offset="3572" size="8"/>
			<output>
				<port id="0" precision="I64">
					<dim>1</dim>
				</port>
			</output>
		</layer>
		<layer id="248" name="Unsqueeze_277/Unsqueeze" type="Unsqueeze" version="opset1">
			<input>
				<port id="0" precision="I64">
					<dim>1</dim>
					<dim>6</dim>
					<dim>56</dim>
					<dim>56</dim>
				</port>
				<port id="1" precision="I64">
					<dim>1</dim>
				</port>
			</input>
			<output>
				<port id="2" precision="I64" names="443">
					<dim>1</dim>
					<dim>6</dim>
					<dim>56</dim>
					<dim>56</dim>
					<dim>1</dim>
				</port>
			</output>
		</layer>
		<layer id="249" name="ConstantOfShape_279/Broadcast/FillValue" type="Const" version="opset1">
			<data element_type="i64" shape="1" offset="3468" size="8"/>
			<output>
				<port id="0" precision="I64">
					<dim>1</dim>
				</port>
			</output>
		</layer>
		<layer id="250" name="Shape_278" type="ShapeOf" version="opset3">
			<data output_type="i64"/>
			<input>
				<port id="0" precision="I64">
					<dim>4</dim>
				</port>
			</input>
			<output>
				<port id="1" precision="I64" names="444">
					<dim>1</dim>
				</port>
			</output>
		</layer>
		<layer id="251" name="ConstantOfShape_279/Broadcast" type="Broadcast" version="opset3">
			<data mode="numpy"/>
			<input>
				<port id="0" precision="I64">
					<dim>1</dim>
				</port>
				<port id="1" precision="I64">
					<dim>1</dim>
				</port>
			</input>
			<output>
				<port id="2" precision="I64" names="445">
					<dim>4</dim>
				</port>
			</output>
		</layer>
		<layer id="252" name="Mul_281/Negate" type="Negative" version="opset1">
			<input>
				<port id="0" precision="I64">
					<dim>4</dim>
				</port>
			</input>
			<output>
				<port id="1" precision="I64" names="447">
					<dim>4</dim>
				</port>
			</output>
		</layer>
		<layer id="253" name="Equal_282" type="Equal" version="opset1">
			<input>
				<port id="0" precision="I64">
					<dim>4</dim>
				</port>
				<port id="1" precision="I64">
					<dim>4</dim>
				</port>
			</input>
			<output>
				<port id="2" precision="BOOL" names="448">
					<dim>4</dim>
				</port>
			</output>
		</layer>
		<layer id="254" name="Where_283" type="Select" version="opset1">
			<data auto_broadcast="numpy"/>
			<input>
				<port id="0" precision="BOOL">
					<dim>4</dim>
				</port>
				<port id="1" precision="I64">
					<dim>4</dim>
				</port>
				<port id="2" precision="I64">
					<dim>4</dim>
				</port>
			</input>
			<output>
				<port id="3" precision="I64" names="449">
					<dim>4</dim>
				</port>
			</output>
		</layer>
		<layer id="255" name="Expand_284" type="Broadcast" version="opset3">
			<data mode="bidirectional"/>
			<input>
				<port id="0" precision="I64">
					<dim>6</dim>
					<dim>1</dim>
					<dim>1</dim>
				</port>
				<port id="1" precision="I64">
					<dim>4</dim>
				</port>
			</input>
			<output>
				<port id="2" precision="I64" names="450">
					<dim>1</dim>
					<dim>6</dim>
					<dim>56</dim>
					<dim>56</dim>
				</port>
			</output>
		</layer>
		<layer id="256" name="Unsqueeze_285/Dims" type="Const" version="opset1">
			<data element_type="i64" shape="1" offset="3572" size="8"/>
			<output>
				<port id="0" precision="I64">
					<dim>1</dim>
				</port>
			</output>
		</layer>
		<layer id="257" name="Unsqueeze_285/Unsqueeze" type="Unsqueeze" version="opset1">
			<input>
				<port id="0" precision="I64">
					<dim>1</dim>
					<dim>6</dim>
					<dim>56</dim>
					<dim>56</dim>
				</port>
				<port id="1" precision="I64">
					<dim>1</dim>
				</port>
			</input>
			<output>
				<port id="2" precision="I64" names="451">
					<dim>1</dim>
					<dim>6</dim>
					<dim>56</dim>
					<dim>56</dim>
					<dim>1</dim>
				</port>
			</output>
		</layer>
		<layer id="258" name="ConstantOfShape_287/Broadcast/FillValue" type="Const" version="opset1">
			<data element_type="i64" shape="1" offset="3468" size="8"/>
			<output>
				<port id="0" precision="I64">
					<dim>1</dim>
				</port>
			</output>
		</layer>
		<layer id="259" name="Shape_286" type="ShapeOf" version="opset3">
			<data output_type="i64"/>
			<input>
				<port id="0" precision="I64">
					<dim>4</dim>
				</port>
			</input>
			<output>
				<port id="1" precision="I64" names="452">
					<dim>1</dim>
				</port>
			</output>
		</layer>
		<layer id="260" name="ConstantOfShape_287/Broadcast" type="Broadcast" version="opset3">
			<data mode="numpy"/>
			<input>
				<port id="0" precision="I64">
					<dim>1</dim>
				</port>
				<port id="1" precision="I64">
					<dim>1</dim>
				</port>
			</input>
			<output>
				<port id="2" precision="I64" names="453">
					<dim>4</dim>
				</port>
			</output>
		</layer>
		<layer id="261" name="Mul_289/Negate" type="Negative" version="opset1">
			<input>
				<port id="0" precision="I64">
					<dim>4</dim>
				</port>
			</input>
			<output>
				<port id="1" precision="I64" names="455">
					<dim>4</dim>
				</port>
			</output>
		</layer>
		<layer id="262" name="Equal_290" type="Equal" version="opset1">
			<input>
				<port id="0" precision="I64">
					<dim>4</dim>
				</port>
				<port id="1" precision="I64">
					<dim>4</dim>
				</port>
			</input>
			<output>
				<port id="2" precision="BOOL" names="456">
					<dim>4</dim>
				</port>
			</output>
		</layer>
		<layer id="263" name="Where_291" type="Select" version="opset1">
			<data auto_broadcast="numpy"/>
			<input>
				<port id="0" precision="BOOL">
					<dim>4</dim>
				</port>
				<port id="1" precision="I64">
					<dim>4</dim>
				</port>
				<port id="2" precision="I64">
					<dim>4</dim>
				</port>
			</input>
			<output>
				<port id="3" precision="I64" names="457">
					<dim>4</dim>
				</port>
			</output>
		</layer>
		<layer id="264" name="Expand_292" type="Broadcast" version="opset3">
			<data mode="bidirectional"/>
			<input>
				<port id="0" precision="I64">
					<dim>56</dim>
					<dim>1</dim>
				</port>
				<port id="1" precision="I64">
					<dim>4</dim>
				</port>
			</input>
			<output>
				<port id="2" precision="I64" names="458">
					<dim>1</dim>
					<dim>6</dim>
					<dim>56</dim>
					<dim>56</dim>
				</port>
			</output>
		</layer>
		<layer id="265" name="Unsqueeze_293/Dims" type="Const" version="opset1">
			<data element_type="i64" shape="1" offset="3572" size="8"/>
			<output>
				<port id="0" precision="I64">
					<dim>1</dim>
				</port>
			</output>
		</layer>
		<layer id="266" name="Unsqueeze_293/Unsqueeze" type="Unsqueeze" version="opset1">
			<input>
				<port id="0" precision="I64">
					<dim>1</dim>
					<dim>6</dim>
					<dim>56</dim>
					<dim>56</dim>
				</port>
				<port id="1" precision="I64">
					<dim>1</dim>
				</port>
			</input>
			<output>
				<port id="2" precision="I64" names="459">
					<dim>1</dim>
					<dim>6</dim>
					<dim>56</dim>
					<dim>56</dim>
					<dim>1</dim>
				</port>
			</output>
		</layer>
		<layer id="267" name="ConstantOfShape_295/Broadcast/FillValue" type="Const" version="opset1">
			<data element_type="i64" shape="1" offset="3468" size="8"/>
			<output>
				<port id="0" precision="I64">
					<dim>1</dim>
				</port>
			</output>
		</layer>
		<layer id="268" name="Shape_294" type="ShapeOf" version="opset3">
			<data output_type="i64"/>
			<input>
				<port id="0" precision="I64">
					<dim>4</dim>
				</port>
			</input>
			<output>
				<port id="1" precision="I64" names="460">
					<dim>1</dim>
				</port>
			</output>
		</layer>
		<layer id="269" name="ConstantOfShape_295/Broadcast" type="Broadcast" version="opset3">
			<data mode="numpy"/>
			<input>
				<port id="0" precision="I64">
					<dim>1</dim>
				</port>
				<port id="1" precision="I64">
					<dim>1</dim>
				</port>
			</input>
			<output>
				<port id="2" precision="I64" names="461">
					<dim>4</dim>
				</port>
			</output>
		</layer>
		<layer id="270" name="Mul_297/Negate" type="Negative" version="opset1">
			<input>
				<port id="0" precision="I64">
					<dim>4</dim>
				</port>
			</input>
			<output>
				<port id="1" precision="I64" names="463">
					<dim>4</dim>
				</port>
			</output>
		</layer>
		<layer id="271" name="Equal_298" type="Equal" version="opset1">
			<input>
				<port id="0" precision="I64">
					<dim>4</dim>
				</port>
				<port id="1" precision="I64">
					<dim>4</dim>
				</port>
			</input>
			<output>
				<port id="2" precision="BOOL" names="464">
					<dim>4</dim>
				</port>
			</output>
		</layer>
		<layer id="272" name="Where_299" type="Select" version="opset1">
			<data auto_broadcast="numpy"/>
			<input>
				<port id="0" precision="BOOL">
					<dim>4</dim>
				</port>
				<port id="1" precision="I64">
					<dim>4</dim>
				</port>
				<port id="2" precision="I64">
					<dim>4</dim>
				</port>
			</input>
			<output>
				<port id="3" precision="I64" names="465">
					<dim>4</dim>
				</port>
			</output>
		</layer>
		<layer id="273" name="Expand_300" type="Broadcast" version="opset3">
			<data mode="bidirectional"/>
			<input>
				<port id="0" precision="I64">
					<dim>56</dim>
				</port>
				<port id="1" precision="I64">
					<dim>4</dim>
				</port>
			</input>
			<output>
				<port id="2" precision="I64" names="466">
					<dim>1</dim>
					<dim>6</dim>
					<dim>56</dim>
					<dim>56</dim>
				</port>
			</output>
		</layer>
		<layer id="274" name="Unsqueeze_301/Dims" type="Const" version="opset1">
			<data element_type="i64" shape="1" offset="3572" size="8"/>
			<output>
				<port id="0" precision="I64">
					<dim>1</dim>
				</port>
			</output>
		</layer>
		<layer id="275" name="Unsqueeze_301/Unsqueeze" type="Unsqueeze" version="opset1">
			<input>
				<port id="0" precision="I64">
					<dim>1</dim>
					<dim>6</dim>
					<dim>56</dim>
					<dim>56</dim>
				</port>
				<port id="1" precision="I64">
					<dim>1</dim>
				</port>
			</input>
			<output>
				<port id="2" precision="I64" names="467">
					<dim>1</dim>
					<dim>6</dim>
					<dim>56</dim>
					<dim>56</dim>
					<dim>1</dim>
				</port>
			</output>
		</layer>
		<layer id="276" name="Concat_302" type="Concat" version="opset1">
			<data axis="4"/>
			<input>
				<port id="0" precision="I64">
					<dim>1</dim>
					<dim>6</dim>
					<dim>56</dim>
					<dim>56</dim>
					<dim>1</dim>
				</port>
				<port id="1" precision="I64">
					<dim>1</dim>
					<dim>6</dim>
					<dim>56</dim>
					<dim>56</dim>
					<dim>1</dim>
				</port>
				<port id="2" precision="I64">
					<dim>1</dim>
					<dim>6</dim>
					<dim>56</dim>
					<dim>56</dim>
					<dim>1</dim>
				</port>
				<port id="3" precision="I64">
					<dim>1</dim>
					<dim>6</dim>
					<dim>56</dim>
					<dim>56</dim>
					<dim>1</dim>
				</port>
			</input>
			<output>
				<port id="4" precision="I64" names="468">
					<dim>1</dim>
					<dim>6</dim>
					<dim>56</dim>
					<dim>56</dim>
					<dim>4</dim>
				</port>
			</output>
		</layer>
		<layer id="277" name="Constant_233" type="Const" version="opset1">
			<data element_type="i64" shape="6, 56, 56" offset="1229928" size="150528"/>
			<output>
				<port id="0" precision="I64" names="396">
					<dim>6</dim>
					<dim>56</dim>
					<dim>56</dim>
				</port>
			</output>
		</layer>
		<layer id="278" name="Constant_226" type="Const" version="opset1">
			<data element_type="i32" shape="" offset="806396" size="4"/>
			<output>
				<port id="0" precision="I32" names="389"/>
			</output>
		</layer>
		<layer id="279" name="Gather_227/axis" type="Const" version="opset1">
			<data element_type="i64" shape="" offset="3456" size="8"/>
			<output>
				<port id="0" precision="I64"/>
			</output>
		</layer>
		<layer id="280" name="Gather_2272442" type="Gather" version="opset7">
			<data batch_dims="0"/>
			<input>
				<port id="0" precision="FP32">
					<dim>1</dim>
					<dim>24</dim>
					<dim>56</dim>
					<dim>56</dim>
				</port>
				<port id="1" precision="I32"/>
				<port id="2" precision="I64"/>
			</input>
			<output>
				<port id="3" precision="FP32" names="390">
					<dim>24</dim>
					<dim>56</dim>
					<dim>56</dim>
				</port>
			</output>
		</layer>
		<layer id="281" name="Slice_232/Concat2086166449" type="Const" version="opset1">
			<data element_type="i64" shape="3" offset="806400" size="24"/>
			<output>
				<port id="0" precision="I64">
					<dim>3</dim>
				</port>
			</output>
		</layer>
		<layer id="282" name="Slice_232/Concat208472086267418" type="Const" version="opset1">
			<data element_type="i64" shape="3" offset="1380456" size="24"/>
			<output>
				<port id="0" precision="I64">
					<dim>3</dim>
				</port>
			</output>
		</layer>
		<layer id="283" name="Slice_232/Strides2086368204" type="Const" version="opset1">
			<data element_type="i64" shape="3" offset="806448" size="24"/>
			<output>
				<port id="0" precision="I64">
					<dim>3</dim>
				</port>
			</output>
		</layer>
		<layer id="284" name="Slice_232" type="StridedSlice" version="opset1">
			<data begin_mask="0, 1, 1" end_mask="0, 1, 1" new_axis_mask="0, 0, 0" shrink_axis_mask="0, 0, 0" ellipsis_mask="0, 0, 0"/>
			<input>
				<port id="0" precision="FP32">
					<dim>24</dim>
					<dim>56</dim>
					<dim>56</dim>
				</port>
				<port id="1" precision="I64">
					<dim>3</dim>
				</port>
				<port id="2" precision="I64">
					<dim>3</dim>
				</port>
				<port id="3" precision="I64">
					<dim>3</dim>
				</port>
			</input>
			<output>
				<port id="4" precision="FP32" names="395">
					<dim>6</dim>
					<dim>56</dim>
					<dim>56</dim>
				</port>
			</output>
		</layer>
		<layer id="285" name="Shape_234" type="ShapeOf" version="opset3">
			<data output_type="i64"/>
			<input>
				<port id="0" precision="FP32">
					<dim>6</dim>
					<dim>56</dim>
					<dim>56</dim>
				</port>
			</input>
			<output>
				<port id="1" precision="I64" names="397">
					<dim>3</dim>
				</port>
			</output>
		</layer>
		<layer id="286" name="Expand_235" type="Broadcast" version="opset3">
			<data mode="bidirectional"/>
			<input>
				<port id="0" precision="I64">
					<dim>6</dim>
					<dim>56</dim>
					<dim>56</dim>
				</port>
				<port id="1" precision="I64">
					<dim>3</dim>
				</port>
			</input>
			<output>
				<port id="2" precision="I64" names="398">
					<dim>6</dim>
					<dim>56</dim>
					<dim>56</dim>
				</port>
			</output>
		</layer>
		<layer id="287" name="Reshape_309" type="Reshape" version="opset1">
			<data special_zero="true"/>
			<input>
				<port id="0" precision="I64">
					<dim>6</dim>
					<dim>56</dim>
					<dim>56</dim>
				</port>
				<port id="1" precision="I64">
					<dim>4</dim>
				</port>
			</input>
			<output>
				<port id="2" precision="I64" names="475">
					<dim>1</dim>
					<dim>6</dim>
					<dim>56</dim>
					<dim>56</dim>
				</port>
			</output>
		</layer>
		<layer id="288" name="Cast_310" type="Convert" version="opset1">
			<data destination_type="f32"/>
			<input>
				<port id="0" precision="I64">
					<dim>1</dim>
					<dim>6</dim>
					<dim>56</dim>
					<dim>56</dim>
				</port>
			</input>
			<output>
				<port id="1" precision="FP32" names="476">
					<dim>1</dim>
					<dim>6</dim>
					<dim>56</dim>
					<dim>56</dim>
				</port>
			</output>
		</layer>
		<layer id="289" name="ScatterND_311" type="ScatterNDUpdate" version="opset4">
			<input>
				<port id="0" precision="FP32">
					<dim>1</dim>
					<dim>24</dim>
					<dim>56</dim>
					<dim>56</dim>
				</port>
				<port id="1" precision="I64">
					<dim>1</dim>
					<dim>6</dim>
					<dim>56</dim>
					<dim>56</dim>
					<dim>4</dim>
				</port>
				<port id="2" precision="FP32">
					<dim>1</dim>
					<dim>6</dim>
					<dim>56</dim>
					<dim>56</dim>
				</port>
			</input>
			<output>
				<port id="3" precision="FP32" names="477">
					<dim>1</dim>
					<dim>24</dim>
					<dim>56</dim>
					<dim>56</dim>
				</port>
			</output>
		</layer>
		<layer id="290" name="Div_316/Fused_Mul__copy" type="Const" version="opset1">
			<data element_type="f32" shape="144, 24, 1, 1" offset="1380480" size="13824"/>
			<output>
				<port id="0" precision="FP32" names="features.3.conv.0.0.weight">
					<dim>144</dim>
					<dim>24</dim>
					<dim>1</dim>
					<dim>1</dim>
				</port>
			</output>
		</layer>
		<layer id="291" name="Conv_312" type="Convolution" version="opset1">
			<data strides="1, 1" dilations="1, 1" pads_begin="0, 0" pads_end="0, 0" auto_pad="explicit"/>
			<input>
				<port id="0" precision="FP32">
					<dim>1</dim>
					<dim>24</dim>
					<dim>56</dim>
					<dim>56</dim>
				</port>
				<port id="1" precision="FP32">
					<dim>144</dim>
					<dim>24</dim>
					<dim>1</dim>
					<dim>1</dim>
				</port>
			</input>
			<output>
				<port id="2" precision="FP32" names="484">
					<dim>1</dim>
					<dim>144</dim>
					<dim>56</dim>
					<dim>56</dim>
				</port>
			</output>
		</layer>
		<layer id="292" name="Clip_321" type="Clamp" version="opset1">
			<data min="0" max="6"/>
			<input>
				<port id="0" precision="FP32">
					<dim>1</dim>
					<dim>144</dim>
					<dim>56</dim>
					<dim>56</dim>
				</port>
			</input>
			<output>
				<port id="1" precision="FP32" names="487">
					<dim>1</dim>
					<dim>144</dim>
					<dim>56</dim>
					<dim>56</dim>
				</port>
			</output>
		</layer>
		<layer id="293" name="Div_326/Fused_Mul__copy" type="Const" version="opset1">
			<data element_type="f32" shape="144, 1, 1, 3, 3" offset="1394304" size="5184"/>
			<output>
				<port id="0" precision="FP32" names="features.3.conv.1.0.weight">
					<dim>144</dim>
					<dim>1</dim>
					<dim>1</dim>
					<dim>3</dim>
					<dim>3</dim>
				</port>
			</output>
		</layer>
		<layer id="294" name="Conv_322" type="GroupConvolution" version="opset1">
			<data strides="1, 1" pads_begin="1, 1" pads_end="1, 1" dilations="1, 1" auto_pad="explicit"/>
			<input>
				<port id="0" precision="FP32">
					<dim>1</dim>
					<dim>144</dim>
					<dim>56</dim>
					<dim>56</dim>
				</port>
				<port id="1" precision="FP32">
					<dim>144</dim>
					<dim>1</dim>
					<dim>1</dim>
					<dim>3</dim>
					<dim>3</dim>
				</port>
			</input>
			<output>
				<port id="2" precision="FP32" names="494">
					<dim>1</dim>
					<dim>144</dim>
					<dim>56</dim>
					<dim>56</dim>
				</port>
			</output>
		</layer>
		<layer id="295" name="Clip_331" type="Clamp" version="opset1">
			<data min="0" max="6"/>
			<input>
				<port id="0" precision="FP32">
					<dim>1</dim>
					<dim>144</dim>
					<dim>56</dim>
					<dim>56</dim>
				</port>
			</input>
			<output>
				<port id="1" precision="FP32" names="497">
					<dim>1</dim>
					<dim>144</dim>
					<dim>56</dim>
					<dim>56</dim>
				</port>
			</output>
		</layer>
		<layer id="296" name="Div_336/Fused_Mul__copy" type="Const" version="opset1">
			<data element_type="f32" shape="24, 144, 1, 1" offset="1399488" size="13824"/>
			<output>
				<port id="0" precision="FP32" names="features.3.conv.2.weight">
					<dim>24</dim>
					<dim>144</dim>
					<dim>1</dim>
					<dim>1</dim>
				</port>
			</output>
		</layer>
		<layer id="297" name="Conv_332" type="Convolution" version="opset1">
			<data strides="1, 1" dilations="1, 1" pads_begin="0, 0" pads_end="0, 0" auto_pad="explicit"/>
			<input>
				<port id="0" precision="FP32">
					<dim>1</dim>
					<dim>144</dim>
					<dim>56</dim>
					<dim>56</dim>
				</port>
				<port id="1" precision="FP32">
					<dim>24</dim>
					<dim>144</dim>
					<dim>1</dim>
					<dim>1</dim>
				</port>
			</input>
			<output>
				<port id="2" precision="FP32" names="504">
					<dim>1</dim>
					<dim>24</dim>
					<dim>56</dim>
					<dim>56</dim>
				</port>
			</output>
		</layer>
		<layer id="298" name="Add_339" type="Add" version="opset1">
			<data auto_broadcast="numpy"/>
			<input>
				<port id="0" precision="FP32">
					<dim>1</dim>
					<dim>24</dim>
					<dim>56</dim>
					<dim>56</dim>
				</port>
				<port id="1" precision="FP32">
					<dim>1</dim>
					<dim>24</dim>
					<dim>56</dim>
					<dim>56</dim>
				</port>
			</input>
			<output>
				<port id="2" precision="FP32" names="505">
					<dim>1</dim>
					<dim>24</dim>
					<dim>56</dim>
					<dim>56</dim>
				</port>
			</output>
		</layer>
		<layer id="299" name="2158" type="Const" version="opset1">
			<data element_type="i64" shape="1, 1, 1, 1" offset="3456" size="8"/>
			<output>
				<port id="0" precision="I64" names="2158">
					<dim>1</dim>
					<dim>1</dim>
					<dim>1</dim>
					<dim>1</dim>
				</port>
			</output>
		</layer>
		<layer id="300" name="215867676" type="Const" version="opset1">
			<data element_type="i64" shape="1, 1, 1, 1" offset="3456" size="8"/>
			<output>
				<port id="0" precision="I64" names="2158">
					<dim>1</dim>
					<dim>1</dim>
					<dim>1</dim>
					<dim>1</dim>
				</port>
			</output>
		</layer>
		<layer id="301" name="Constant_354" type="Const" version="opset1">
			<data element_type="i64" shape="" offset="3456" size="8"/>
			<output>
				<port id="0" precision="I64" names="521"/>
			</output>
		</layer>
		<layer id="302" name="Shape_350" type="ShapeOf" version="opset3">
			<data output_type="i64"/>
			<input>
				<port id="0" precision="FP32">
					<dim>1</dim>
					<dim>24</dim>
					<dim>56</dim>
					<dim>56</dim>
				</port>
			</input>
			<output>
				<port id="1" precision="I64" names="517">
					<dim>4</dim>
				</port>
			</output>
		</layer>
		<layer id="303" name="Constant_351" type="Const" version="opset1">
			<data element_type="i32" shape="" offset="3464" size="4"/>
			<output>
				<port id="0" precision="I32" names="518"/>
			</output>
		</layer>
		<layer id="304" name="Gather_352/axis" type="Const" version="opset1">
			<data element_type="i64" shape="" offset="3456" size="8"/>
			<output>
				<port id="0" precision="I64"/>
			</output>
		</layer>
		<layer id="305" name="Gather_3522410" type="Gather" version="opset7">
			<data batch_dims="0"/>
			<input>
				<port id="0" precision="I64">
					<dim>4</dim>
				</port>
				<port id="1" precision="I32"/>
				<port id="2" precision="I64"/>
			</input>
			<output>
				<port id="3" precision="I64" names="519,520"/>
			</output>
		</layer>
		<layer id="306" name="Constant_355" type="Const" version="opset1">
			<data element_type="i64" shape="" offset="3468" size="8"/>
			<output>
				<port id="0" precision="I64" names="522"/>
			</output>
		</layer>
		<layer id="307" name="Range_356" type="Range" version="opset4">
			<data output_type="i64"/>
			<input>
				<port id="0" precision="I64"/>
				<port id="1" precision="I64"/>
				<port id="2" precision="I64"/>
			</input>
			<output>
				<port id="3" precision="I64" names="523">
					<dim>24</dim>
				</port>
			</output>
		</layer>
		<layer id="308" name="Slice_361/Concat2101368120" type="Const" version="opset1">
			<data element_type="i64" shape="1" offset="3456" size="8"/>
			<output>
				<port id="0" precision="I64">
					<dim>1</dim>
				</port>
			</output>
		</layer>
		<layer id="309" name="Slice_361/Concat210032101468060" type="Const" version="opset1">
			<data element_type="i64" shape="1" offset="1229920" size="8"/>
			<output>
				<port id="0" precision="I64">
					<dim>1</dim>
				</port>
			</output>
		</layer>
		<layer id="310" name="Slice_361/Strides2101566821" type="Const" version="opset1">
			<data element_type="i64" shape="1" offset="3468" size="8"/>
			<output>
				<port id="0" precision="I64">
					<dim>1</dim>
				</port>
			</output>
		</layer>
		<layer id="311" name="Slice_361" type="StridedSlice" version="opset1">
			<data begin_mask="0" end_mask="0" new_axis_mask="0" shrink_axis_mask="0" ellipsis_mask="0"/>
			<input>
				<port id="0" precision="I64">
					<dim>24</dim>
				</port>
				<port id="1" precision="I64">
					<dim>1</dim>
				</port>
				<port id="2" precision="I64">
					<dim>1</dim>
				</port>
				<port id="3" precision="I64">
					<dim>1</dim>
				</port>
			</input>
			<output>
				<port id="4" precision="I64" names="528">
					<dim>6</dim>
				</port>
			</output>
		</layer>
		<layer id="312" name="Constant_376" type="Const" version="opset1">
			<data element_type="i64" shape="3" offset="3484" size="24"/>
			<output>
				<port id="0" precision="I64" names="545">
					<dim>3</dim>
				</port>
			</output>
		</layer>
		<layer id="313" name="Reshape_377" type="Reshape" version="opset1">
			<data special_zero="true"/>
			<input>
				<port id="0" precision="I64">
					<dim>6</dim>
				</port>
				<port id="1" precision="I64">
					<dim>3</dim>
				</port>
			</input>
			<output>
				<port id="2" precision="I64">
					<dim>6</dim>
					<dim>1</dim>
					<dim>1</dim>
				</port>
			</output>
		</layer>
		<layer id="314" name="Reshape_377/EltwiseUnsqueeze_input_port_1/value3401867922" type="Const" version="opset1">
			<data element_type="i64" shape="1" offset="3456" size="8"/>
			<output>
				<port id="0" precision="I64">
					<dim>1</dim>
				</port>
			</output>
		</layer>
		<layer id="315" name="Reshape_377/EltwiseUnsqueeze" type="Unsqueeze" version="opset1">
			<input>
				<port id="0" precision="I64">
					<dim>6</dim>
					<dim>1</dim>
					<dim>1</dim>
				</port>
				<port id="1" precision="I64">
					<dim>1</dim>
				</port>
			</input>
			<output>
				<port id="2" precision="I64" names="546">
					<dim>1</dim>
					<dim>6</dim>
					<dim>1</dim>
					<dim>1</dim>
				</port>
			</output>
		</layer>
		<layer id="316" name="Add_380" type="Add" version="opset1">
			<data auto_broadcast="numpy"/>
			<input>
				<port id="0" precision="I64">
					<dim>1</dim>
					<dim>1</dim>
					<dim>1</dim>
					<dim>1</dim>
				</port>
				<port id="1" precision="I64">
					<dim>1</dim>
					<dim>6</dim>
					<dim>1</dim>
					<dim>1</dim>
				</port>
			</input>
			<output>
				<port id="2" precision="I64" names="549">
					<dim>1</dim>
					<dim>6</dim>
					<dim>1</dim>
					<dim>1</dim>
				</port>
			</output>
		</layer>
		<layer id="317" name="Constant_366" type="Const" version="opset1">
			<data element_type="i64" shape="" offset="3456" size="8"/>
			<output>
				<port id="0" precision="I64" names="533"/>
			</output>
		</layer>
		<layer id="318" name="Shape_362" type="ShapeOf" version="opset3">
			<data output_type="i64"/>
			<input>
				<port id="0" precision="FP32">
					<dim>1</dim>
					<dim>24</dim>
					<dim>56</dim>
					<dim>56</dim>
				</port>
			</input>
			<output>
				<port id="1" precision="I64" names="529">
					<dim>4</dim>
				</port>
			</output>
		</layer>
		<layer id="319" name="Constant_363" type="Const" version="opset1">
			<data element_type="i32" shape="" offset="3508" size="4"/>
			<output>
				<port id="0" precision="I32" names="530"/>
			</output>
		</layer>
		<layer id="320" name="Gather_364/axis" type="Const" version="opset1">
			<data element_type="i64" shape="" offset="3456" size="8"/>
			<output>
				<port id="0" precision="I64"/>
			</output>
		</layer>
		<layer id="321" name="Gather_3642532" type="Gather" version="opset7">
			<data batch_dims="0"/>
			<input>
				<port id="0" precision="I64">
					<dim>4</dim>
				</port>
				<port id="1" precision="I32"/>
				<port id="2" precision="I64"/>
			</input>
			<output>
				<port id="3" precision="I64" names="531,532"/>
			</output>
		</layer>
		<layer id="322" name="Constant_367" type="Const" version="opset1">
			<data element_type="i64" shape="" offset="3468" size="8"/>
			<output>
				<port id="0" precision="I64" names="534"/>
			</output>
		</layer>
		<layer id="323" name="Range_368" type="Range" version="opset4">
			<data output_type="i64"/>
			<input>
				<port id="0" precision="I64"/>
				<port id="1" precision="I64"/>
				<port id="2" precision="I64"/>
			</input>
			<output>
				<port id="3" precision="I64" names="535">
					<dim>56</dim>
				</port>
			</output>
		</layer>
		<layer id="324" name="Constant_378" type="Const" version="opset1">
			<data element_type="i64" shape="2" offset="3512" size="16"/>
			<output>
				<port id="0" precision="I64" names="547">
					<dim>2</dim>
				</port>
			</output>
		</layer>
		<layer id="325" name="Reshape_379" type="Reshape" version="opset1">
			<data special_zero="true"/>
			<input>
				<port id="0" precision="I64">
					<dim>56</dim>
				</port>
				<port id="1" precision="I64">
					<dim>2</dim>
				</port>
			</input>
			<output>
				<port id="2" precision="I64">
					<dim>56</dim>
					<dim>1</dim>
				</port>
			</output>
		</layer>
		<layer id="326" name="Reshape_379/EltwiseUnsqueeze_input_port_1/value3402268168" type="Const" version="opset1">
			<data element_type="i64" shape="2" offset="3528" size="16"/>
			<output>
				<port id="0" precision="I64">
					<dim>2</dim>
				</port>
			</output>
		</layer>
		<layer id="327" name="Reshape_379/EltwiseUnsqueeze" type="Unsqueeze" version="opset1">
			<input>
				<port id="0" precision="I64">
					<dim>56</dim>
					<dim>1</dim>
				</port>
				<port id="1" precision="I64">
					<dim>2</dim>
				</port>
			</input>
			<output>
				<port id="2" precision="I64" names="548">
					<dim>1</dim>
					<dim>1</dim>
					<dim>56</dim>
					<dim>1</dim>
				</port>
			</output>
		</layer>
		<layer id="328" name="Add_381" type="Add" version="opset1">
			<data auto_broadcast="numpy"/>
			<input>
				<port id="0" precision="I64">
					<dim>1</dim>
					<dim>6</dim>
					<dim>1</dim>
					<dim>1</dim>
				</port>
				<port id="1" precision="I64">
					<dim>1</dim>
					<dim>1</dim>
					<dim>56</dim>
					<dim>1</dim>
				</port>
			</input>
			<output>
				<port id="2" precision="I64" names="550">
					<dim>1</dim>
					<dim>6</dim>
					<dim>56</dim>
					<dim>1</dim>
				</port>
			</output>
		</layer>
		<layer id="329" name="Constant_373" type="Const" version="opset1">
			<data element_type="i64" shape="" offset="3456" size="8"/>
			<output>
				<port id="0" precision="I64" names="540"/>
			</output>
		</layer>
		<layer id="330" name="Shape_369" type="ShapeOf" version="opset3">
			<data output_type="i64"/>
			<input>
				<port id="0" precision="FP32">
					<dim>1</dim>
					<dim>24</dim>
					<dim>56</dim>
					<dim>56</dim>
				</port>
			</input>
			<output>
				<port id="1" precision="I64" names="536">
					<dim>4</dim>
				</port>
			</output>
		</layer>
		<layer id="331" name="Constant_370" type="Const" version="opset1">
			<data element_type="i32" shape="" offset="3544" size="4"/>
			<output>
				<port id="0" precision="I32" names="537"/>
			</output>
		</layer>
		<layer id="332" name="Gather_371/axis" type="Const" version="opset1">
			<data element_type="i64" shape="" offset="3456" size="8"/>
			<output>
				<port id="0" precision="I64"/>
			</output>
		</layer>
		<layer id="333" name="Gather_3712508" type="Gather" version="opset7">
			<data batch_dims="0"/>
			<input>
				<port id="0" precision="I64">
					<dim>4</dim>
				</port>
				<port id="1" precision="I32"/>
				<port id="2" precision="I64"/>
			</input>
			<output>
				<port id="3" precision="I64" names="538,539"/>
			</output>
		</layer>
		<layer id="334" name="Constant_374" type="Const" version="opset1">
			<data element_type="i64" shape="" offset="3468" size="8"/>
			<output>
				<port id="0" precision="I64" names="541"/>
			</output>
		</layer>
		<layer id="335" name="Range_375" type="Range" version="opset4">
			<data output_type="i64"/>
			<input>
				<port id="0" precision="I64"/>
				<port id="1" precision="I64"/>
				<port id="2" precision="I64"/>
			</input>
			<output>
				<port id="3" precision="I64">
					<dim>56</dim>
				</port>
			</output>
		</layer>
		<layer id="336" name="Range_375/EltwiseUnsqueeze_input_port_1/value3402666596" type="Const" version="opset1">
			<data element_type="i64" shape="3" offset="3548" size="24"/>
			<output>
				<port id="0" precision="I64">
					<dim>3</dim>
				</port>
			</output>
		</layer>
		<layer id="337" name="Range_375/EltwiseUnsqueeze" type="Unsqueeze" version="opset1">
			<input>
				<port id="0" precision="I64">
					<dim>56</dim>
				</port>
				<port id="1" precision="I64">
					<dim>3</dim>
				</port>
			</input>
			<output>
				<port id="2" precision="I64" names="542">
					<dim>1</dim>
					<dim>1</dim>
					<dim>1</dim>
					<dim>56</dim>
				</port>
			</output>
		</layer>
		<layer id="338" name="Add_382" type="Add" version="opset1">
			<data auto_broadcast="numpy"/>
			<input>
				<port id="0" precision="I64">
					<dim>1</dim>
					<dim>6</dim>
					<dim>56</dim>
					<dim>1</dim>
				</port>
				<port id="1" precision="I64">
					<dim>1</dim>
					<dim>1</dim>
					<dim>1</dim>
					<dim>56</dim>
				</port>
			</input>
			<output>
				<port id="2" precision="I64" names="551">
					<dim>1</dim>
					<dim>6</dim>
					<dim>56</dim>
					<dim>56</dim>
				</port>
			</output>
		</layer>
		<layer id="339" name="Shape_383" type="ShapeOf" version="opset3">
			<data output_type="i64"/>
			<input>
				<port id="0" precision="I64">
					<dim>1</dim>
					<dim>6</dim>
					<dim>56</dim>
					<dim>56</dim>
				</port>
			</input>
			<output>
				<port id="1" precision="I64" names="552,591">
					<dim>4</dim>
				</port>
			</output>
		</layer>
		<layer id="340" name="ConstantOfShape_385/Broadcast/FillValue" type="Const" version="opset1">
			<data element_type="i64" shape="1" offset="3468" size="8"/>
			<output>
				<port id="0" precision="I64">
					<dim>1</dim>
				</port>
			</output>
		</layer>
		<layer id="341" name="Shape_384" type="ShapeOf" version="opset3">
			<data output_type="i64"/>
			<input>
				<port id="0" precision="I64">
					<dim>4</dim>
				</port>
			</input>
			<output>
				<port id="1" precision="I64" names="553">
					<dim>1</dim>
				</port>
			</output>
		</layer>
		<layer id="342" name="ConstantOfShape_385/Broadcast" type="Broadcast" version="opset3">
			<data mode="numpy"/>
			<input>
				<port id="0" precision="I64">
					<dim>1</dim>
				</port>
				<port id="1" precision="I64">
					<dim>1</dim>
				</port>
			</input>
			<output>
				<port id="2" precision="I64" names="554">
					<dim>4</dim>
				</port>
			</output>
		</layer>
		<layer id="343" name="Mul_387/Negate" type="Negative" version="opset1">
			<input>
				<port id="0" precision="I64">
					<dim>4</dim>
				</port>
			</input>
			<output>
				<port id="1" precision="I64" names="556">
					<dim>4</dim>
				</port>
			</output>
		</layer>
		<layer id="344" name="Equal_388" type="Equal" version="opset1">
			<input>
				<port id="0" precision="I64">
					<dim>4</dim>
				</port>
				<port id="1" precision="I64">
					<dim>4</dim>
				</port>
			</input>
			<output>
				<port id="2" precision="BOOL" names="557">
					<dim>4</dim>
				</port>
			</output>
		</layer>
		<layer id="345" name="Where_389" type="Select" version="opset1">
			<data auto_broadcast="numpy"/>
			<input>
				<port id="0" precision="BOOL">
					<dim>4</dim>
				</port>
				<port id="1" precision="I64">
					<dim>4</dim>
				</port>
				<port id="2" precision="I64">
					<dim>4</dim>
				</port>
			</input>
			<output>
				<port id="3" precision="I64" names="558">
					<dim>4</dim>
				</port>
			</output>
		</layer>
		<layer id="346" name="Expand_390" type="Broadcast" version="opset3">
			<data mode="bidirectional"/>
			<input>
				<port id="0" precision="I64">
					<dim>1</dim>
					<dim>1</dim>
					<dim>1</dim>
					<dim>1</dim>
				</port>
				<port id="1" precision="I64">
					<dim>4</dim>
				</port>
			</input>
			<output>
				<port id="2" precision="I64" names="559">
					<dim>1</dim>
					<dim>6</dim>
					<dim>56</dim>
					<dim>56</dim>
				</port>
			</output>
		</layer>
		<layer id="347" name="Unsqueeze_391/Dims" type="Const" version="opset1">
			<data element_type="i64" shape="1" offset="3572" size="8"/>
			<output>
				<port id="0" precision="I64">
					<dim>1</dim>
				</port>
			</output>
		</layer>
		<layer id="348" name="Unsqueeze_391/Unsqueeze" type="Unsqueeze" version="opset1">
			<input>
				<port id="0" precision="I64">
					<dim>1</dim>
					<dim>6</dim>
					<dim>56</dim>
					<dim>56</dim>
				</port>
				<port id="1" precision="I64">
					<dim>1</dim>
				</port>
			</input>
			<output>
				<port id="2" precision="I64" names="560">
					<dim>1</dim>
					<dim>6</dim>
					<dim>56</dim>
					<dim>56</dim>
					<dim>1</dim>
				</port>
			</output>
		</layer>
		<layer id="349" name="ConstantOfShape_393/Broadcast/FillValue" type="Const" version="opset1">
			<data element_type="i64" shape="1" offset="3468" size="8"/>
			<output>
				<port id="0" precision="I64">
					<dim>1</dim>
				</port>
			</output>
		</layer>
		<layer id="350" name="Shape_392" type="ShapeOf" version="opset3">
			<data output_type="i64"/>
			<input>
				<port id="0" precision="I64">
					<dim>4</dim>
				</port>
			</input>
			<output>
				<port id="1" precision="I64" names="561">
					<dim>1</dim>
				</port>
			</output>
		</layer>
		<layer id="351" name="ConstantOfShape_393/Broadcast" type="Broadcast" version="opset3">
			<data mode="numpy"/>
			<input>
				<port id="0" precision="I64">
					<dim>1</dim>
				</port>
				<port id="1" precision="I64">
					<dim>1</dim>
				</port>
			</input>
			<output>
				<port id="2" precision="I64" names="562">
					<dim>4</dim>
				</port>
			</output>
		</layer>
		<layer id="352" name="Mul_395/Negate" type="Negative" version="opset1">
			<input>
				<port id="0" precision="I64">
					<dim>4</dim>
				</port>
			</input>
			<output>
				<port id="1" precision="I64" names="564">
					<dim>4</dim>
				</port>
			</output>
		</layer>
		<layer id="353" name="Equal_396" type="Equal" version="opset1">
			<input>
				<port id="0" precision="I64">
					<dim>4</dim>
				</port>
				<port id="1" precision="I64">
					<dim>4</dim>
				</port>
			</input>
			<output>
				<port id="2" precision="BOOL" names="565">
					<dim>4</dim>
				</port>
			</output>
		</layer>
		<layer id="354" name="Where_397" type="Select" version="opset1">
			<data auto_broadcast="numpy"/>
			<input>
				<port id="0" precision="BOOL">
					<dim>4</dim>
				</port>
				<port id="1" precision="I64">
					<dim>4</dim>
				</port>
				<port id="2" precision="I64">
					<dim>4</dim>
				</port>
			</input>
			<output>
				<port id="3" precision="I64" names="566">
					<dim>4</dim>
				</port>
			</output>
		</layer>
		<layer id="355" name="Expand_398" type="Broadcast" version="opset3">
			<data mode="bidirectional"/>
			<input>
				<port id="0" precision="I64">
					<dim>6</dim>
					<dim>1</dim>
					<dim>1</dim>
				</port>
				<port id="1" precision="I64">
					<dim>4</dim>
				</port>
			</input>
			<output>
				<port id="2" precision="I64" names="567">
					<dim>1</dim>
					<dim>6</dim>
					<dim>56</dim>
					<dim>56</dim>
				</port>
			</output>
		</layer>
		<layer id="356" name="Unsqueeze_399/Dims" type="Const" version="opset1">
			<data element_type="i64" shape="1" offset="3572" size="8"/>
			<output>
				<port id="0" precision="I64">
					<dim>1</dim>
				</port>
			</output>
		</layer>
		<layer id="357" name="Unsqueeze_399/Unsqueeze" type="Unsqueeze" version="opset1">
			<input>
				<port id="0" precision="I64">
					<dim>1</dim>
					<dim>6</dim>
					<dim>56</dim>
					<dim>56</dim>
				</port>
				<port id="1" precision="I64">
					<dim>1</dim>
				</port>
			</input>
			<output>
				<port id="2" precision="I64" names="568">
					<dim>1</dim>
					<dim>6</dim>
					<dim>56</dim>
					<dim>56</dim>
					<dim>1</dim>
				</port>
			</output>
		</layer>
		<layer id="358" name="ConstantOfShape_401/Broadcast/FillValue" type="Const" version="opset1">
			<data element_type="i64" shape="1" offset="3468" size="8"/>
			<output>
				<port id="0" precision="I64">
					<dim>1</dim>
				</port>
			</output>
		</layer>
		<layer id="359" name="Shape_400" type="ShapeOf" version="opset3">
			<data output_type="i64"/>
			<input>
				<port id="0" precision="I64">
					<dim>4</dim>
				</port>
			</input>
			<output>
				<port id="1" precision="I64" names="569">
					<dim>1</dim>
				</port>
			</output>
		</layer>
		<layer id="360" name="ConstantOfShape_401/Broadcast" type="Broadcast" version="opset3">
			<data mode="numpy"/>
			<input>
				<port id="0" precision="I64">
					<dim>1</dim>
				</port>
				<port id="1" precision="I64">
					<dim>1</dim>
				</port>
			</input>
			<output>
				<port id="2" precision="I64" names="570">
					<dim>4</dim>
				</port>
			</output>
		</layer>
		<layer id="361" name="Mul_403/Negate" type="Negative" version="opset1">
			<input>
				<port id="0" precision="I64">
					<dim>4</dim>
				</port>
			</input>
			<output>
				<port id="1" precision="I64" names="572">
					<dim>4</dim>
				</port>
			</output>
		</layer>
		<layer id="362" name="Equal_404" type="Equal" version="opset1">
			<input>
				<port id="0" precision="I64">
					<dim>4</dim>
				</port>
				<port id="1" precision="I64">
					<dim>4</dim>
				</port>
			</input>
			<output>
				<port id="2" precision="BOOL" names="573">
					<dim>4</dim>
				</port>
			</output>
		</layer>
		<layer id="363" name="Where_405" type="Select" version="opset1">
			<data auto_broadcast="numpy"/>
			<input>
				<port id="0" precision="BOOL">
					<dim>4</dim>
				</port>
				<port id="1" precision="I64">
					<dim>4</dim>
				</port>
				<port id="2" precision="I64">
					<dim>4</dim>
				</port>
			</input>
			<output>
				<port id="3" precision="I64" names="574">
					<dim>4</dim>
				</port>
			</output>
		</layer>
		<layer id="364" name="Expand_406" type="Broadcast" version="opset3">
			<data mode="bidirectional"/>
			<input>
				<port id="0" precision="I64">
					<dim>56</dim>
					<dim>1</dim>
				</port>
				<port id="1" precision="I64">
					<dim>4</dim>
				</port>
			</input>
			<output>
				<port id="2" precision="I64" names="575">
					<dim>1</dim>
					<dim>6</dim>
					<dim>56</dim>
					<dim>56</dim>
				</port>
			</output>
		</layer>
		<layer id="365" name="Unsqueeze_407/Dims" type="Const" version="opset1">
			<data element_type="i64" shape="1" offset="3572" size="8"/>
			<output>
				<port id="0" precision="I64">
					<dim>1</dim>
				</port>
			</output>
		</layer>
		<layer id="366" name="Unsqueeze_407/Unsqueeze" type="Unsqueeze" version="opset1">
			<input>
				<port id="0" precision="I64">
					<dim>1</dim>
					<dim>6</dim>
					<dim>56</dim>
					<dim>56</dim>
				</port>
				<port id="1" precision="I64">
					<dim>1</dim>
				</port>
			</input>
			<output>
				<port id="2" precision="I64" names="576">
					<dim>1</dim>
					<dim>6</dim>
					<dim>56</dim>
					<dim>56</dim>
					<dim>1</dim>
				</port>
			</output>
		</layer>
		<layer id="367" name="ConstantOfShape_409/Broadcast/FillValue" type="Const" version="opset1">
			<data element_type="i64" shape="1" offset="3468" size="8"/>
			<output>
				<port id="0" precision="I64">
					<dim>1</dim>
				</port>
			</output>
		</layer>
		<layer id="368" name="Shape_408" type="ShapeOf" version="opset3">
			<data output_type="i64"/>
			<input>
				<port id="0" precision="I64">
					<dim>4</dim>
				</port>
			</input>
			<output>
				<port id="1" precision="I64" names="577">
					<dim>1</dim>
				</port>
			</output>
		</layer>
		<layer id="369" name="ConstantOfShape_409/Broadcast" type="Broadcast" version="opset3">
			<data mode="numpy"/>
			<input>
				<port id="0" precision="I64">
					<dim>1</dim>
				</port>
				<port id="1" precision="I64">
					<dim>1</dim>
				</port>
			</input>
			<output>
				<port id="2" precision="I64" names="578">
					<dim>4</dim>
				</port>
			</output>
		</layer>
		<layer id="370" name="Mul_411/Negate" type="Negative" version="opset1">
			<input>
				<port id="0" precision="I64">
					<dim>4</dim>
				</port>
			</input>
			<output>
				<port id="1" precision="I64" names="580">
					<dim>4</dim>
				</port>
			</output>
		</layer>
		<layer id="371" name="Equal_412" type="Equal" version="opset1">
			<input>
				<port id="0" precision="I64">
					<dim>4</dim>
				</port>
				<port id="1" precision="I64">
					<dim>4</dim>
				</port>
			</input>
			<output>
				<port id="2" precision="BOOL" names="581">
					<dim>4</dim>
				</port>
			</output>
		</layer>
		<layer id="372" name="Where_413" type="Select" version="opset1">
			<data auto_broadcast="numpy"/>
			<input>
				<port id="0" precision="BOOL">
					<dim>4</dim>
				</port>
				<port id="1" precision="I64">
					<dim>4</dim>
				</port>
				<port id="2" precision="I64">
					<dim>4</dim>
				</port>
			</input>
			<output>
				<port id="3" precision="I64" names="582">
					<dim>4</dim>
				</port>
			</output>
		</layer>
		<layer id="373" name="Expand_414" type="Broadcast" version="opset3">
			<data mode="bidirectional"/>
			<input>
				<port id="0" precision="I64">
					<dim>56</dim>
				</port>
				<port id="1" precision="I64">
					<dim>4</dim>
				</port>
			</input>
			<output>
				<port id="2" precision="I64" names="583">
					<dim>1</dim>
					<dim>6</dim>
					<dim>56</dim>
					<dim>56</dim>
				</port>
			</output>
		</layer>
		<layer id="374" name="Unsqueeze_415/Dims" type="Const" version="opset1">
			<data element_type="i64" shape="1" offset="3572" size="8"/>
			<output>
				<port id="0" precision="I64">
					<dim>1</dim>
				</port>
			</output>
		</layer>
		<layer id="375" name="Unsqueeze_415/Unsqueeze" type="Unsqueeze" version="opset1">
			<input>
				<port id="0" precision="I64">
					<dim>1</dim>
					<dim>6</dim>
					<dim>56</dim>
					<dim>56</dim>
				</port>
				<port id="1" precision="I64">
					<dim>1</dim>
				</port>
			</input>
			<output>
				<port id="2" precision="I64" names="584">
					<dim>1</dim>
					<dim>6</dim>
					<dim>56</dim>
					<dim>56</dim>
					<dim>1</dim>
				</port>
			</output>
		</layer>
		<layer id="376" name="Concat_416" type="Concat" version="opset1">
			<data axis="4"/>
			<input>
				<port id="0" precision="I64">
					<dim>1</dim>
					<dim>6</dim>
					<dim>56</dim>
					<dim>56</dim>
					<dim>1</dim>
				</port>
				<port id="1" precision="I64">
					<dim>1</dim>
					<dim>6</dim>
					<dim>56</dim>
					<dim>56</dim>
					<dim>1</dim>
				</port>
				<port id="2" precision="I64">
					<dim>1</dim>
					<dim>6</dim>
					<dim>56</dim>
					<dim>56</dim>
					<dim>1</dim>
				</port>
				<port id="3" precision="I64">
					<dim>1</dim>
					<dim>6</dim>
					<dim>56</dim>
					<dim>56</dim>
					<dim>1</dim>
				</port>
			</input>
			<output>
				<port id="4" precision="I64" names="585">
					<dim>1</dim>
					<dim>6</dim>
					<dim>56</dim>
					<dim>56</dim>
					<dim>4</dim>
				</port>
			</output>
		</layer>
		<layer id="377" name="Constant_347" type="Const" version="opset1">
			<data element_type="i64" shape="6, 56, 56" offset="1229928" size="150528"/>
			<output>
				<port id="0" precision="I64" names="513">
					<dim>6</dim>
					<dim>56</dim>
					<dim>56</dim>
				</port>
			</output>
		</layer>
		<layer id="378" name="Constant_340" type="Const" version="opset1">
			<data element_type="i32" shape="" offset="806396" size="4"/>
			<output>
				<port id="0" precision="I32" names="506"/>
			</output>
		</layer>
		<layer id="379" name="Gather_341/axis" type="Const" version="opset1">
			<data element_type="i64" shape="" offset="3456" size="8"/>
			<output>
				<port id="0" precision="I64"/>
			</output>
		</layer>
		<layer id="380" name="Gather_3412498" type="Gather" version="opset7">
			<data batch_dims="0"/>
			<input>
				<port id="0" precision="FP32">
					<dim>1</dim>
					<dim>24</dim>
					<dim>56</dim>
					<dim>56</dim>
				</port>
				<port id="1" precision="I32"/>
				<port id="2" precision="I64"/>
			</input>
			<output>
				<port id="3" precision="FP32" names="507">
					<dim>24</dim>
					<dim>56</dim>
					<dim>56</dim>
				</port>
			</output>
		</layer>
		<layer id="381" name="Slice_346/Concat2097767826" type="Const" version="opset1">
			<data element_type="i64" shape="3" offset="806400" size="24"/>
			<output>
				<port id="0" precision="I64">
					<dim>3</dim>
				</port>
			</output>
		</layer>
		<layer id="382" name="Slice_346/Concat209632097867745" type="Const" version="opset1">
			<data element_type="i64" shape="3" offset="1380456" size="24"/>
			<output>
				<port id="0" precision="I64">
					<dim>3</dim>
				</port>
			</output>
		</layer>
		<layer id="383" name="Slice_346/Strides2097967055" type="Const" version="opset1">
			<data element_type="i64" shape="3" offset="806448" size="24"/>
			<output>
				<port id="0" precision="I64">
					<dim>3</dim>
				</port>
			</output>
		</layer>
		<layer id="384" name="Slice_346" type="StridedSlice" version="opset1">
			<data begin_mask="0, 1, 1" end_mask="0, 1, 1" new_axis_mask="0, 0, 0" shrink_axis_mask="0, 0, 0" ellipsis_mask="0, 0, 0"/>
			<input>
				<port id="0" precision="FP32">
					<dim>24</dim>
					<dim>56</dim>
					<dim>56</dim>
				</port>
				<port id="1" precision="I64">
					<dim>3</dim>
				</port>
				<port id="2" precision="I64">
					<dim>3</dim>
				</port>
				<port id="3" precision="I64">
					<dim>3</dim>
				</port>
			</input>
			<output>
				<port id="4" precision="FP32" names="512">
					<dim>6</dim>
					<dim>56</dim>
					<dim>56</dim>
				</port>
			</output>
		</layer>
		<layer id="385" name="Shape_348" type="ShapeOf" version="opset3">
			<data output_type="i64"/>
			<input>
				<port id="0" precision="FP32">
					<dim>6</dim>
					<dim>56</dim>
					<dim>56</dim>
				</port>
			</input>
			<output>
				<port id="1" precision="I64" names="514">
					<dim>3</dim>
				</port>
			</output>
		</layer>
		<layer id="386" name="Expand_349" type="Broadcast" version="opset3">
			<data mode="bidirectional"/>
			<input>
				<port id="0" precision="I64">
					<dim>6</dim>
					<dim>56</dim>
					<dim>56</dim>
				</port>
				<port id="1" precision="I64">
					<dim>3</dim>
				</port>
			</input>
			<output>
				<port id="2" precision="I64" names="515">
					<dim>6</dim>
					<dim>56</dim>
					<dim>56</dim>
				</port>
			</output>
		</layer>
		<layer id="387" name="Reshape_423" type="Reshape" version="opset1">
			<data special_zero="true"/>
			<input>
				<port id="0" precision="I64">
					<dim>6</dim>
					<dim>56</dim>
					<dim>56</dim>
				</port>
				<port id="1" precision="I64">
					<dim>4</dim>
				</port>
			</input>
			<output>
				<port id="2" precision="I64" names="592">
					<dim>1</dim>
					<dim>6</dim>
					<dim>56</dim>
					<dim>56</dim>
				</port>
			</output>
		</layer>
		<layer id="388" name="Cast_424" type="Convert" version="opset1">
			<data destination_type="f32"/>
			<input>
				<port id="0" precision="I64">
					<dim>1</dim>
					<dim>6</dim>
					<dim>56</dim>
					<dim>56</dim>
				</port>
			</input>
			<output>
				<port id="1" precision="FP32" names="593">
					<dim>1</dim>
					<dim>6</dim>
					<dim>56</dim>
					<dim>56</dim>
				</port>
			</output>
		</layer>
		<layer id="389" name="ScatterND_425" type="ScatterNDUpdate" version="opset4">
			<input>
				<port id="0" precision="FP32">
					<dim>1</dim>
					<dim>24</dim>
					<dim>56</dim>
					<dim>56</dim>
				</port>
				<port id="1" precision="I64">
					<dim>1</dim>
					<dim>6</dim>
					<dim>56</dim>
					<dim>56</dim>
					<dim>4</dim>
				</port>
				<port id="2" precision="FP32">
					<dim>1</dim>
					<dim>6</dim>
					<dim>56</dim>
					<dim>56</dim>
				</port>
			</input>
			<output>
				<port id="3" precision="FP32" names="594">
					<dim>1</dim>
					<dim>24</dim>
					<dim>56</dim>
					<dim>56</dim>
				</port>
			</output>
		</layer>
		<layer id="390" name="Div_430/Fused_Mul__copy" type="Const" version="opset1">
			<data element_type="f32" shape="144, 24, 1, 1" offset="1413312" size="13824"/>
			<output>
				<port id="0" precision="FP32" names="features.4.conv.0.0.weight">
					<dim>144</dim>
					<dim>24</dim>
					<dim>1</dim>
					<dim>1</dim>
				</port>
			</output>
		</layer>
		<layer id="391" name="Conv_426" type="Convolution" version="opset1">
			<data strides="1, 1" dilations="1, 1" pads_begin="0, 0" pads_end="0, 0" auto_pad="explicit"/>
			<input>
				<port id="0" precision="FP32">
					<dim>1</dim>
					<dim>24</dim>
					<dim>56</dim>
					<dim>56</dim>
				</port>
				<port id="1" precision="FP32">
					<dim>144</dim>
					<dim>24</dim>
					<dim>1</dim>
					<dim>1</dim>
				</port>
			</input>
			<output>
				<port id="2" precision="FP32" names="601">
					<dim>1</dim>
					<dim>144</dim>
					<dim>56</dim>
					<dim>56</dim>
				</port>
			</output>
		</layer>
		<layer id="392" name="Clip_435" type="Clamp" version="opset1">
			<data min="0" max="6"/>
			<input>
				<port id="0" precision="FP32">
					<dim>1</dim>
					<dim>144</dim>
					<dim>56</dim>
					<dim>56</dim>
				</port>
			</input>
			<output>
				<port id="1" precision="FP32" names="604">
					<dim>1</dim>
					<dim>144</dim>
					<dim>56</dim>
					<dim>56</dim>
				</port>
			</output>
		</layer>
		<layer id="393" name="Div_440/Fused_Mul__copy" type="Const" version="opset1">
			<data element_type="f32" shape="144, 1, 1, 3, 3" offset="1427136" size="5184"/>
			<output>
				<port id="0" precision="FP32" names="features.4.conv.1.0.weight">
					<dim>144</dim>
					<dim>1</dim>
					<dim>1</dim>
					<dim>3</dim>
					<dim>3</dim>
				</port>
			</output>
		</layer>
		<layer id="394" name="Conv_436" type="GroupConvolution" version="opset1">
			<data strides="2, 2" pads_begin="1, 1" pads_end="1, 1" dilations="1, 1" auto_pad="explicit"/>
			<input>
				<port id="0" precision="FP32">
					<dim>1</dim>
					<dim>144</dim>
					<dim>56</dim>
					<dim>56</dim>
				</port>
				<port id="1" precision="FP32">
					<dim>144</dim>
					<dim>1</dim>
					<dim>1</dim>
					<dim>3</dim>
					<dim>3</dim>
				</port>
			</input>
			<output>
				<port id="2" precision="FP32" names="611">
					<dim>1</dim>
					<dim>144</dim>
					<dim>28</dim>
					<dim>28</dim>
				</port>
			</output>
		</layer>
		<layer id="395" name="Clip_445" type="Clamp" version="opset1">
			<data min="0" max="6"/>
			<input>
				<port id="0" precision="FP32">
					<dim>1</dim>
					<dim>144</dim>
					<dim>28</dim>
					<dim>28</dim>
				</port>
			</input>
			<output>
				<port id="1" precision="FP32" names="614">
					<dim>1</dim>
					<dim>144</dim>
					<dim>28</dim>
					<dim>28</dim>
				</port>
			</output>
		</layer>
		<layer id="396" name="Div_450/Fused_Mul__copy" type="Const" version="opset1">
			<data element_type="f32" shape="32, 144, 1, 1" offset="1432320" size="18432"/>
			<output>
				<port id="0" precision="FP32" names="features.4.conv.2.weight">
					<dim>32</dim>
					<dim>144</dim>
					<dim>1</dim>
					<dim>1</dim>
				</port>
			</output>
		</layer>
		<layer id="397" name="Conv_446" type="Convolution" version="opset1">
			<data strides="1, 1" dilations="1, 1" pads_begin="0, 0" pads_end="0, 0" auto_pad="explicit"/>
			<input>
				<port id="0" precision="FP32">
					<dim>1</dim>
					<dim>144</dim>
					<dim>28</dim>
					<dim>28</dim>
				</port>
				<port id="1" precision="FP32">
					<dim>32</dim>
					<dim>144</dim>
					<dim>1</dim>
					<dim>1</dim>
				</port>
			</input>
			<output>
				<port id="2" precision="FP32" names="621">
					<dim>1</dim>
					<dim>32</dim>
					<dim>28</dim>
					<dim>28</dim>
				</port>
			</output>
		</layer>
		<layer id="398" name="2160" type="Const" version="opset1">
			<data element_type="i64" shape="1, 1, 1, 1" offset="3456" size="8"/>
			<output>
				<port id="0" precision="I64" names="2160">
					<dim>1</dim>
					<dim>1</dim>
					<dim>1</dim>
					<dim>1</dim>
				</port>
			</output>
		</layer>
		<layer id="399" name="216067352" type="Const" version="opset1">
			<data element_type="i64" shape="1, 1, 1, 1" offset="3456" size="8"/>
			<output>
				<port id="0" precision="I64" names="2160">
					<dim>1</dim>
					<dim>1</dim>
					<dim>1</dim>
					<dim>1</dim>
				</port>
			</output>
		</layer>
		<layer id="400" name="Constant_467" type="Const" version="opset1">
			<data element_type="i64" shape="" offset="3456" size="8"/>
			<output>
				<port id="0" precision="I64" names="637"/>
			</output>
		</layer>
		<layer id="401" name="Shape_463" type="ShapeOf" version="opset3">
			<data output_type="i64"/>
			<input>
				<port id="0" precision="FP32">
					<dim>1</dim>
					<dim>32</dim>
					<dim>28</dim>
					<dim>28</dim>
				</port>
			</input>
			<output>
				<port id="1" precision="I64" names="633">
					<dim>4</dim>
				</port>
			</output>
		</layer>
		<layer id="402" name="Constant_464" type="Const" version="opset1">
			<data element_type="i32" shape="" offset="3464" size="4"/>
			<output>
				<port id="0" precision="I32" names="634"/>
			</output>
		</layer>
		<layer id="403" name="Gather_465/axis" type="Const" version="opset1">
			<data element_type="i64" shape="" offset="3456" size="8"/>
			<output>
				<port id="0" precision="I64"/>
			</output>
		</layer>
		<layer id="404" name="Gather_4652422" type="Gather" version="opset7">
			<data batch_dims="0"/>
			<input>
				<port id="0" precision="I64">
					<dim>4</dim>
				</port>
				<port id="1" precision="I32"/>
				<port id="2" precision="I64"/>
			</input>
			<output>
				<port id="3" precision="I64" names="635,636"/>
			</output>
		</layer>
		<layer id="405" name="Constant_468" type="Const" version="opset1">
			<data element_type="i64" shape="" offset="3468" size="8"/>
			<output>
				<port id="0" precision="I64" names="638"/>
			</output>
		</layer>
		<layer id="406" name="Range_469" type="Range" version="opset4">
			<data output_type="i64"/>
			<input>
				<port id="0" precision="I64"/>
				<port id="1" precision="I64"/>
				<port id="2" precision="I64"/>
			</input>
			<output>
				<port id="3" precision="I64" names="639">
					<dim>32</dim>
				</port>
			</output>
		</layer>
		<layer id="407" name="Slice_474/Concat2112967499" type="Const" version="opset1">
			<data element_type="i64" shape="1" offset="3456" size="8"/>
			<output>
				<port id="0" precision="I64">
					<dim>1</dim>
				</port>
			</output>
		</layer>
		<layer id="408" name="Slice_474/Concat211192113066611" type="Const" version="opset1">
			<data element_type="i64" shape="1" offset="3476" size="8"/>
			<output>
				<port id="0" precision="I64">
					<dim>1</dim>
				</port>
			</output>
		</layer>
		<layer id="409" name="Slice_474/Strides2113167754" type="Const" version="opset1">
			<data element_type="i64" shape="1" offset="3468" size="8"/>
			<output>
				<port id="0" precision="I64">
					<dim>1</dim>
				</port>
			</output>
		</layer>
		<layer id="410" name="Slice_474" type="StridedSlice" version="opset1">
			<data begin_mask="0" end_mask="0" new_axis_mask="0" shrink_axis_mask="0" ellipsis_mask="0"/>
			<input>
				<port id="0" precision="I64">
					<dim>32</dim>
				</port>
				<port id="1" precision="I64">
					<dim>1</dim>
				</port>
				<port id="2" precision="I64">
					<dim>1</dim>
				</port>
				<port id="3" precision="I64">
					<dim>1</dim>
				</port>
			</input>
			<output>
				<port id="4" precision="I64" names="644">
					<dim>8</dim>
				</port>
			</output>
		</layer>
		<layer id="411" name="Constant_489" type="Const" version="opset1">
			<data element_type="i64" shape="3" offset="3484" size="24"/>
			<output>
				<port id="0" precision="I64" names="661">
					<dim>3</dim>
				</port>
			</output>
		</layer>
		<layer id="412" name="Reshape_490" type="Reshape" version="opset1">
			<data special_zero="true"/>
			<input>
				<port id="0" precision="I64">
					<dim>8</dim>
				</port>
				<port id="1" precision="I64">
					<dim>3</dim>
				</port>
			</input>
			<output>
				<port id="2" precision="I64">
					<dim>8</dim>
					<dim>1</dim>
					<dim>1</dim>
				</port>
			</output>
		</layer>
		<layer id="413" name="Reshape_490/EltwiseUnsqueeze_input_port_1/value3404667229" type="Const" version="opset1">
			<data element_type="i64" shape="1" offset="3456" size="8"/>
			<output>
				<port id="0" precision="I64">
					<dim>1</dim>
				</port>
			</output>
		</layer>
		<layer id="414" name="Reshape_490/EltwiseUnsqueeze" type="Unsqueeze" version="opset1">
			<input>
				<port id="0" precision="I64">
					<dim>8</dim>
					<dim>1</dim>
					<dim>1</dim>
				</port>
				<port id="1" precision="I64">
					<dim>1</dim>
				</port>
			</input>
			<output>
				<port id="2" precision="I64" names="662">
					<dim>1</dim>
					<dim>8</dim>
					<dim>1</dim>
					<dim>1</dim>
				</port>
			</output>
		</layer>
		<layer id="415" name="Add_493" type="Add" version="opset1">
			<data auto_broadcast="numpy"/>
			<input>
				<port id="0" precision="I64">
					<dim>1</dim>
					<dim>1</dim>
					<dim>1</dim>
					<dim>1</dim>
				</port>
				<port id="1" precision="I64">
					<dim>1</dim>
					<dim>8</dim>
					<dim>1</dim>
					<dim>1</dim>
				</port>
			</input>
			<output>
				<port id="2" precision="I64" names="665">
					<dim>1</dim>
					<dim>8</dim>
					<dim>1</dim>
					<dim>1</dim>
				</port>
			</output>
		</layer>
		<layer id="416" name="Constant_479" type="Const" version="opset1">
			<data element_type="i64" shape="" offset="3456" size="8"/>
			<output>
				<port id="0" precision="I64" names="649"/>
			</output>
		</layer>
		<layer id="417" name="Shape_475" type="ShapeOf" version="opset3">
			<data output_type="i64"/>
			<input>
				<port id="0" precision="FP32">
					<dim>1</dim>
					<dim>32</dim>
					<dim>28</dim>
					<dim>28</dim>
				</port>
			</input>
			<output>
				<port id="1" precision="I64" names="645">
					<dim>4</dim>
				</port>
			</output>
		</layer>
		<layer id="418" name="Constant_476" type="Const" version="opset1">
			<data element_type="i32" shape="" offset="3508" size="4"/>
			<output>
				<port id="0" precision="I32" names="646"/>
			</output>
		</layer>
		<layer id="419" name="Gather_477/axis" type="Const" version="opset1">
			<data element_type="i64" shape="" offset="3456" size="8"/>
			<output>
				<port id="0" precision="I64"/>
			</output>
		</layer>
		<layer id="420" name="Gather_4772464" type="Gather" version="opset7">
			<data batch_dims="0"/>
			<input>
				<port id="0" precision="I64">
					<dim>4</dim>
				</port>
				<port id="1" precision="I32"/>
				<port id="2" precision="I64"/>
			</input>
			<output>
				<port id="3" precision="I64" names="647,648"/>
			</output>
		</layer>
		<layer id="421" name="Constant_480" type="Const" version="opset1">
			<data element_type="i64" shape="" offset="3468" size="8"/>
			<output>
				<port id="0" precision="I64" names="650"/>
			</output>
		</layer>
		<layer id="422" name="Range_481" type="Range" version="opset4">
			<data output_type="i64"/>
			<input>
				<port id="0" precision="I64"/>
				<port id="1" precision="I64"/>
				<port id="2" precision="I64"/>
			</input>
			<output>
				<port id="3" precision="I64" names="651">
					<dim>28</dim>
				</port>
			</output>
		</layer>
		<layer id="423" name="Constant_491" type="Const" version="opset1">
			<data element_type="i64" shape="2" offset="3512" size="16"/>
			<output>
				<port id="0" precision="I64" names="663">
					<dim>2</dim>
				</port>
			</output>
		</layer>
		<layer id="424" name="Reshape_492" type="Reshape" version="opset1">
			<data special_zero="true"/>
			<input>
				<port id="0" precision="I64">
					<dim>28</dim>
				</port>
				<port id="1" precision="I64">
					<dim>2</dim>
				</port>
			</input>
			<output>
				<port id="2" precision="I64">
					<dim>28</dim>
					<dim>1</dim>
				</port>
			</output>
		</layer>
		<layer id="425" name="Reshape_492/EltwiseUnsqueeze_input_port_1/value3405067481" type="Const" version="opset1">
			<data element_type="i64" shape="2" offset="3528" size="16"/>
			<output>
				<port id="0" precision="I64">
					<dim>2</dim>
				</port>
			</output>
		</layer>
		<layer id="426" name="Reshape_492/EltwiseUnsqueeze" type="Unsqueeze" version="opset1">
			<input>
				<port id="0" precision="I64">
					<dim>28</dim>
					<dim>1</dim>
				</port>
				<port id="1" precision="I64">
					<dim>2</dim>
				</port>
			</input>
			<output>
				<port id="2" precision="I64" names="664">
					<dim>1</dim>
					<dim>1</dim>
					<dim>28</dim>
					<dim>1</dim>
				</port>
			</output>
		</layer>
		<layer id="427" name="Add_494" type="Add" version="opset1">
			<data auto_broadcast="numpy"/>
			<input>
				<port id="0" precision="I64">
					<dim>1</dim>
					<dim>8</dim>
					<dim>1</dim>
					<dim>1</dim>
				</port>
				<port id="1" precision="I64">
					<dim>1</dim>
					<dim>1</dim>
					<dim>28</dim>
					<dim>1</dim>
				</port>
			</input>
			<output>
				<port id="2" precision="I64" names="666">
					<dim>1</dim>
					<dim>8</dim>
					<dim>28</dim>
					<dim>1</dim>
				</port>
			</output>
		</layer>
		<layer id="428" name="Constant_486" type="Const" version="opset1">
			<data element_type="i64" shape="" offset="3456" size="8"/>
			<output>
				<port id="0" precision="I64" names="656"/>
			</output>
		</layer>
		<layer id="429" name="Shape_482" type="ShapeOf" version="opset3">
			<data output_type="i64"/>
			<input>
				<port id="0" precision="FP32">
					<dim>1</dim>
					<dim>32</dim>
					<dim>28</dim>
…
		<edge from-layer="1144" from-port="0" to-layer="1145" to-port="1"/>
		<edge from-layer="1145" from-port="2" to-layer="1173" to-port="0"/>
		<edge from-layer="1146" from-port="0" to-layer="1148" to-port="0"/>
		<edge from-layer="1147" from-port="1" to-layer="1148" to-port="1"/>
		<edge from-layer="1148" from-port="2" to-layer="1149" to-port="0"/>
		<edge from-layer="1148" from-port="2" to-layer="1151" to-port="1"/>
		<edge from-layer="1149" from-port="1" to-layer="1150" to-port="1"/>
		<edge from-layer="1150" from-port="2" to-layer="1151" to-port="0"/>
		<edge from-layer="1151" from-port="3" to-layer="1152" to-port="1"/>
		<edge from-layer="1152" from-port="2" to-layer="1154" to-port="0"/>
		<edge from-layer="1153" from-port="0" to-layer="1154" to-port="1"/>
		<edge from-layer="1154" from-port="2" to-layer="1173" to-port="1"/>
		<edge from-layer="1155" from-port="0" to-layer="1157" to-port="0"/>
		<edge from-layer="1156" from-port="1" to-layer="1157" to-port="1"/>
		<edge from-layer="1157" from-port="2" to-layer="1160" to-port="1"/>
		<edge from-layer="1157" from-port="2" to-layer="1158" to-port="0"/>
		<edge from-layer="1158" from-port="1" to-layer="1159" to-port="1"/>
		<edge from-layer="1159" from-port="2" to-layer="1160" to-port="0"/>
		<edge from-layer="1160" from-port="3" to-layer="1161" to-port="1"/>
		<edge from-layer="1161" from-port="2" to-layer="1163" to-port="0"/>
		<edge from-layer="1162" from-port="0" to-layer="1163" to-port="1"/>
		<edge from-layer="1163" from-port="2" to-layer="1173" to-port="2"/>
		<edge from-layer="1164" from-port="0" to-layer="1166" to-port="0"/>
		<edge from-layer="1165" from-port="1" to-layer="1166" to-port="1"/>
		<edge from-layer="1166" from-port="2" to-layer="1167" to-port="0"/>
		<edge from-layer="1166" from-port="2" to-layer="1169" to-port="1"/>
		<edge from-layer="1167" from-port="1" to-layer="1168" to-port="1"/>
		<edge from-layer="1168" from-port="2" to-layer="1169" to-port="0"/>
		<edge from-layer="1169" from-port="3" to-layer="1170" to-port="1"/>
		<edge from-layer="1170" from-port="2" to-layer="1172" to-port="0"/>
		<edge from-layer="1171" from-port="0" to-layer="1172" to-port="1"/>
		<edge from-layer="1172" from-port="2" to-layer="1173" to-port="3"/>
		<edge from-layer="1173" from-port="4" to-layer="1186" to-port="1"/>
		<edge from-layer="1174" from-port="0" to-layer="1183" to-port="0"/>
		<edge from-layer="1175" from-port="0" to-layer="1177" to-port="1"/>
		<edge from-layer="1176" from-port="0" to-layer="1177" to-port="2"/>
		<edge from-layer="1177" from-port="3" to-layer="1181" to-port="0"/>
		<edge from-layer="1178" from-port="0" to-layer="1181" to-port="1"/>
		<edge from-layer="1179" from-port="0" to-layer="1181" to-port="2"/>
		<edge from-layer="1180" from-port="0" to-layer="1181" to-port="3"/>
		<edge from-layer="1181" from-port="4" to-layer="1182" to-port="0"/>
		<edge from-layer="1182" from-port="1" to-layer="1183" to-port="1"/>
		<edge from-layer="1183" from-port="2" to-layer="1184" to-port="0"/>
		<edge from-layer="1184" from-port="2" to-layer="1185" to-port="0"/>
		<edge from-layer="1185" from-port="1" to-layer="1186" to-port="2"/>
		<edge from-layer="1186" from-port="3" to-layer="1188" to-port="0"/>
		<edge from-layer="1187" from-port="0" to-layer="1188" to-port="1"/>
		<edge from-layer="1188" from-port="2" to-layer="1189" to-port="0"/>
		<edge from-layer="1189" from-port="1" to-layer="1191" to-port="0"/>
		<edge from-layer="1190" from-port="0" to-layer="1191" to-port="1"/>
		<edge from-layer="1191" from-port="2" to-layer="1192" to-port="0"/>
		<edge from-layer="1192" from-port="1" to-layer="1194" to-port="0"/>
		<edge from-layer="1193" from-port="0" to-layer="1194" to-port="1"/>
		<edge from-layer="1194" from-port="2" to-layer="1195" to-port="1"/>
		<edge from-layer="1195" from-port="2" to-layer="1295" to-port="0"/>
		<edge from-layer="1195" from-port="2" to-layer="1286" to-port="0"/>
		<edge from-layer="1195" from-port="2" to-layer="1277" to-port="0"/>
		<edge from-layer="1195" from-port="2" to-layer="1227" to-port="0"/>
		<edge from-layer="1195" from-port="2" to-layer="1215" to-port="0"/>
		<edge from-layer="1195" from-port="2" to-layer="1199" to-port="0"/>
		<edge from-layer="1196" from-port="0" to-layer="1243" to-port="0"/>
		<edge from-layer="1197" from-port="0" to-layer="1213" to-port="0"/>
		<edge from-layer="1198" from-port="0" to-layer="1204" to-port="0"/>
		<edge from-layer="1199" from-port="1" to-layer="1202" to-port="0"/>
		<edge from-layer="1200" from-port="0" to-layer="1202" to-port="1"/>
		<edge from-layer="1201" from-port="0" to-layer="1202" to-port="2"/>
		<edge from-layer="1202" from-port="3" to-layer="1204" to-port="1"/>
		<edge from-layer="1203" from-port="0" to-layer="1204" to-port="2"/>
		<edge from-layer="1204" from-port="3" to-layer="1208" to-port="0"/>
		<edge from-layer="1205" from-port="0" to-layer="1208" to-port="1"/>
		<edge from-layer="1206" from-port="0" to-layer="1208" to-port="2"/>
		<edge from-layer="1207" from-port="0" to-layer="1208" to-port="3"/>
		<edge from-layer="1208" from-port="4" to-layer="1210" to-port="0"/>
		<edge from-layer="1209" from-port="0" to-layer="1210" to-port="1"/>
		<edge from-layer="1210" from-port="2" to-layer="1252" to-port="0"/>
		<edge from-layer="1210" from-port="2" to-layer="1212" to-port="0"/>
		<edge from-layer="1211" from-port="0" to-layer="1212" to-port="1"/>
		<edge from-layer="1212" from-port="2" to-layer="1213" to-port="1"/>
		<edge from-layer="1213" from-port="2" to-layer="1225" to-port="0"/>
		<edge from-layer="1214" from-port="0" to-layer="1220" to-port="0"/>
		<edge from-layer="1215" from-port="1" to-layer="1218" to-port="0"/>
		<edge from-layer="1216" from-port="0" to-layer="1218" to-port="1"/>
		<edge from-layer="1217" from-port="0" to-layer="1218" to-port="2"/>
		<edge from-layer="1218" from-port="3" to-layer="1220" to-port="1"/>
		<edge from-layer="1219" from-port="0" to-layer="1220" to-port="2"/>
		<edge from-layer="1220" from-port="3" to-layer="1222" to-port="0"/>
		<edge from-layer="1221" from-port="0" to-layer="1222" to-port="1"/>
		<edge from-layer="1222" from-port="2" to-layer="1261" to-port="0"/>
		<edge from-layer="1222" from-port="2" to-layer="1224" to-port="0"/>
		<edge from-layer="1223" from-port="0" to-layer="1224" to-port="1"/>
		<edge from-layer="1224" from-port="2" to-layer="1225" to-port="1"/>
		<edge from-layer="1225" from-port="2" to-layer="1235" to-port="0"/>
		<edge from-layer="1226" from-port="0" to-layer="1232" to-port="0"/>
		<edge from-layer="1227" from-port="1" to-layer="1230" to-port="0"/>
		<edge from-layer="1228" from-port="0" to-layer="1230" to-port="1"/>
		<edge from-layer="1229" from-port="0" to-layer="1230" to-port="2"/>
		<edge from-layer="1230" from-port="3" to-layer="1232" to-port="1"/>
		<edge from-layer="1231" from-port="0" to-layer="1232" to-port="2"/>
		<edge from-layer="1232" from-port="3" to-layer="1234" to-port="0"/>
		<edge from-layer="1232" from-port="3" to-layer="1270" to-port="0"/>
		<edge from-layer="1233" from-port="0" to-layer="1234" to-port="1"/>
		<edge from-layer="1234" from-port="2" to-layer="1235" to-port="1"/>
		<edge from-layer="1235" from-port="2" to-layer="1236" to-port="0"/>
		<edge from-layer="1236" from-port="1" to-layer="1269" to-port="2"/>
		<edge from-layer="1236" from-port="1" to-layer="1251" to-port="2"/>
		<edge from-layer="1236" from-port="1" to-layer="1256" to-port="0"/>
		<edge from-layer="1236" from-port="1" to-layer="1259" to-port="0"/>
		<edge from-layer="1236" from-port="1" to-layer="1260" to-port="2"/>
		<edge from-layer="1236" from-port="1" to-layer="1250" to-port="0"/>
		<edge from-layer="1236" from-port="1" to-layer="1265" to-port="0"/>
		<edge from-layer="1236" from-port="1" to-layer="1268" to-port="0"/>
		<edge from-layer="1236" from-port="1" to-layer="1247" to-port="0"/>
		<edge from-layer="1236" from-port="1" to-layer="1242" to-port="2"/>
		<edge from-layer="1236" from-port="1" to-layer="1284" to-port="1"/>
		<edge from-layer="1236" from-port="1" to-layer="1238" to-port="0"/>
		<edge from-layer="1236" from-port="1" to-layer="1241" to-port="0"/>
		<edge from-layer="1237" from-port="0" to-layer="1239" to-port="0"/>
		<edge from-layer="1238" from-port="1" to-layer="1239" to-port="1"/>
		<edge from-layer="1239" from-port="2" to-layer="1240" to-port="0"/>
		<edge from-layer="1239" from-port="2" to-layer="1242" to-port="1"/>
		<edge from-layer="1240" from-port="1" to-layer="1241" to-port="1"/>
		<edge from-layer="1241" from-port="2" to-layer="1242" to-port="0"/>
		<edge from-layer="1242" from-port="3" to-layer="1243" to-port="1"/>
		<edge from-layer="1243" from-port="2" to-layer="1245" to-port="0"/>
		<edge from-layer="1244" from-port="0" to-layer="1245" to-port="1"/>
		<edge from-layer="1245" from-port="2" to-layer="1273" to-port="0"/>
		<edge from-layer="1246" from-port="0" to-layer="1248" to-port="0"/>
		<edge from-layer="1247" from-port="1" to-layer="1248" to-port="1"/>
		<edge from-layer="1248" from-port="2" to-layer="1251" to-port="1"/>
		<edge from-layer="1248" from-port="2" to-layer="1249" to-port="0"/>
		<edge from-layer="1249" from-port="1" to-layer="1250" to-port="1"/>
		<edge from-layer="1250" from-port="2" to-layer="1251" to-port="0"/>
		<edge from-layer="1251" from-port="3" to-layer="1252" to-port="1"/>
		<edge from-layer="1252" from-port="2" to-layer="1254" to-port="0"/>
		<edge from-layer="1253" from-port="0" to-layer="1254" to-port="1"/>
		<edge from-layer="1254" from-port="2" to-layer="1273" to-port="1"/>
		<edge from-layer="1255" from-port="0" to-layer="1257" to-port="0"/>
		<edge from-layer="1256" from-port="1" to-layer="1257" to-port="1"/>
		<edge from-layer="1257" from-port="2" to-layer="1258" to-port="0"/>
		<edge from-layer="1257" from-port="2" to-layer="1260" to-port="1"/>
		<edge from-layer="1258" from-port="1" to-layer="1259" to-port="1"/>
		<edge from-layer="1259" from-port="2" to-layer="1260" to-port="0"/>
		<edge from-layer="1260" from-port="3" to-layer="1261" to-port="1"/>
		<edge from-layer="1261" from-port="2" to-layer="1263" to-port="0"/>
		<edge from-layer="1262" from-port="0" to-layer="1263" to-port="1"/>
		<edge from-layer="1263" from-port="2" to-layer="1273" to-port="2"/>
		<edge from-layer="1264" from-port="0" to-layer="1266" to-port="0"/>
		<edge from-layer="1265" from-port="1" to-layer="1266" to-port="1"/>
		<edge from-layer="1266" from-port="2" to-layer="1269" to-port="1"/>
		<edge from-layer="1266" from-port="2" to-layer="1267" to-port="0"/>
		<edge from-layer="1267" from-port="1" to-layer="1268" to-port="1"/>
		<edge from-layer="1268" from-port="2" to-layer="1269" to-port="0"/>
		<edge from-layer="1269" from-port="3" to-layer="1270" to-port="1"/>
		<edge from-layer="1270" from-port="2" to-layer="1272" to-port="0"/>
		<edge from-layer="1271" from-port="0" to-layer="1272" to-port="1"/>
		<edge from-layer="1272" from-port="2" to-layer="1273" to-port="3"/>
		<edge from-layer="1273" from-port="4" to-layer="1286" to-port="1"/>
		<edge from-layer="1274" from-port="0" to-layer="1283" to-port="0"/>
		<edge from-layer="1275" from-port="0" to-layer="1277" to-port="1"/>
		<edge from-layer="1276" from-port="0" to-layer="1277" to-port="2"/>
		<edge from-layer="1277" from-port="3" to-layer="1281" to-port="0"/>
		<edge from-layer="1278" from-port="0" to-layer="1281" to-port="1"/>
		<edge from-layer="1279" from-port="0" to-layer="1281" to-port="2"/>
		<edge from-layer="1280" from-port="0" to-layer="1281" to-port="3"/>
		<edge from-layer="1281" from-port="4" to-layer="1282" to-port="0"/>
		<edge from-layer="1282" from-port="1" to-layer="1283" to-port="1"/>
		<edge from-layer="1283" from-port="2" to-layer="1284" to-port="0"/>
		<edge from-layer="1284" from-port="2" to-layer="1285" to-port="0"/>
		<edge from-layer="1285" from-port="1" to-layer="1286" to-port="2"/>
		<edge from-layer="1286" from-port="3" to-layer="1288" to-port="0"/>
		<edge from-layer="1287" from-port="0" to-layer="1288" to-port="1"/>
		<edge from-layer="1288" from-port="2" to-layer="1289" to-port="0"/>
		<edge from-layer="1289" from-port="1" to-layer="1291" to-port="0"/>
		<edge from-layer="1290" from-port="0" to-layer="1291" to-port="1"/>
		<edge from-layer="1291" from-port="2" to-layer="1292" to-port="0"/>
		<edge from-layer="1292" from-port="1" to-layer="1294" to-port="0"/>
		<edge from-layer="1293" from-port="0" to-layer="1294" to-port="1"/>
		<edge from-layer="1294" from-port="2" to-layer="1295" to-port="1"/>
		<edge from-layer="1295" from-port="2" to-layer="1299" to-port="0"/>
		<edge from-layer="1295" from-port="2" to-layer="1386" to-port="0"/>
		<edge from-layer="1295" from-port="2" to-layer="1377" to-port="0"/>
		<edge from-layer="1295" from-port="2" to-layer="1327" to-port="0"/>
		<edge from-layer="1295" from-port="2" to-layer="1315" to-port="0"/>
		<edge from-layer="1296" from-port="0" to-layer="1343" to-port="0"/>
		<edge from-layer="1297" from-port="0" to-layer="1313" to-port="0"/>
		<edge from-layer="1298" from-port="0" to-layer="1304" to-port="0"/>
		<edge from-layer="1299" from-port="1" to-layer="1302" to-port="0"/>
		<edge from-layer="1300" from-port="0" to-layer="1302" to-port="1"/>
		<edge from-layer="1301" from-port="0" to-layer="1302" to-port="2"/>
		<edge from-layer="1302" from-port="3" to-layer="1304" to-port="1"/>
		<edge from-layer="1303" from-port="0" to-layer="1304" to-port="2"/>
		<edge from-layer="1304" from-port="3" to-layer="1308" to-port="0"/>
		<edge from-layer="1305" from-port="0" to-layer="1308" to-port="1"/>
		<edge from-layer="1306" from-port="0" to-layer="1308" to-port="2"/>
		<edge from-layer="1307" from-port="0" to-layer="1308" to-port="3"/>
		<edge from-layer="1308" from-port="4" to-layer="1310" to-port="0"/>
		<edge from-layer="1309" from-port="0" to-layer="1310" to-port="1"/>
		<edge from-layer="1310" from-port="2" to-layer="1312" to-port="0"/>
		<edge from-layer="1310" from-port="2" to-layer="1352" to-port="0"/>
		<edge from-layer="1311" from-port="0" to-layer="1312" to-port="1"/>
		<edge from-layer="1312" from-port="2" to-layer="1313" to-port="1"/>
		<edge from-layer="1313" from-port="2" to-layer="1325" to-port="0"/>
		<edge from-layer="1314" from-port="0" to-layer="1320" to-port="0"/>
		<edge from-layer="1315" from-port="1" to-layer="1318" to-port="0"/>
		<edge from-layer="1316" from-port="0" to-layer="1318" to-port="1"/>
		<edge from-layer="1317" from-port="0" to-layer="1318" to-port="2"/>
		<edge from-layer="1318" from-port="3" to-layer="1320" to-port="1"/>
		<edge from-layer="1319" from-port="0" to-layer="1320" to-port="2"/>
		<edge from-layer="1320" from-port="3" to-layer="1322" to-port="0"/>
		<edge from-layer="1321" from-port="0" to-layer="1322" to-port="1"/>
		<edge from-layer="1322" from-port="2" to-layer="1361" to-port="0"/>
		<edge from-layer="1322" from-port="2" to-layer="1324" to-port="0"/>
		<edge from-layer="1323" from-port="0" to-layer="1324" to-port="1"/>
		<edge from-layer="1324" from-port="2" to-layer="1325" to-port="1"/>
		<edge from-layer="1325" from-port="2" to-layer="1335" to-port="0"/>
		<edge from-layer="1326" from-port="0" to-layer="1332" to-port="0"/>
		<edge from-layer="1327" from-port="1" to-layer="1330" to-port="0"/>
		<edge from-layer="1328" from-port="0" to-layer="1330" to-port="1"/>
		<edge from-layer="1329" from-port="0" to-layer="1330" to-port="2"/>
		<edge from-layer="1330" from-port="3" to-layer="1332" to-port="1"/>
		<edge from-layer="1331" from-port="0" to-layer="1332" to-port="2"/>
		<edge from-layer="1332" from-port="3" to-layer="1370" to-port="0"/>
		<edge from-layer="1332" from-port="3" to-layer="1334" to-port="0"/>
		<edge from-layer="1333" from-port="0" to-layer="1334" to-port="1"/>
		<edge from-layer="1334" from-port="2" to-layer="1335" to-port="1"/>
		<edge from-layer="1335" from-port="2" to-layer="1336" to-port="0"/>
		<edge from-layer="1336" from-port="1" to-layer="1350" to-port="0"/>
		<edge from-layer="1336" from-port="1" to-layer="1360" to-port="2"/>
		<edge from-layer="1336" from-port="1" to-layer="1365" to-port="0"/>
		<edge from-layer="1336" from-port="1" to-layer="1368" to-port="0"/>
		<edge from-layer="1336" from-port="1" to-layer="1359" to-port="0"/>
		<edge from-layer="1336" from-port="1" to-layer="1369" to-port="2"/>
		<edge from-layer="1336" from-port="1" to-layer="1356" to-port="0"/>
		<edge from-layer="1336" from-port="1" to-layer="1384" to-port="1"/>
		<edge from-layer="1336" from-port="1" to-layer="1351" to-port="2"/>
		<edge from-layer="1336" from-port="1" to-layer="1338" to-port="0"/>
		<edge from-layer="1336" from-port="1" to-layer="1347" to-port="0"/>
		<edge from-layer="1336" from-port="1" to-layer="1341" to-port="0"/>
		<edge from-layer="1336" from-port="1" to-layer="1342" to-port="2"/>
		<edge from-layer="1337" from-port="0" to-layer="1339" to-port="0"/>
		<edge from-layer="1338" from-port="1" to-layer="1339" to-port="1"/>
		<edge from-layer="1339" from-port="2" to-layer="1342" to-port="1"/>
		<edge from-layer="1339" from-port="2" to-layer="1340" to-port="0"/>
		<edge from-layer="1340" from-port="1" to-layer="1341" to-port="1"/>
		<edge from-layer="1341" from-port="2" to-layer="1342" to-port="0"/>
		<edge from-layer="1342" from-port="3" to-layer="1343" to-port="1"/>
		<edge from-layer="1343" from-port="2" to-layer="1345" to-port="0"/>
		<edge from-layer="1344" from-port="0" to-layer="1345" to-port="1"/>
		<edge from-layer="1345" from-port="2" to-layer="1373" to-port="0"/>
		<edge from-layer="1346" from-port="0" to-layer="1348" to-port="0"/>
		<edge from-layer="1347" from-port="1" to-layer="1348" to-port="1"/>
		<edge from-layer="1348" from-port="2" to-layer="1351" to-port="1"/>
		<edge from-layer="1348" from-port="2" to-layer="1349" to-port="0"/>
		<edge from-layer="1349" from-port="1" to-layer="1350" to-port="1"/>
		<edge from-layer="1350" from-port="2" to-layer="1351" to-port="0"/>
		<edge from-layer="1351" from-port="3" to-layer="1352" to-port="1"/>
		<edge from-layer="1352" from-port="2" to-layer="1354" to-port="0"/>
		<edge from-layer="1353" from-port="0" to-layer="1354" to-port="1"/>
		<edge from-layer="1354" from-port="2" to-layer="1373" to-port="1"/>
		<edge from-layer="1355" from-port="0" to-layer="1357" to-port="0"/>
		<edge from-layer="1356" from-port="1" to-layer="1357" to-port="1"/>
		<edge from-layer="1357" from-port="2" to-layer="1360" to-port="1"/>
		<edge from-layer="1357" from-port="2" to-layer="1358" to-port="0"/>
		<edge from-layer="1358" from-port="1" to-layer="1359" to-port="1"/>
		<edge from-layer="1359" from-port="2" to-layer="1360" to-port="0"/>
		<edge from-layer="1360" from-port="3" to-layer="1361" to-port="1"/>
		<edge from-layer="1361" from-port="2" to-layer="1363" to-port="0"/>
		<edge from-layer="1362" from-port="0" to-layer="1363" to-port="1"/>
		<edge from-layer="1363" from-port="2" to-layer="1373" to-port="2"/>
		<edge from-layer="1364" from-port="0" to-layer="1366" to-port="0"/>
		<edge from-layer="1365" from-port="1" to-layer="1366" to-port="1"/>
		<edge from-layer="1366" from-port="2" to-layer="1369" to-port="1"/>
		<edge from-layer="1366" from-port="2" to-layer="1367" to-port="0"/>
		<edge from-layer="1367" from-port="1" to-layer="1368" to-port="1"/>
		<edge from-layer="1368" from-port="2" to-layer="1369" to-port="0"/>
		<edge from-layer="1369" from-port="3" to-layer="1370" to-port="1"/>
		<edge from-layer="1370" from-port="2" to-layer="1372" to-port="0"/>
		<edge from-layer="1371" from-port="0" to-layer="1372" to-port="1"/>
		<edge from-layer="1372" from-port="2" to-layer="1373" to-port="3"/>
		<edge from-layer="1373" from-port="4" to-layer="1386" to-port="1"/>
		<edge from-layer="1374" from-port="0" to-layer="1383" to-port="0"/>
		<edge from-layer="1375" from-port="0" to-layer="1377" to-port="1"/>
		<edge from-layer="1376" from-port="0" to-layer="1377" to-port="2"/>
		<edge from-layer="1377" from-port="3" to-layer="1381" to-port="0"/>
		<edge from-layer="1378" from-port="0" to-layer="1381" to-port="1"/>
		<edge from-layer="1379" from-port="0" to-layer="1381" to-port="2"/>
		<edge from-layer="1380" from-port="0" to-layer="1381" to-port="3"/>
		<edge from-layer="1381" from-port="4" to-layer="1382" to-port="0"/>
		<edge from-layer="1382" from-port="1" to-layer="1383" to-port="1"/>
		<edge from-layer="1383" from-port="2" to-layer="1384" to-port="0"/>
		<edge from-layer="1384" from-port="2" to-layer="1385" to-port="0"/>
		<edge from-layer="1385" from-port="1" to-layer="1386" to-port="2"/>
		<edge from-layer="1386" from-port="3" to-layer="1388" to-port="0"/>
		<edge from-layer="1387" from-port="0" to-layer="1388" to-port="1"/>
		<edge from-layer="1388" from-port="2" to-layer="1389" to-port="0"/>
		<edge from-layer="1389" from-port="1" to-layer="1391" to-port="0"/>
		<edge from-layer="1390" from-port="0" to-layer="1391" to-port="1"/>
		<edge from-layer="1391" from-port="2" to-layer="1392" to-port="0"/>
		<edge from-layer="1392" from-port="1" to-layer="1394" to-port="0"/>
		<edge from-layer="1393" from-port="0" to-layer="1394" to-port="1"/>
		<edge from-layer="1394" from-port="2" to-layer="1398" to-port="0"/>
		<edge from-layer="1394" from-port="2" to-layer="1494" to-port="0"/>
		<edge from-layer="1394" from-port="2" to-layer="1485" to-port="0"/>
		<edge from-layer="1394" from-port="2" to-layer="1476" to-port="0"/>
		<edge from-layer="1394" from-port="2" to-layer="1426" to-port="0"/>
		<edge from-layer="1394" from-port="2" to-layer="1414" to-port="0"/>
		<edge from-layer="1395" from-port="0" to-layer="1442" to-port="0"/>
		<edge from-layer="1396" from-port="0" to-layer="1412" to-port="0"/>
		<edge from-layer="1397" from-port="0" to-layer="1403" to-port="0"/>
		<edge from-layer="1398" from-port="1" to-layer="1401" to-port="0"/>
		<edge from-layer="1399" from-port="0" to-layer="1401" to-port="1"/>
		<edge from-layer="1400" from-port="0" to-layer="1401" to-port="2"/>
		<edge from-layer="1401" from-port="3" to-layer="1403" to-port="1"/>
		<edge from-layer="1402" from-port="0" to-layer="1403" to-port="2"/>
		<edge from-layer="1403" from-port="3" to-layer="1407" to-port="0"/>
		<edge from-layer="1404" from-port="0" to-layer="1407" to-port="1"/>
		<edge from-layer="1405" from-port="0" to-layer="1407" to-port="2"/>
		<edge from-layer="1406" from-port="0" to-layer="1407" to-port="3"/>
		<edge from-layer="1407" from-port="4" to-layer="1409" to-port="0"/>
		<edge from-layer="1408" from-port="0" to-layer="1409" to-port="1"/>
		<edge from-layer="1409" from-port="2" to-layer="1451" to-port="0"/>
		<edge from-layer="1409" from-port="2" to-layer="1411" to-port="0"/>
		<edge from-layer="1410" from-port="0" to-layer="1411" to-port="1"/>
		<edge from-layer="1411" from-port="2" to-layer="1412" to-port="1"/>
		<edge from-layer="1412" from-port="2" to-layer="1424" to-port="0"/>
		<edge from-layer="1413" from-port="0" to-layer="1419" to-port="0"/>
		<edge from-layer="1414" from-port="1" to-layer="1417" to-port="0"/>
		<edge from-layer="1415" from-port="0" to-layer="1417" to-port="1"/>
		<edge from-layer="1416" from-port="0" to-layer="1417" to-port="2"/>
		<edge from-layer="1417" from-port="3" to-layer="1419" to-port="1"/>
		<edge from-layer="1418" from-port="0" to-layer="1419" to-port="2"/>
		<edge from-layer="1419" from-port="3" to-layer="1421" to-port="0"/>
		<edge from-layer="1420" from-port="0" to-layer="1421" to-port="1"/>
		<edge from-layer="1421" from-port="2" to-layer="1460" to-port="0"/>
		<edge from-layer="1421" from-port="2" to-layer="1423" to-port="0"/>
		<edge from-layer="1422" from-port="0" to-layer="1423" to-port="1"/>
		<edge from-layer="1423" from-port="2" to-layer="1424" to-port="1"/>
		<edge from-layer="1424" from-port="2" to-layer="1434" to-port="0"/>
		<edge from-layer="1425" from-port="0" to-layer="1431" to-port="0"/>
		<edge from-layer="1426" from-port="1" to-layer="1429" to-port="0"/>
		<edge from-layer="1427" from-port="0" to-layer="1429" to-port="1"/>
		<edge from-layer="1428" from-port="0" to-layer="1429" to-port="2"/>
		<edge from-layer="1429" from-port="3" to-layer="1431" to-port="1"/>
		<edge from-layer="1430" from-port="0" to-layer="1431" to-port="2"/>
		<edge from-layer="1431" from-port="3" to-layer="1433" to-port="0"/>
		<edge from-layer="1431" from-port="3" to-layer="1469" to-port="0"/>
		<edge from-layer="1432" from-port="0" to-layer="1433" to-port="1"/>
		<edge from-layer="1433" from-port="2" to-layer="1434" to-port="1"/>
		<edge from-layer="1434" from-port="2" to-layer="1435" to-port="0"/>
		<edge from-layer="1435" from-port="1" to-layer="1449" to-port="0"/>
		<edge from-layer="1435" from-port="1" to-layer="1450" to-port="2"/>
		<edge from-layer="1435" from-port="1" to-layer="1455" to-port="0"/>
		<edge from-layer="1435" from-port="1" to-layer="1459" to-port="2"/>
		<edge from-layer="1435" from-port="1" to-layer="1458" to-port="0"/>
		<edge from-layer="1435" from-port="1" to-layer="1464" to-port="0"/>
		<edge from-layer="1435" from-port="1" to-layer="1467" to-port="0"/>
		<edge from-layer="1435" from-port="1" to-layer="1468" to-port="2"/>
		<edge from-layer="1435" from-port="1" to-layer="1483" to-port="1"/>
		<edge from-layer="1435" from-port="1" to-layer="1440" to-port="0"/>
		<edge from-layer="1435" from-port="1" to-layer="1446" to-port="0"/>
		<edge from-layer="1435" from-port="1" to-layer="1437" to-port="0"/>
		<edge from-layer="1435" from-port="1" to-layer="1441" to-port="2"/>
		<edge from-layer="1436" from-port="0" to-layer="1438" to-port="0"/>
		<edge from-layer="1437" from-port="1" to-layer="1438" to-port="1"/>
		<edge from-layer="1438" from-port="2" to-layer="1439" to-port="0"/>
		<edge from-layer="1438" from-port="2" to-layer="1441" to-port="1"/>
		<edge from-layer="1439" from-port="1" to-layer="1440" to-port="1"/>
		<edge from-layer="1440" from-port="2" to-layer="1441" to-port="0"/>
		<edge from-layer="1441" from-port="3" to-layer="1442" to-port="1"/>
		<edge from-layer="1442" from-port="2" to-layer="1444" to-port="0"/>
		<edge from-layer="1443" from-port="0" to-layer="1444" to-port="1"/>
		<edge from-layer="1444" from-port="2" to-layer="1472" to-port="0"/>
		<edge from-layer="1445" from-port="0" to-layer="1447" to-port="0"/>
		<edge from-layer="1446" from-port="1" to-layer="1447" to-port="1"/>
		<edge from-layer="1447" from-port="2" to-layer="1448" to-port="0"/>
		<edge from-layer="1447" from-port="2" to-layer="1450" to-port="1"/>
		<edge from-layer="1448" from-port="1" to-layer="1449" to-port="1"/>
		<edge from-layer="1449" from-port="2" to-layer="1450" to-port="0"/>
		<edge from-layer="1450" from-port="3" to-layer="1451" to-port="1"/>
		<edge from-layer="1451" from-port="2" to-layer="1453" to-port="0"/>
		<edge from-layer="1452" from-port="0" to-layer="1453" to-port="1"/>
		<edge from-layer="1453" from-port="2" to-layer="1472" to-port="1"/>
		<edge from-layer="1454" from-port="0" to-layer="1456" to-port="0"/>
		<edge from-layer="1455" from-port="1" to-layer="1456" to-port="1"/>
		<edge from-layer="1456" from-port="2" to-layer="1459" to-port="1"/>
		<edge from-layer="1456" from-port="2" to-layer="1457" to-port="0"/>
		<edge from-layer="1457" from-port="1" to-layer="1458" to-port="1"/>
		<edge from-layer="1458" from-port="2" to-layer="1459" to-port="0"/>
		<edge from-layer="1459" from-port="3" to-layer="1460" to-port="1"/>
		<edge from-layer="1460" from-port="2" to-layer="1462" to-port="0"/>
		<edge from-layer="1461" from-port="0" to-layer="1462" to-port="1"/>
		<edge from-layer="1462" from-port="2" to-layer="1472" to-port="2"/>
		<edge from-layer="1463" from-port="0" to-layer="1465" to-port="0"/>
		<edge from-layer="1464" from-port="1" to-layer="1465" to-port="1"/>
		<edge from-layer="1465" from-port="2" to-layer="1468" to-port="1"/>
		<edge from-layer="1465" from-port="2" to-layer="1466" to-port="0"/>
		<edge from-layer="1466" from-port="1" to-layer="1467" to-port="1"/>
		<edge from-layer="1467" from-port="2" to-layer="1468" to-port="0"/>
		<edge from-layer="1468" from-port="3" to-layer="1469" to-port="1"/>
		<edge from-layer="1469" from-port="2" to-layer="1471" to-port="0"/>
		<edge from-layer="1470" from-port="0" to-layer="1471" to-port="1"/>
		<edge from-layer="1471" from-port="2" to-layer="1472" to-port="3"/>
		<edge from-layer="1472" from-port="4" to-layer="1485" to-port="1"/>
		<edge from-layer="1473" from-port="0" to-layer="1482" to-port="0"/>
		<edge from-layer="1474" from-port="0" to-layer="1476" to-port="1"/>
		<edge from-layer="1475" from-port="0" to-layer="1476" to-port="2"/>
		<edge from-layer="1476" from-port="3" to-layer="1480" to-port="0"/>
		<edge from-layer="1477" from-port="0" to-layer="1480" to-port="1"/>
		<edge from-layer="1478" from-port="0" to-layer="1480" to-port="2"/>
		<edge from-layer="1479" from-port="0" to-layer="1480" to-port="3"/>
		<edge from-layer="1480" from-port="4" to-layer="1481" to-port="0"/>
		<edge from-layer="1481" from-port="1" to-layer="1482" to-port="1"/>
		<edge from-layer="1482" from-port="2" to-layer="1483" to-port="0"/>
		<edge from-layer="1483" from-port="2" to-layer="1484" to-port="0"/>
		<edge from-layer="1484" from-port="1" to-layer="1485" to-port="2"/>
		<edge from-layer="1485" from-port="3" to-layer="1487" to-port="0"/>
		<edge from-layer="1486" from-port="0" to-layer="1487" to-port="1"/>
		<edge from-layer="1487" from-port="2" to-layer="1488" to-port="0"/>
		<edge from-layer="1488" from-port="1" to-layer="1490" to-port="0"/>
		<edge from-layer="1489" from-port="0" to-layer="1490" to-port="1"/>
		<edge from-layer="1490" from-port="2" to-layer="1491" to-port="0"/>
		<edge from-layer="1491" from-port="1" to-layer="1493" to-port="0"/>
		<edge from-layer="1492" from-port="0" to-layer="1493" to-port="1"/>
		<edge from-layer="1493" from-port="2" to-layer="1494" to-port="1"/>
		<edge from-layer="1494" from-port="2" to-layer="1498" to-port="0"/>
		<edge from-layer="1494" from-port="2" to-layer="1514" to-port="0"/>
		<edge from-layer="1494" from-port="2" to-layer="1594" to-port="0"/>
		<edge from-layer="1494" from-port="2" to-layer="1526" to-port="0"/>
		<edge from-layer="1494" from-port="2" to-layer="1585" to-port="0"/>
		<edge from-layer="1494" from-port="2" to-layer="1576" to-port="0"/>
		<edge from-layer="1495" from-port="0" to-layer="1542" to-port="0"/>
		<edge from-layer="1496" from-port="0" to-layer="1512" to-port="0"/>
		<edge from-layer="1497" from-port="0" to-layer="1503" to-port="0"/>
		<edge from-layer="1498" from-port="1" to-layer="1501" to-port="0"/>
		<edge from-layer="1499" from-port="0" to-layer="1501" to-port="1"/>
		<edge from-layer="1500" from-port="0" to-layer="1501" to-port="2"/>
		<edge from-layer="1501" from-port="3" to-layer="1503" to-port="1"/>
		<edge from-layer="1502" from-port="0" to-layer="1503" to-port="2"/>
		<edge from-layer="1503" from-port="3" to-layer="1507" to-port="0"/>
		<edge from-layer="1504" from-port="0" to-layer="1507" to-port="1"/>
		<edge from-layer="1505" from-port="0" to-layer="1507" to-port="2"/>
		<edge from-layer="1506" from-port="0" to-layer="1507" to-port="3"/>
		<edge from-layer="1507" from-port="4" to-layer="1509" to-port="0"/>
		<edge from-layer="1508" from-port="0" to-layer="1509" to-port="1"/>
		<edge from-layer="1509" from-port="2" to-layer="1511" to-port="0"/>
		<edge from-layer="1509" from-port="2" to-layer="1551" to-port="0"/>
		<edge from-layer="1510" from-port="0" to-layer="1511" to-port="1"/>
		<edge from-layer="1511" from-port="2" to-layer="1512" to-port="1"/>
		<edge from-layer="1512" from-port="2" to-layer="1524" to-port="0"/>
		<edge from-layer="1513" from-port="0" to-layer="1519" to-port="0"/>
		<edge from-layer="1514" from-port="1" to-layer="1517" to-port="0"/>
		<edge from-layer="1515" from-port="0" to-layer="1517" to-port="1"/>
		<edge from-layer="1516" from-port="0" to-layer="1517" to-port="2"/>
		<edge from-layer="1517" from-port="3" to-layer="1519" to-port="1"/>
		<edge from-layer="1518" from-port="0" to-layer="1519" to-port="2"/>
		<edge from-layer="1519" from-port="3" to-layer="1521" to-port="0"/>
		<edge from-layer="1520" from-port="0" to-layer="1521" to-port="1"/>
		<edge from-layer="1521" from-port="2" to-layer="1560" to-port="0"/>
		<edge from-layer="1521" from-port="2" to-layer="1523" to-port="0"/>
		<edge from-layer="1522" from-port="0" to-layer="1523" to-port="1"/>
		<edge from-layer="1523" from-port="2" to-layer="1524" to-port="1"/>
		<edge from-layer="1524" from-port="2" to-layer="1534" to-port="0"/>
		<edge from-layer="1525" from-port="0" to-layer="1531" to-port="0"/>
		<edge from-layer="1526" from-port="1" to-layer="1529" to-port="0"/>
		<edge from-layer="1527" from-port="0" to-layer="1529" to-port="1"/>
		<edge from-layer="1528" from-port="0" to-layer="1529" to-port="2"/>
		<edge from-layer="1529" from-port="3" to-layer="1531" to-port="1"/>
		<edge from-layer="1530" from-port="0" to-layer="1531" to-port="2"/>
		<edge from-layer="1531" from-port="3" to-layer="1533" to-port="0"/>
		<edge from-layer="1531" from-port="3" to-layer="1569" to-port="0"/>
		<edge from-layer="1532" from-port="0" to-layer="1533" to-port="1"/>
		<edge from-layer="1533" from-port="2" to-layer="1534" to-port="1"/>
		<edge from-layer="1534" from-port="2" to-layer="1535" to-port="0"/>
		<edge from-layer="1535" from-port="1" to-layer="1558" to-port="0"/>
		<edge from-layer="1535" from-port="1" to-layer="1559" to-port="2"/>
		<edge from-layer="1535" from-port="1" to-layer="1555" to-port="0"/>
		<edge from-layer="1535" from-port="1" to-layer="1564" to-port="0"/>
		<edge from-layer="1535" from-port="1" to-layer="1567" to-port="0"/>
		<edge from-layer="1535" from-port="1" to-layer="1550" to-port="2"/>
		<edge from-layer="1535" from-port="1" to-layer="1583" to-port="1"/>
		<edge from-layer="1535" from-port="1" to-layer="1549" to-port="0"/>
		<edge from-layer="1535" from-port="1" to-layer="1568" to-port="2"/>
		<edge from-layer="1535" from-port="1" to-layer="1546" to-port="0"/>
		<edge from-layer="1535" from-port="1" to-layer="1537" to-port="0"/>
		<edge from-layer="1535" from-port="1" to-layer="1541" to-port="2"/>
		<edge from-layer="1535" from-port="1" to-layer="1540" to-port="0"/>
		<edge from-layer="1536" from-port="0" to-layer="1538" to-port="0"/>
		<edge from-layer="1537" from-port="1" to-layer="1538" to-port="1"/>
		<edge from-layer="1538" from-port="2" to-layer="1541" to-port="1"/>
		<edge from-layer="1538" from-port="2" to-layer="1539" to-port="0"/>
		<edge from-layer="1539" from-port="1" to-layer="1540" to-port="1"/>
		<edge from-layer="1540" from-port="2" to-layer="1541" to-port="0"/>
		<edge from-layer="1541" from-port="3" to-layer="1542" to-port="1"/>
		<edge from-layer="1542" from-port="2" to-layer="1544" to-port="0"/>
		<edge from-layer="1543" from-port="0" to-layer="1544" to-port="1"/>
		<edge from-layer="1544" from-port="2" to-layer="1572" to-port="0"/>
		<edge from-layer="1545" from-port="0" to-layer="1547" to-port="0"/>
		<edge from-layer="1546" from-port="1" to-layer="1547" to-port="1"/>
		<edge from-layer="1547" from-port="2" to-layer="1548" to-port="0"/>
		<edge from-layer="1547" from-port="2" to-layer="1550" to-port="1"/>
		<edge from-layer="1548" from-port="1" to-layer="1549" to-port="1"/>
		<edge from-layer="1549" from-port="2" to-layer="1550" to-port="0"/>
		<edge from-layer="1550" from-port="3" to-layer="1551" to-port="1"/>
		<edge from-layer="1551" from-port="2" to-layer="1553" to-port="0"/>
		<edge from-layer="1552" from-port="0" to-layer="1553" to-port="1"/>
		<edge from-layer="1553" from-port="2" to-layer="1572" to-port="1"/>
		<edge from-layer="1554" from-port="0" to-layer="1556" to-port="0"/>
		<edge from-layer="1555" from-port="1" to-layer="1556" to-port="1"/>
		<edge from-layer="1556" from-port="2" to-layer="1557" to-port="0"/>
		<edge from-layer="1556" from-port="2" to-layer="1559" to-port="1"/>
		<edge from-layer="1557" from-port="1" to-layer="1558" to-port="1"/>
		<edge from-layer="1558" from-port="2" to-layer="1559" to-port="0"/>
		<edge from-layer="1559" from-port="3" to-layer="1560" to-port="1"/>
		<edge from-layer="1560" from-port="2" to-layer="1562" to-port="0"/>
		<edge from-layer="1561" from-port="0" to-layer="1562" to-port="1"/>
		<edge from-layer="1562" from-port="2" to-layer="1572" to-port="2"/>
		<edge from-layer="1563" from-port="0" to-layer="1565" to-port="0"/>
		<edge from-layer="1564" from-port="1" to-layer="1565" to-port="1"/>
		<edge from-layer="1565" from-port="2" to-layer="1568" to-port="1"/>
		<edge from-layer="1565" from-port="2" to-layer="1566" to-port="0"/>
		<edge from-layer="1566" from-port="1" to-layer="1567" to-port="1"/>
		<edge from-layer="1567" from-port="2" to-layer="1568" to-port="0"/>
		<edge from-layer="1568" from-port="3" to-layer="1569" to-port="1"/>
		<edge from-layer="1569" from-port="2" to-layer="1571" to-port="0"/>
		<edge from-layer="1570" from-port="0" to-layer="1571" to-port="1"/>
		<edge from-layer="1571" from-port="2" to-layer="1572" to-port="3"/>
		<edge from-layer="1572" from-port="4" to-layer="1585" to-port="1"/>
		<edge from-layer="1573" from-port="0" to-layer="1582" to-port="0"/>
		<edge from-layer="1574" from-port="0" to-layer="1576" to-port="1"/>
		<edge from-layer="1575" from-port="0" to-layer="1576" to-port="2"/>
		<edge from-layer="1576" from-port="3" to-layer="1580" to-port="0"/>
		<edge from-layer="1577" from-port="0" to-layer="1580" to-port="1"/>
		<edge from-layer="1578" from-port="0" to-layer="1580" to-port="2"/>
		<edge from-layer="1579" from-port="0" to-layer="1580" to-port="3"/>
		<edge from-layer="1580" from-port="4" to-layer="1581" to-port="0"/>
		<edge from-layer="1581" from-port="1" to-layer="1582" to-port="1"/>
		<edge from-layer="1582" from-port="2" to-layer="1583" to-port="0"/>
		<edge from-layer="1583" from-port="2" to-layer="1584" to-port="0"/>
		<edge from-layer="1584" from-port="1" to-layer="1585" to-port="2"/>
		<edge from-layer="1585" from-port="3" to-layer="1587" to-port="0"/>
		<edge from-layer="1586" from-port="0" to-layer="1587" to-port="1"/>
		<edge from-layer="1587" from-port="2" to-layer="1588" to-port="0"/>
		<edge from-layer="1588" from-port="1" to-layer="1590" to-port="0"/>
		<edge from-layer="1589" from-port="0" to-layer="1590" to-port="1"/>
		<edge from-layer="1590" from-port="2" to-layer="1591" to-port="0"/>
		<edge from-layer="1591" from-port="1" to-layer="1593" to-port="0"/>
		<edge from-layer="1592" from-port="0" to-layer="1593" to-port="1"/>
		<edge from-layer="1593" from-port="2" to-layer="1594" to-port="1"/>
		<edge from-layer="1594" from-port="2" to-layer="1626" to-port="0"/>
		<edge from-layer="1594" from-port="2" to-layer="1614" to-port="0"/>
		<edge from-layer="1594" from-port="2" to-layer="1676" to-port="0"/>
		<edge from-layer="1594" from-port="2" to-layer="1685" to-port="0"/>
		<edge from-layer="1594" from-port="2" to-layer="1598" to-port="0"/>
		<edge from-layer="1595" from-port="0" to-layer="1642" to-port="0"/>
		<edge from-layer="1596" from-port="0" to-layer="1612" to-port="0"/>
		<edge from-layer="1597" from-port="0" to-layer="1603" to-port="0"/>
		<edge from-layer="1598" from-port="1" to-layer="1601" to-port="0"/>
		<edge from-layer="1599" from-port="0" to-layer="1601" to-port="1"/>
		<edge from-layer="1600" from-port="0" to-layer="1601" to-port="2"/>
		<edge from-layer="1601" from-port="3" to-layer="1603" to-port="1"/>
		<edge from-layer="1602" from-port="0" to-layer="1603" to-port="2"/>
		<edge from-layer="1603" from-port="3" to-layer="1607" to-port="0"/>
		<edge from-layer="1604" from-port="0" to-layer="1607" to-port="1"/>
		<edge from-layer="1605" from-port="0" to-layer="1607" to-port="2"/>
		<edge from-layer="1606" from-port="0" to-layer="1607" to-port="3"/>
		<edge from-layer="1607" from-port="4" to-layer="1609" to-port="0"/>
		<edge from-layer="1608" from-port="0" to-layer="1609" to-port="1"/>
		<edge from-layer="1609" from-port="2" to-layer="1611" to-port="0"/>
		<edge from-layer="1609" from-port="2" to-layer="1651" to-port="0"/>
		<edge from-layer="1610" from-port="0" to-layer="1611" to-port="1"/>
		<edge from-layer="1611" from-port="2" to-layer="1612" to-port="1"/>
		<edge from-layer="1612" from-port="2" to-layer="1624" to-port="0"/>
		<edge from-layer="1613" from-port="0" to-layer="1619" to-port="0"/>
		<edge from-layer="1614" from-port="1" to-layer="1617" to-port="0"/>
		<edge from-layer="1615" from-port="0" to-layer="1617" to-port="1"/>
		<edge from-layer="1616" from-port="0" to-layer="1617" to-port="2"/>
		<edge from-layer="1617" from-port="3" to-layer="1619" to-port="1"/>
		<edge from-layer="1618" from-port="0" to-layer="1619" to-port="2"/>
		<edge from-layer="1619" from-port="3" to-layer="1621" to-port="0"/>
		<edge from-layer="1620" from-port="0" to-layer="1621" to-port="1"/>
		<edge from-layer="1621" from-port="2" to-layer="1623" to-port="0"/>
		<edge from-layer="1621" from-port="2" to-layer="1660" to-port="0"/>
		<edge from-layer="1622" from-port="0" to-layer="1623" to-port="1"/>
		<edge from-layer="1623" from-port="2" to-layer="1624" to-port="1"/>
		<edge from-layer="1624" from-port="2" to-layer="1634" to-port="0"/>
		<edge from-layer="1625" from-port="0" to-layer="1631" to-port="0"/>
		<edge from-layer="1626" from-port="1" to-layer="1629" to-port="0"/>
		<edge from-layer="1627" from-port="0" to-layer="1629" to-port="1"/>
		<edge from-layer="1628" from-port="0" to-layer="1629" to-port="2"/>
		<edge from-layer="1629" from-port="3" to-layer="1631" to-port="1"/>
		<edge from-layer="1630" from-port="0" to-layer="1631" to-port="2"/>
		<edge from-layer="1631" from-port="3" to-layer="1633" to-port="0"/>
		<edge from-layer="1631" from-port="3" to-layer="1669" to-port="0"/>
		<edge from-layer="1632" from-port="0" to-layer="1633" to-port="1"/>
		<edge from-layer="1633" from-port="2" to-layer="1634" to-port="1"/>
		<edge from-layer="1634" from-port="2" to-layer="1635" to-port="0"/>
		<edge from-layer="1635" from-port="1" to-layer="1683" to-port="1"/>
		<edge from-layer="1635" from-port="1" to-layer="1664" to-port="0"/>
		<edge from-layer="1635" from-port="1" to-layer="1667" to-port="0"/>
		<edge from-layer="1635" from-port="1" to-layer="1659" to-port="2"/>
		<edge from-layer="1635" from-port="1" to-layer="1658" to-port="0"/>
		<edge from-layer="1635" from-port="1" to-layer="1655" to-port="0"/>
		<edge from-layer="1635" from-port="1" to-layer="1668" to-port="2"/>
		<edge from-layer="1635" from-port="1" to-layer="1650" to-port="2"/>
		<edge from-layer="1635" from-port="1" to-layer="1649" to-port="0"/>
		<edge from-layer="1635" from-port="1" to-layer="1641" to-port="2"/>
		<edge from-layer="1635" from-port="1" to-layer="1640" to-port="0"/>
		<edge from-layer="1635" from-port="1" to-layer="1637" to-port="0"/>
		<edge from-layer="1635" from-port="1" to-layer="1646" to-port="0"/>
		<edge from-layer="1636" from-port="0" to-layer="1638" to-port="0"/>
		<edge from-layer="1637" from-port="1" to-layer="1638" to-port="1"/>
		<edge from-layer="1638" from-port="2" to-layer="1639" to-port="0"/>
		<edge from-layer="1638" from-port="2" to-layer="1641" to-port="1"/>
		<edge from-layer="1639" from-port="1" to-layer="1640" to-port="1"/>
		<edge from-layer="1640" from-port="2" to-layer="1641" to-port="0"/>
		<edge from-layer="1641" from-port="3" to-layer="1642" to-port="1"/>
		<edge from-layer="1642" from-port="2" to-layer="1644" to-port="0"/>
		<edge from-layer="1643" from-port="0" to-layer="1644" to-port="1"/>
		<edge from-layer="1644" from-port="2" to-layer="1672" to-port="0"/>
		<edge from-layer="1645" from-port="0" to-layer="1647" to-port="0"/>
		<edge from-layer="1646" from-port="1" to-layer="1647" to-port="1"/>
		<edge from-layer="1647" from-port="2" to-layer="1648" to-port="0"/>
		<edge from-layer="1647" from-port="2" to-layer="1650" to-port="1"/>
		<edge from-layer="1648" from-port="1" to-layer="1649" to-port="1"/>
		<edge from-layer="1649" from-port="2" to-layer="1650" to-port="0"/>
		<edge from-layer="1650" from-port="3" to-layer="1651" to-port="1"/>
		<edge from-layer="1651" from-port="2" to-layer="1653" to-port="0"/>
		<edge from-layer="1652" from-port="0" to-layer="1653" to-port="1"/>
		<edge from-layer="1653" from-port="2" to-layer="1672" to-port="1"/>
		<edge from-layer="1654" from-port="0" to-layer="1656" to-port="0"/>
		<edge from-layer="1655" from-port="1" to-layer="1656" to-port="1"/>
		<edge from-layer="1656" from-port="2" to-layer="1659" to-port="1"/>
		<edge from-layer="1656" from-port="2" to-layer="1657" to-port="0"/>
		<edge from-layer="1657" from-port="1" to-layer="1658" to-port="1"/>
		<edge from-layer="1658" from-port="2" to-layer="1659" to-port="0"/>
		<edge from-layer="1659" from-port="3" to-layer="1660" to-port="1"/>
		<edge from-layer="1660" from-port="2" to-layer="1662" to-port="0"/>
		<edge from-layer="1661" from-port="0" to-layer="1662" to-port="1"/>
		<edge from-layer="1662" from-port="2" to-layer="1672" to-port="2"/>
		<edge from-layer="1663" from-port="0" to-layer="1665" to-port="0"/>
		<edge from-layer="1664" from-port="1" to-layer="1665" to-port="1"/>
		<edge from-layer="1665" from-port="2" to-layer="1666" to-port="0"/>
		<edge from-layer="1665" from-port="2" to-layer="1668" to-port="1"/>
		<edge from-layer="1666" from-port="1" to-layer="1667" to-port="1"/>
		<edge from-layer="1667" from-port="2" to-layer="1668" to-port="0"/>
		<edge from-layer="1668" from-port="3" to-layer="1669" to-port="1"/>
		<edge from-layer="1669" from-port="2" to-layer="1671" to-port="0"/>
		<edge from-layer="1670" from-port="0" to-layer="1671" to-port="1"/>
		<edge from-layer="1671" from-port="2" to-layer="1672" to-port="3"/>
		<edge from-layer="1672" from-port="4" to-layer="1685" to-port="1"/>
		<edge from-layer="1673" from-port="0" to-layer="1682" to-port="0"/>
		<edge from-layer="1674" from-port="0" to-layer="1676" to-port="1"/>
		<edge from-layer="1675" from-port="0" to-layer="1676" to-port="2"/>
		<edge from-layer="1676" from-port="3" to-layer="1680" to-port="0"/>
		<edge from-layer="1677" from-port="0" to-layer="1680" to-port="1"/>
		<edge from-layer="1678" from-port="0" to-layer="1680" to-port="2"/>
		<edge from-layer="1679" from-port="0" to-layer="1680" to-port="3"/>
		<edge from-layer="1680" from-port="4" to-layer="1681" to-port="0"/>
		<edge from-layer="1681" from-port="1" to-layer="1682" to-port="1"/>
		<edge from-layer="1682" from-port="2" to-layer="1683" to-port="0"/>
		<edge from-layer="1683" from-port="2" to-layer="1684" to-port="0"/>
		<edge from-layer="1684" from-port="1" to-layer="1685" to-port="2"/>
		<edge from-layer="1685" from-port="3" to-layer="1687" to-port="0"/>
		<edge from-layer="1686" from-port="0" to-layer="1687" to-port="1"/>
		<edge from-layer="1687" from-port="2" to-layer="1688" to-port="0"/>
		<edge from-layer="1688" from-port="1" to-layer="1690" to-port="0"/>
		<edge from-layer="1689" from-port="0" to-layer="1690" to-port="1"/>
		<edge from-layer="1690" from-port="2" to-layer="1691" to-port="0"/>
		<edge from-layer="1691" from-port="1" to-layer="1693" to-port="0"/>
		<edge from-layer="1692" from-port="0" to-layer="1693" to-port="1"/>
		<edge from-layer="1693" from-port="2" to-layer="1695" to-port="0"/>
		<edge from-layer="1694" from-port="0" to-layer="1695" to-port="1"/>
		<edge from-layer="1695" from-port="2" to-layer="1696" to-port="0"/>
		<edge from-layer="1696" from-port="1" to-layer="1698" to-port="0"/>
		<edge from-layer="1696" from-port="1" to-layer="1704" to-port="0"/>
		<edge from-layer="1697" from-port="0" to-layer="1703" to-port="0"/>
		<edge from-layer="1698" from-port="1" to-layer="1699" to-port="0"/>
		<edge from-layer="1699" from-port="1" to-layer="1701" to-port="0"/>
		<edge from-layer="1700" from-port="0" to-layer="1701" to-port="1"/>
		<edge from-layer="1701" from-port="2" to-layer="1703" to-port="1"/>
		<edge from-layer="1702" from-port="0" to-layer="1703" to-port="2"/>
		<edge from-layer="1703" from-port="3" to-layer="1704" to-port="1"/>
		<edge from-layer="1704" from-port="2" to-layer="1706" to-port="0"/>
		<edge from-layer="1705" from-port="0" to-layer="1706" to-port="1"/>
		<edge from-layer="1706" from-port="2" to-layer="1707" to-port="0"/>
	</edges>
	<meta_data>
		<MO_version value="2021.4.1-3926-14e67d86634-releases/2021/4"/>
		<cli_parameters>
			<caffe_parser_path value="DIR"/>
			<data_type value="float"/>
			<disable_nhwc_to_nchw value="False"/>
			<disable_omitting_optional value="False"/>
			<disable_resnet_optimization value="False"/>
			<disable_weights_compression value="False"/>
			<enable_concat_optimization value="False"/>
			<enable_flattening_nested_params value="False"/>
			<enable_ssd_gluoncv value="False"/>
			<extensions value="DIR"/>
			<framework value="onnx"/>
			<freeze_placeholder_with_value value="{}"/>
			<generate_deprecated_IR_V7 value="False"/>
			<input_model value="DIR/mbv2-backbone-3-class-concat.onnx"/>
			<input_model_is_text value="False"/>
			<k value="DIR/CustomLayersMapping.xml"/>
			<keep_shape_ops value="True"/>
			<legacy_ir_generation value="False"/>
			<legacy_mxnet_model value="False"/>
			<log_level value="ERROR"/>
			<mean_scale_values value="{}"/>
			<mean_values value="()"/>
			<model_name value="mbv2-backbone-3-class-concat"/>
			<output_dir value="DIR"/>
			<placeholder_data_types value="{}"/>
			<progress value="False"/>
			<remove_memory value="False"/>
			<remove_output_softmax value="False"/>
			<reverse_input_channels value="False"/>
			<save_params_from_nd value="False"/>
			<scale_values value="()"/>
			<silent value="False"/>
			<static_shape value="False"/>
			<stream_output value="False"/>
			<transform value=""/>
			<unset unset_cli_parameters="batch, counts, disable_fusing, disable_gfusing, finegrain_fusing, input, input_checkpoint, input_meta_graph, input_proto, input_shape, input_symbol, mean_file, mean_file_offsets, move_to_preprocess, nd_prefix_name, output, placeholder_shapes, pretrained_model_name, saved_model_dir, saved_model_tags, scale, tensorboard_logdir, tensorflow_custom_layer_libraries, tensorflow_custom_operations_config_update, tensorflow_object_detection_api_pipeline_config, tensorflow_use_custom_operations_config, transformations_config"/>
		</cli_parameters>
	</meta_data>
</net>
