<?xml version="1.0" ?>
<net name="mbv3s-backbone-3-class-2-view-6-batch-concat-no-batchnorm-bs32-1-c" version="10">
	<layers>
		<layer id="0" name="input_image" type="Parameter" version="opset1">
			<data shape="1, 3, 224, 224" element_type="f32"/>
			<output>
				<port id="0" precision="FP32" names="input_image">
					<dim>1</dim>
					<dim>3</dim>
					<dim>224</dim>
					<dim>224</dim>
				</port>
			</output>
		</layer>
		<layer id="1" name="features.0.0.weight" type="Const" version="opset1">
			<data element_type="f32" shape="16, 3, 3, 3" offset="0" size="1728"/>
			<output>
				<port id="0" precision="FP32" names="features.0.0.weight">
					<dim>16</dim>
					<dim>3</dim>
					<dim>3</dim>
					<dim>3</dim>
				</port>
			</output>
		</layer>
		<layer id="2" name="Conv_0" type="Convolution" version="opset1">
			<data strides="2, 2" dilations="1, 1" pads_begin="1, 1" pads_end="1, 1" auto_pad="explicit"/>
			<input>
				<port id="0" precision="FP32">
					<dim>1</dim>
					<dim>3</dim>
					<dim>224</dim>
					<dim>224</dim>
				</port>
				<port id="1" precision="FP32">
					<dim>16</dim>
					<dim>3</dim>
					<dim>3</dim>
					<dim>3</dim>
				</port>
			</input>
			<output>
				<port id="2" precision="FP32" names="71">
					<dim>1</dim>
					<dim>16</dim>
					<dim>112</dim>
					<dim>112</dim>
				</port>
			</output>
		</layer>
		<layer id="3" name="Constant_1" type="Const" version="opset1">
			<data element_type="f32" shape="1, 1, 1, 1" offset="1728" size="4"/>
			<output>
				<port id="0" precision="FP32" names="72">
					<dim>1</dim>
					<dim>1</dim>
					<dim>1</dim>
					<dim>1</dim>
				</port>
			</output>
		</layer>
		<layer id="4" name="Add_2" type="Add" version="opset1">
			<data auto_broadcast="numpy"/>
			<input>
				<port id="0" precision="FP32">
					<dim>1</dim>
					<dim>16</dim>
					<dim>112</dim>
					<dim>112</dim>
				</port>
				<port id="1" precision="FP32">
					<dim>1</dim>
					<dim>1</dim>
					<dim>1</dim>
					<dim>1</dim>
				</port>
			</input>
			<output>
				<port id="2" precision="FP32" names="73">
					<dim>1</dim>
					<dim>16</dim>
					<dim>112</dim>
					<dim>112</dim>
				</port>
			</output>
		</layer>
		<layer id="5" name="Clip_5" type="Clamp" version="opset1">
			<data min="0" max="6"/>
			<input>
				<port id="0" precision="FP32">
					<dim>1</dim>
					<dim>16</dim>
					<dim>112</dim>
					<dim>112</dim>
				</port>
			</input>
			<output>
				<port id="1" precision="FP32" names="76">
					<dim>1</dim>
					<dim>16</dim>
					<dim>112</dim>
					<dim>112</dim>
				</port>
			</output>
		</layer>
		<layer id="6" name="Constant_6" type="Const" version="opset1">
			<data element_type="f32" shape="1, 1, 1, 1" offset="1732" size="4"/>
			<output>
				<port id="0" precision="FP32" names="77">
					<dim>1</dim>
					<dim>1</dim>
					<dim>1</dim>
					<dim>1</dim>
				</port>
			</output>
		</layer>
		<layer id="7" name="Div_7" type="Multiply" version="opset1">
			<data auto_broadcast="numpy"/>
			<input>
				<port id="0" precision="FP32">
					<dim>1</dim>
					<dim>16</dim>
					<dim>112</dim>
					<dim>112</dim>
				</port>
				<port id="1" precision="FP32">
					<dim>1</dim>
					<dim>1</dim>
					<dim>1</dim>
					<dim>1</dim>
				</port>
			</input>
			<output>
				<port id="2" precision="FP32" names="78">
					<dim>1</dim>
					<dim>16</dim>
					<dim>112</dim>
					<dim>112</dim>
				</port>
			</output>
		</layer>
		<layer id="8" name="Mul_8" type="Multiply" version="opset1">
			<data auto_broadcast="numpy"/>
			<input>
				<port id="0" precision="FP32">
					<dim>1</dim>
					<dim>16</dim>
					<dim>112</dim>
					<dim>112</dim>
				</port>
				<port id="1" precision="FP32">
					<dim>1</dim>
					<dim>16</dim>
					<dim>112</dim>
					<dim>112</dim>
				</port>
			</input>
			<output>
				<port id="2" precision="FP32" names="79">
					<dim>1</dim>
					<dim>16</dim>
					<dim>112</dim>
					<dim>112</dim>
				</port>
			</output>
		</layer>
		<layer id="9" name="128548120" type="Const" version="opset1">
			<data element_type="i64" shape="1, 1, 1, 1" offset="1736" size="8"/>
			<output>
				<port id="0" precision="I64" names="1285">
					<dim>1</dim>
					<dim>1</dim>
					<dim>1</dim>
					<dim>1</dim>
				</port>
			</output>
		</layer>
		<layer id="10" name="1285" type="Const" version="opset1">
			<data element_type="i64" shape="1, 1, 1, 1" offset="1736" size="8"/>
			<output>
				<port id="0" precision="I64" names="1285">
					<dim>1</dim>
					<dim>1</dim>
					<dim>1</dim>
					<dim>1</dim>
				</port>
			</output>
		</layer>
		<layer id="11" name="Constant_23" type="Const" version="opset1">
			<data element_type="i64" shape="" offset="1736" size="8"/>
			<output>
				<port id="0" precision="I64" names="95"/>
			</output>
		</layer>
		<layer id="12" name="Shape_19" type="ShapeOf" version="opset3">
			<data output_type="i64"/>
			<input>
				<port id="0" precision="FP32">
					<dim>1</dim>
					<dim>16</dim>
					<dim>112</dim>
					<dim>112</dim>
				</port>
			</input>
			<output>
				<port id="1" precision="I64" names="91">
					<dim>4</dim>
				</port>
			</output>
		</layer>
		<layer id="13" name="Constant_20" type="Const" version="opset1">
			<data element_type="i32" shape="" offset="1744" size="4"/>
			<output>
				<port id="0" precision="I32" names="92"/>
			</output>
		</layer>
		<layer id="14" name="Gather_21/axis" type="Const" version="opset1">
			<data element_type="i64" shape="" offset="1736" size="8"/>
			<output>
				<port id="0" precision="I64"/>
			</output>
		</layer>
		<layer id="15" name="Gather_211597" type="Gather" version="opset7">
			<data batch_dims="0"/>
			<input>
				<port id="0" precision="I64">
					<dim>4</dim>
				</port>
				<port id="1" precision="I32"/>
				<port id="2" precision="I64"/>
			</input>
			<output>
				<port id="3" precision="I64" names="93,94"/>
			</output>
		</layer>
		<layer id="16" name="Constant_24" type="Const" version="opset1">
			<data element_type="i64" shape="" offset="1748" size="8"/>
			<output>
				<port id="0" precision="I64" names="96"/>
			</output>
		</layer>
		<layer id="17" name="Range_25" type="Range" version="opset4">
			<data output_type="i64"/>
			<input>
				<port id="0" precision="I64"/>
				<port id="1" precision="I64"/>
				<port id="2" precision="I64"/>
			</input>
			<output>
				<port id="3" precision="I64" names="97">
					<dim>16</dim>
				</port>
			</output>
		</layer>
		<layer id="18" name="Slice_30/Concat1311147781" type="Const" version="opset1">
			<data element_type="i64" shape="1" offset="1736" size="8"/>
			<output>
				<port id="0" precision="I64">
					<dim>1</dim>
				</port>
			</output>
		</layer>
		<layer id="19" name="Slice_30/Concat131011311246695" type="Const" version="opset1">
			<data element_type="i64" shape="1" offset="1756" size="8"/>
			<output>
				<port id="0" precision="I64">
					<dim>1</dim>
				</port>
			</output>
		</layer>
		<layer id="20" name="Slice_30/Strides1311347856" type="Const" version="opset1">
			<data element_type="i64" shape="1" offset="1748" size="8"/>
			<output>
				<port id="0" precision="I64">
					<dim>1</dim>
				</port>
			</output>
		</layer>
		<layer id="21" name="Slice_30" type="StridedSlice" version="opset1">
			<data begin_mask="0" end_mask="0" new_axis_mask="0" shrink_axis_mask="0" ellipsis_mask="0"/>
			<input>
				<port id="0" precision="I64">
					<dim>16</dim>
				</port>
				<port id="1" precision="I64">
					<dim>1</dim>
				</port>
				<port id="2" precision="I64">
					<dim>1</dim>
				</port>
				<port id="3" precision="I64">
					<dim>1</dim>
				</port>
			</input>
			<output>
				<port id="4" precision="I64" names="102">
					<dim>4</dim>
				</port>
			</output>
		</layer>
		<layer id="22" name="Constant_45" type="Const" version="opset1">
			<data element_type="i64" shape="3" offset="1764" size="24"/>
			<output>
				<port id="0" precision="I64" names="119">
					<dim>3</dim>
				</port>
			</output>
		</layer>
		<layer id="23" name="Reshape_46" type="Reshape" version="opset1">
			<data special_zero="true"/>
			<input>
				<port id="0" precision="I64">
					<dim>4</dim>
				</port>
				<port id="1" precision="I64">
					<dim>3</dim>
				</port>
			</input>
			<output>
				<port id="2" precision="I64">
					<dim>4</dim>
					<dim>1</dim>
					<dim>1</dim>
				</port>
			</output>
		</layer>
		<layer id="24" name="Reshape_46/EltwiseUnsqueeze_input_port_1/value2106946977" type="Const" version="opset1">
			<data element_type="i64" shape="1" offset="1736" size="8"/>
			<output>
				<port id="0" precision="I64">
					<dim>1</dim>
				</port>
			</output>
		</layer>
		<layer id="25" name="Reshape_46/EltwiseUnsqueeze" type="Unsqueeze" version="opset1">
			<input>
				<port id="0" precision="I64">
					<dim>4</dim>
					<dim>1</dim>
					<dim>1</dim>
				</port>
				<port id="1" precision="I64">
					<dim>1</dim>
				</port>
			</input>
			<output>
				<port id="2" precision="I64" names="120">
					<dim>1</dim>
					<dim>4</dim>
					<dim>1</dim>
					<dim>1</dim>
				</port>
			</output>
		</layer>
		<layer id="26" name="Add_49" type="Add" version="opset1">
			<data auto_broadcast="numpy"/>
			<input>
				<port id="0" precision="I64">
					<dim>1</dim>
					<dim>1</dim>
					<dim>1</dim>
					<dim>1</dim>
				</port>
				<port id="1" precision="I64">
					<dim>1</dim>
					<dim>4</dim>
					<dim>1</dim>
					<dim>1</dim>
				</port>
			</input>
			<output>
				<port id="2" precision="I64" names="123">
					<dim>1</dim>
					<dim>4</dim>
					<dim>1</dim>
					<dim>1</dim>
				</port>
			</output>
		</layer>
		<layer id="27" name="Constant_35" type="Const" version="opset1">
			<data element_type="i64" shape="" offset="1736" size="8"/>
			<output>
				<port id="0" precision="I64" names="107"/>
			</output>
		</layer>
		<layer id="28" name="Shape_31" type="ShapeOf" version="opset3">
			<data output_type="i64"/>
			<input>
				<port id="0" precision="FP32">
					<dim>1</dim>
					<dim>16</dim>
					<dim>112</dim>
					<dim>112</dim>
				</port>
			</input>
			<output>
				<port id="1" precision="I64" names="103">
					<dim>4</dim>
				</port>
			</output>
		</layer>
		<layer id="29" name="Constant_32" type="Const" version="opset1">
			<data element_type="i32" shape="" offset="1788" size="4"/>
			<output>
				<port id="0" precision="I32" names="104"/>
			</output>
		</layer>
		<layer id="30" name="Gather_33/axis" type="Const" version="opset1">
			<data element_type="i64" shape="" offset="1736" size="8"/>
			<output>
				<port id="0" precision="I64"/>
			</output>
		</layer>
		<layer id="31" name="Gather_331573" type="Gather" version="opset7">
			<data batch_dims="0"/>
			<input>
				<port id="0" precision="I64">
					<dim>4</dim>
				</port>
				<port id="1" precision="I32"/>
				<port id="2" precision="I64"/>
			</input>
			<output>
				<port id="3" precision="I64" names="105,106"/>
			</output>
		</layer>
		<layer id="32" name="Constant_36" type="Const" version="opset1">
			<data element_type="i64" shape="" offset="1748" size="8"/>
			<output>
				<port id="0" precision="I64" names="108"/>
			</output>
		</layer>
		<layer id="33" name="Range_37" type="Range" version="opset4">
			<data output_type="i64"/>
			<input>
				<port id="0" precision="I64"/>
				<port id="1" precision="I64"/>
				<port id="2" precision="I64"/>
			</input>
			<output>
				<port id="3" precision="I64" names="109">
					<dim>112</dim>
				</port>
			</output>
		</layer>
		<layer id="34" name="Constant_47" type="Const" version="opset1">
			<data element_type="i64" shape="2" offset="1792" size="16"/>
			<output>
				<port id="0" precision="I64" names="121">
					<dim>2</dim>
				</port>
			</output>
		</layer>
		<layer id="35" name="Reshape_48" type="Reshape" version="opset1">
			<data special_zero="true"/>
			<input>
				<port id="0" precision="I64">
					<dim>112</dim>
				</port>
				<port id="1" precision="I64">
					<dim>2</dim>
				</port>
			</input>
			<output>
				<port id="2" precision="I64">
					<dim>112</dim>
					<dim>1</dim>
				</port>
			</output>
		</layer>
		<layer id="36" name="Reshape_48/EltwiseUnsqueeze_input_port_1/value2107347154" type="Const" version="opset1">
			<data element_type="i64" shape="2" offset="1808" size="16"/>
			<output>
				<port id="0" precision="I64">
					<dim>2</dim>
				</port>
			</output>
		</layer>
		<layer id="37" name="Reshape_48/EltwiseUnsqueeze" type="Unsqueeze" version="opset1">
			<input>
				<port id="0" precision="I64">
					<dim>112</dim>
					<dim>1</dim>
				</port>
				<port id="1" precision="I64">
					<dim>2</dim>
				</port>
			</input>
			<output>
				<port id="2" precision="I64" names="122">
					<dim>1</dim>
					<dim>1</dim>
					<dim>112</dim>
					<dim>1</dim>
				</port>
			</output>
		</layer>
		<layer id="38" name="Add_50" type="Add" version="opset1">
			<data auto_broadcast="numpy"/>
			<input>
				<port id="0" precision="I64">
					<dim>1</dim>
					<dim>4</dim>
					<dim>1</dim>
					<dim>1</dim>
				</port>
				<port id="1" precision="I64">
					<dim>1</dim>
					<dim>1</dim>
					<dim>112</dim>
					<dim>1</dim>
				</port>
			</input>
			<output>
				<port id="2" precision="I64" names="124">
					<dim>1</dim>
					<dim>4</dim>
					<dim>112</dim>
					<dim>1</dim>
				</port>
			</output>
		</layer>
		<layer id="39" name="Constant_42" type="Const" version="opset1">
			<data element_type="i64" shape="" offset="1736" size="8"/>
			<output>
				<port id="0" precision="I64" names="114"/>
			</output>
		</layer>
		<layer id="40" name="Shape_38" type="ShapeOf" version="opset3">
			<data output_type="i64"/>
			<input>
				<port id="0" precision="FP32">
					<dim>1</dim>
					<dim>16</dim>
					<dim>112</dim>
					<dim>112</dim>
				</port>
			</input>
			<output>
				<port id="1" precision="I64" names="110">
					<dim>4</dim>
				</port>
			</output>
		</layer>
		<layer id="41" name="Constant_39" type="Const" version="opset1">
			<data element_type="i32" shape="" offset="1824" size="4"/>
			<output>
				<port id="0" precision="I32" names="111"/>
			</output>
		</layer>
		<layer id="42" name="Gather_40/axis" type="Const" version="opset1">
			<data element_type="i64" shape="" offset="1736" size="8"/>
			<output>
				<port id="0" precision="I64"/>
			</output>
		</layer>
		<layer id="43" name="Gather_401587" type="Gather" version="opset7">
			<data batch_dims="0"/>
			<input>
				<port id="0" precision="I64">
					<dim>4</dim>
				</port>
				<port id="1" precision="I32"/>
				<port id="2" precision="I64"/>
			</input>
			<output>
				<port id="3" precision="I64" names="112,113"/>
			</output>
		</layer>
		<layer id="44" name="Constant_43" type="Const" version="opset1">
			<data element_type="i64" shape="" offset="1748" size="8"/>
			<output>
				<port id="0" precision="I64" names="115"/>
			</output>
		</layer>
		<layer id="45" name="Range_44" type="Range" version="opset4">
			<data output_type="i64"/>
			<input>
				<port id="0" precision="I64"/>
				<port id="1" precision="I64"/>
				<port id="2" precision="I64"/>
			</input>
			<output>
				<port id="3" precision="I64">
					<dim>112</dim>
				</port>
			</output>
		</layer>
		<layer id="46" name="Range_44/EltwiseUnsqueeze_input_port_1/value2107748108" type="Const" version="opset1">
			<data element_type="i64" shape="3" offset="1828" size="24"/>
			<output>
				<port id="0" precision="I64">
					<dim>3</dim>
				</port>
			</output>
		</layer>
		<layer id="47" name="Range_44/EltwiseUnsqueeze" type="Unsqueeze" version="opset1">
			<input>
				<port id="0" precision="I64">
					<dim>112</dim>
				</port>
				<port id="1" precision="I64">
					<dim>3</dim>
				</port>
			</input>
			<output>
				<port id="2" precision="I64" names="116">
					<dim>1</dim>
					<dim>1</dim>
					<dim>1</dim>
					<dim>112</dim>
				</port>
			</output>
		</layer>
		<layer id="48" name="Add_51" type="Add" version="opset1">
			<data auto_broadcast="numpy"/>
			<input>
				<port id="0" precision="I64">
					<dim>1</dim>
					<dim>4</dim>
					<dim>112</dim>
					<dim>1</dim>
				</port>
				<port id="1" precision="I64">
					<dim>1</dim>
					<dim>1</dim>
					<dim>1</dim>
					<dim>112</dim>
				</port>
			</input>
			<output>
				<port id="2" precision="I64" names="125">
					<dim>1</dim>
					<dim>4</dim>
					<dim>112</dim>
					<dim>112</dim>
				</port>
			</output>
		</layer>
		<layer id="49" name="Shape_52" type="ShapeOf" version="opset3">
			<data output_type="i64"/>
			<input>
				<port id="0" precision="I64">
					<dim>1</dim>
					<dim>4</dim>
					<dim>112</dim>
					<dim>112</dim>
				</port>
			</input>
			<output>
				<port id="1" precision="I64" names="126,165">
					<dim>4</dim>
				</port>
			</output>
		</layer>
		<layer id="50" name="ConstantOfShape_54/Broadcast/FillValue" type="Const" version="opset1">
			<data element_type="i64" shape="1" offset="1748" size="8"/>
			<output>
				<port id="0" precision="I64">
					<dim>1</dim>
				</port>
			</output>
		</layer>
		<layer id="51" name="Shape_53" type="ShapeOf" version="opset3">
			<data output_type="i64"/>
			<input>
				<port id="0" precision="I64">
					<dim>4</dim>
				</port>
			</input>
			<output>
				<port id="1" precision="I64" names="127">
					<dim>1</dim>
				</port>
			</output>
		</layer>
		<layer id="52" name="ConstantOfShape_54/Broadcast" type="Broadcast" version="opset3">
			<data mode="numpy"/>
			<input>
				<port id="0" precision="I64">
					<dim>1</dim>
				</port>
				<port id="1" precision="I64">
					<dim>1</dim>
				</port>
			</input>
			<output>
				<port id="2" precision="I64" names="128">
					<dim>4</dim>
				</port>
			</output>
		</layer>
		<layer id="53" name="Mul_56/Negate" type="Negative" version="opset1">
			<input>
				<port id="0" precision="I64">
					<dim>4</dim>
				</port>
			</input>
			<output>
				<port id="1" precision="I64" names="130">
					<dim>4</dim>
				</port>
			</output>
		</layer>
		<layer id="54" name="Equal_57" type="Equal" version="opset1">
			<input>
				<port id="0" precision="I64">
					<dim>4</dim>
				</port>
				<port id="1" precision="I64">
					<dim>4</dim>
				</port>
			</input>
			<output>
				<port id="2" precision="BOOL" names="131">
					<dim>4</dim>
				</port>
			</output>
		</layer>
		<layer id="55" name="Where_58" type="Select" version="opset1">
			<data auto_broadcast="numpy"/>
			<input>
				<port id="0" precision="BOOL">
					<dim>4</dim>
				</port>
				<port id="1" precision="I64">
					<dim>4</dim>
				</port>
				<port id="2" precision="I64">
					<dim>4</dim>
				</port>
			</input>
			<output>
				<port id="3" precision="I64" names="132">
					<dim>4</dim>
				</port>
			</output>
		</layer>
		<layer id="56" name="Expand_59" type="Broadcast" version="opset3">
			<data mode="bidirectional"/>
			<input>
				<port id="0" precision="I64">
					<dim>1</dim>
					<dim>1</dim>
					<dim>1</dim>
					<dim>1</dim>
				</port>
				<port id="1" precision="I64">
					<dim>4</dim>
				</port>
			</input>
			<output>
				<port id="2" precision="I64" names="133">
					<dim>1</dim>
					<dim>4</dim>
					<dim>112</dim>
					<dim>112</dim>
				</port>
			</output>
		</layer>
		<layer id="57" name="Unsqueeze_60/Dims" type="Const" version="opset1">
			<data element_type="i64" shape="1" offset="1756" size="8"/>
			<output>
				<port id="0" precision="I64">
					<dim>1</dim>
				</port>
			</output>
		</layer>
		<layer id="58" name="Unsqueeze_60/Unsqueeze" type="Unsqueeze" version="opset1">
			<input>
				<port id="0" precision="I64">
					<dim>1</dim>
					<dim>4</dim>
					<dim>112</dim>
					<dim>112</dim>
				</port>
				<port id="1" precision="I64">
					<dim>1</dim>
				</port>
			</input>
			<output>
				<port id="2" precision="I64" names="134">
					<dim>1</dim>
					<dim>4</dim>
					<dim>112</dim>
					<dim>112</dim>
					<dim>1</dim>
				</port>
			</output>
		</layer>
		<layer id="59" name="ConstantOfShape_62/Broadcast/FillValue" type="Const" version="opset1">
			<data element_type="i64" shape="1" offset="1748" size="8"/>
			<output>
				<port id="0" precision="I64">
					<dim>1</dim>
				</port>
			</output>
		</layer>
		<layer id="60" name="Shape_61" type="ShapeOf" version="opset3">
			<data output_type="i64"/>
			<input>
				<port id="0" precision="I64">
					<dim>4</dim>
				</port>
			</input>
			<output>
				<port id="1" precision="I64" names="135">
					<dim>1</dim>
				</port>
			</output>
		</layer>
		<layer id="61" name="ConstantOfShape_62/Broadcast" type="Broadcast" version="opset3">
			<data mode="numpy"/>
			<input>
				<port id="0" precision="I64">
					<dim>1</dim>
				</port>
				<port id="1" precision="I64">
					<dim>1</dim>
				</port>
			</input>
			<output>
				<port id="2" precision="I64" names="136">
					<dim>4</dim>
				</port>
			</output>
		</layer>
		<layer id="62" name="Mul_64/Negate" type="Negative" version="opset1">
			<input>
				<port id="0" precision="I64">
					<dim>4</dim>
				</port>
			</input>
			<output>
				<port id="1" precision="I64" names="138">
					<dim>4</dim>
				</port>
			</output>
		</layer>
		<layer id="63" name="Equal_65" type="Equal" version="opset1">
			<input>
				<port id="0" precision="I64">
					<dim>4</dim>
				</port>
				<port id="1" precision="I64">
					<dim>4</dim>
				</port>
			</input>
			<output>
				<port id="2" precision="BOOL" names="139">
					<dim>4</dim>
				</port>
			</output>
		</layer>
		<layer id="64" name="Where_66" type="Select" version="opset1">
			<data auto_broadcast="numpy"/>
			<input>
				<port id="0" precision="BOOL">
					<dim>4</dim>
				</port>
				<port id="1" precision="I64">
					<dim>4</dim>
				</port>
				<port id="2" precision="I64">
					<dim>4</dim>
				</port>
			</input>
			<output>
				<port id="3" precision="I64" names="140">
					<dim>4</dim>
				</port>
			</output>
		</layer>
		<layer id="65" name="Expand_67" type="Broadcast" version="opset3">
			<data mode="bidirectional"/>
			<input>
				<port id="0" precision="I64">
					<dim>4</dim>
					<dim>1</dim>
					<dim>1</dim>
				</port>
				<port id="1" precision="I64">
					<dim>4</dim>
				</port>
			</input>
			<output>
				<port id="2" precision="I64" names="141">
					<dim>1</dim>
					<dim>4</dim>
					<dim>112</dim>
					<dim>112</dim>
				</port>
			</output>
		</layer>
		<layer id="66" name="Unsqueeze_68/Dims" type="Const" version="opset1">
			<data element_type="i64" shape="1" offset="1756" size="8"/>
			<output>
				<port id="0" precision="I64">
					<dim>1</dim>
				</port>
			</output>
		</layer>
		<layer id="67" name="Unsqueeze_68/Unsqueeze" type="Unsqueeze" version="opset1">
			<input>
				<port id="0" precision="I64">
					<dim>1</dim>
					<dim>4</dim>
					<dim>112</dim>
					<dim>112</dim>
				</port>
				<port id="1" precision="I64">
					<dim>1</dim>
				</port>
			</input>
			<output>
				<port id="2" precision="I64" names="142">
					<dim>1</dim>
					<dim>4</dim>
					<dim>112</dim>
					<dim>112</dim>
					<dim>1</dim>
				</port>
			</output>
		</layer>
		<layer id="68" name="ConstantOfShape_70/Broadcast/FillValue" type="Const" version="opset1">
			<data element_type="i64" shape="1" offset="1748" size="8"/>
			<output>
				<port id="0" precision="I64">
					<dim>1</dim>
				</port>
			</output>
		</layer>
		<layer id="69" name="Shape_69" type="ShapeOf" version="opset3">
			<data output_type="i64"/>
			<input>
				<port id="0" precision="I64">
					<dim>4</dim>
				</port>
			</input>
			<output>
				<port id="1" precision="I64" names="143">
					<dim>1</dim>
				</port>
			</output>
		</layer>
		<layer id="70" name="ConstantOfShape_70/Broadcast" type="Broadcast" version="opset3">
			<data mode="numpy"/>
			<input>
				<port id="0" precision="I64">
					<dim>1</dim>
				</port>
				<port id="1" precision="I64">
					<dim>1</dim>
				</port>
			</input>
			<output>
				<port id="2" precision="I64" names="144">
					<dim>4</dim>
				</port>
			</output>
		</layer>
		<layer id="71" name="Mul_72/Negate" type="Negative" version="opset1">
			<input>
				<port id="0" precision="I64">
					<dim>4</dim>
				</port>
			</input>
			<output>
				<port id="1" precision="I64" names="146">
					<dim>4</dim>
				</port>
			</output>
		</layer>
		<layer id="72" name="Equal_73" type="Equal" version="opset1">
			<input>
				<port id="0" precision="I64">
					<dim>4</dim>
				</port>
				<port id="1" precision="I64">
					<dim>4</dim>
				</port>
			</input>
			<output>
				<port id="2" precision="BOOL" names="147">
					<dim>4</dim>
				</port>
			</output>
		</layer>
		<layer id="73" name="Where_74" type="Select" version="opset1">
			<data auto_broadcast="numpy"/>
			<input>
				<port id="0" precision="BOOL">
					<dim>4</dim>
				</port>
				<port id="1" precision="I64">
					<dim>4</dim>
				</port>
				<port id="2" precision="I64">
					<dim>4</dim>
				</port>
			</input>
			<output>
				<port id="3" precision="I64" names="148">
					<dim>4</dim>
				</port>
			</output>
		</layer>
		<layer id="74" name="Expand_75" type="Broadcast" version="opset3">
			<data mode="bidirectional"/>
			<input>
				<port id="0" precision="I64">
					<dim>112</dim>
					<dim>1</dim>
				</port>
				<port id="1" precision="I64">
					<dim>4</dim>
				</port>
			</input>
			<output>
				<port id="2" precision="I64" names="149">
					<dim>1</dim>
					<dim>4</dim>
					<dim>112</dim>
					<dim>112</dim>
				</port>
			</output>
		</layer>
		<layer id="75" name="Unsqueeze_76/Dims" type="Const" version="opset1">
			<data element_type="i64" shape="1" offset="1756" size="8"/>
			<output>
				<port id="0" precision="I64">
					<dim>1</dim>
				</port>
			</output>
		</layer>
		<layer id="76" name="Unsqueeze_76/Unsqueeze" type="Unsqueeze" version="opset1">
			<input>
				<port id="0" precision="I64">
					<dim>1</dim>
					<dim>4</dim>
					<dim>112</dim>
					<dim>112</dim>
				</port>
				<port id="1" precision="I64">
					<dim>1</dim>
				</port>
			</input>
			<output>
				<port id="2" precision="I64" names="150">
					<dim>1</dim>
					<dim>4</dim>
					<dim>112</dim>
					<dim>112</dim>
					<dim>1</dim>
				</port>
			</output>
		</layer>
		<layer id="77" name="ConstantOfShape_78/Broadcast/FillValue" type="Const" version="opset1">
			<data element_type="i64" shape="1" offset="1748" size="8"/>
			<output>
				<port id="0" precision="I64">
					<dim>1</dim>
				</port>
			</output>
		</layer>
		<layer id="78" name="Shape_77" type="ShapeOf" version="opset3">
			<data output_type="i64"/>
			<input>
				<port id="0" precision="I64">
					<dim>4</dim>
				</port>
			</input>
			<output>
				<port id="1" precision="I64" names="151">
					<dim>1</dim>
				</port>
			</output>
		</layer>
		<layer id="79" name="ConstantOfShape_78/Broadcast" type="Broadcast" version="opset3">
			<data mode="numpy"/>
			<input>
				<port id="0" precision="I64">
					<dim>1</dim>
				</port>
				<port id="1" precision="I64">
					<dim>1</dim>
				</port>
			</input>
			<output>
				<port id="2" precision="I64" names="152">
					<dim>4</dim>
				</port>
			</output>
		</layer>
		<layer id="80" name="Mul_80/Negate" type="Negative" version="opset1">
			<input>
				<port id="0" precision="I64">
					<dim>4</dim>
				</port>
			</input>
			<output>
				<port id="1" precision="I64" names="154">
					<dim>4</dim>
				</port>
			</output>
		</layer>
		<layer id="81" name="Equal_81" type="Equal" version="opset1">
			<input>
				<port id="0" precision="I64">
					<dim>4</dim>
				</port>
				<port id="1" precision="I64">
					<dim>4</dim>
				</port>
			</input>
			<output>
				<port id="2" precision="BOOL" names="155">
					<dim>4</dim>
				</port>
			</output>
		</layer>
		<layer id="82" name="Where_82" type="Select" version="opset1">
			<data auto_broadcast="numpy"/>
			<input>
				<port id="0" precision="BOOL">
					<dim>4</dim>
				</port>
				<port id="1" precision="I64">
					<dim>4</dim>
				</port>
				<port id="2" precision="I64">
					<dim>4</dim>
				</port>
			</input>
			<output>
				<port id="3" precision="I64" names="156">
					<dim>4</dim>
				</port>
			</output>
		</layer>
		<layer id="83" name="Expand_83" type="Broadcast" version="opset3">
			<data mode="bidirectional"/>
			<input>
				<port id="0" precision="I64">
					<dim>112</dim>
				</port>
				<port id="1" precision="I64">
					<dim>4</dim>
				</port>
			</input>
			<output>
				<port id="2" precision="I64" names="157">
					<dim>1</dim>
					<dim>4</dim>
					<dim>112</dim>
					<dim>112</dim>
				</port>
			</output>
		</layer>
		<layer id="84" name="Unsqueeze_84/Dims" type="Const" version="opset1">
			<data element_type="i64" shape="1" offset="1756" size="8"/>
			<output>
				<port id="0" precision="I64">
					<dim>1</dim>
				</port>
			</output>
		</layer>
		<layer id="85" name="Unsqueeze_84/Unsqueeze" type="Unsqueeze" version="opset1">
			<input>
				<port id="0" precision="I64">
					<dim>1</dim>
					<dim>4</dim>
					<dim>112</dim>
					<dim>112</dim>
				</port>
				<port id="1" precision="I64">
					<dim>1</dim>
				</port>
			</input>
			<output>
				<port id="2" precision="I64" names="158">
					<dim>1</dim>
					<dim>4</dim>
					<dim>112</dim>
					<dim>112</dim>
					<dim>1</dim>
				</port>
			</output>
		</layer>
		<layer id="86" name="Concat_85" type="Concat" version="opset1">
			<data axis="4"/>
			<input>
				<port id="0" precision="I64">
					<dim>1</dim>
					<dim>4</dim>
					<dim>112</dim>
					<dim>112</dim>
					<dim>1</dim>
				</port>
				<port id="1" precision="I64">
					<dim>1</dim>
					<dim>4</dim>
					<dim>112</dim>
					<dim>112</dim>
					<dim>1</dim>
				</port>
				<port id="2" precision="I64">
					<dim>1</dim>
					<dim>4</dim>
					<dim>112</dim>
					<dim>112</dim>
					<dim>1</dim>
				</port>
				<port id="3" precision="I64">
					<dim>1</dim>
					<dim>4</dim>
					<dim>112</dim>
					<dim>112</dim>
					<dim>1</dim>
				</port>
			</input>
			<output>
				<port id="4" precision="I64" names="159">
					<dim>1</dim>
					<dim>4</dim>
					<dim>112</dim>
					<dim>112</dim>
					<dim>4</dim>
				</port>
			</output>
		</layer>
		<layer id="87" name="Constant_16" type="Const" version="opset1">
			<data element_type="f32" shape="4, 112, 112" offset="1852" size="200704"/>
			<output>
				<port id="0" precision="FP32" names="87">
					<dim>4</dim>
					<dim>112</dim>
					<dim>112</dim>
				</port>
			</output>
		</layer>
		<layer id="88" name="Constant_9" type="Const" version="opset1">
			<data element_type="i32" shape="" offset="202556" size="4"/>
			<output>
				<port id="0" precision="I32" names="80"/>
			</output>
		</layer>
		<layer id="89" name="Gather_10/axis" type="Const" version="opset1">
			<data element_type="i64" shape="" offset="1736" size="8"/>
			<output>
				<port id="0" precision="I64"/>
			</output>
		</layer>
		<layer id="90" name="Gather_101601" type="Gather" version="opset7">
			<data batch_dims="0"/>
			<input>
				<port id="0" precision="FP32">
					<dim>1</dim>
					<dim>16</dim>
					<dim>112</dim>
					<dim>112</dim>
				</port>
				<port id="1" precision="I32"/>
				<port id="2" precision="I64"/>
			</input>
			<output>
				<port id="3" precision="FP32" names="81">
					<dim>16</dim>
					<dim>112</dim>
					<dim>112</dim>
				</port>
			</output>
		</layer>
		<layer id="91" name="Slice_15/Concat1307547421" type="Const" version="opset1">
			<data element_type="i64" shape="3" offset="202560" size="24"/>
			<output>
				<port id="0" precision="I64">
					<dim>3</dim>
				</port>
			</output>
		</layer>
		<layer id="92" name="Slice_15/Concat130611307647637" type="Const" version="opset1">
			<data element_type="i64" shape="3" offset="202584" size="24"/>
			<output>
				<port id="0" precision="I64">
					<dim>3</dim>
				</port>
			</output>
		</layer>
		<layer id="93" name="Slice_15/Strides1307747739" type="Const" version="opset1">
			<data element_type="i64" shape="3" offset="202608" size="24"/>
			<output>
				<port id="0" precision="I64">
					<dim>3</dim>
				</port>
			</output>
		</layer>
		<layer id="94" name="Slice_15" type="StridedSlice" version="opset1">
			<data begin_mask="0, 1, 1" end_mask="0, 1, 1" new_axis_mask="0, 0, 0" shrink_axis_mask="0, 0, 0" ellipsis_mask="0, 0, 0"/>
			<input>
				<port id="0" precision="FP32">
					<dim>16</dim>
					<dim>112</dim>
					<dim>112</dim>
				</port>
				<port id="1" precision="I64">
					<dim>3</dim>
				</port>
				<port id="2" precision="I64">
					<dim>3</dim>
				</port>
				<port id="3" precision="I64">
					<dim>3</dim>
				</port>
			</input>
			<output>
				<port id="4" precision="FP32" names="86">
					<dim>4</dim>
					<dim>112</dim>
					<dim>112</dim>
				</port>
			</output>
		</layer>
		<layer id="95" name="Shape_17" type="ShapeOf" version="opset3">
			<data output_type="i64"/>
			<input>
				<port id="0" precision="FP32">
					<dim>4</dim>
					<dim>112</dim>
					<dim>112</dim>
				</port>
			</input>
			<output>
				<port id="1" precision="I64" names="88">
					<dim>3</dim>
				</port>
			</output>
		</layer>
		<layer id="96" name="Expand_18" type="Broadcast" version="opset3">
			<data mode="bidirectional"/>
			<input>
				<port id="0" precision="FP32">
					<dim>4</dim>
					<dim>112</dim>
					<dim>112</dim>
				</port>
				<port id="1" precision="I64">
					<dim>3</dim>
				</port>
			</input>
			<output>
				<port id="2" precision="FP32" names="89">
					<dim>4</dim>
					<dim>112</dim>
					<dim>112</dim>
				</port>
			</output>
		</layer>
		<layer id="97" name="Reshape_92" type="Reshape" version="opset1">
			<data special_zero="true"/>
			<input>
				<port id="0" precision="FP32">
					<dim>4</dim>
					<dim>112</dim>
					<dim>112</dim>
				</port>
				<port id="1" precision="I64">
					<dim>4</dim>
				</port>
			</input>
			<output>
				<port id="2" precision="FP32" names="166">
					<dim>1</dim>
					<dim>4</dim>
					<dim>112</dim>
					<dim>112</dim>
				</port>
			</output>
		</layer>
		<layer id="98" name="ScatterND_93" type="ScatterNDUpdate" version="opset4">
			<input>
				<port id="0" precision="FP32">
					<dim>1</dim>
					<dim>16</dim>
					<dim>112</dim>
					<dim>112</dim>
				</port>
				<port id="1" precision="I64">
					<dim>1</dim>
					<dim>4</dim>
					<dim>112</dim>
					<dim>112</dim>
					<dim>4</dim>
				</port>
				<port id="2" precision="FP32">
					<dim>1</dim>
					<dim>4</dim>
					<dim>112</dim>
					<dim>112</dim>
				</port>
			</input>
			<output>
				<port id="3" precision="FP32" names="167">
					<dim>1</dim>
					<dim>16</dim>
					<dim>112</dim>
					<dim>112</dim>
				</port>
			</output>
		</layer>
		<layer id="99" name="features.1.block.0.0.weight" type="Const" version="opset1">
			<data element_type="f32" shape="16, 1, 1, 3, 3" offset="202632" size="576"/>
			<output>
				<port id="0" precision="FP32" names="features.1.block.0.0.weight">
					<dim>16</dim>
					<dim>1</dim>
					<dim>1</dim>
					<dim>3</dim>
					<dim>3</dim>
				</port>
			</output>
		</layer>
		<layer id="100" name="Conv_94" type="GroupConvolution" version="opset1">
			<data strides="2, 2" pads_begin="1, 1" pads_end="1, 1" dilations="1, 1" auto_pad="explicit"/>
			<input>
				<port id="0" precision="FP32">
					<dim>1</dim>
					<dim>16</dim>
					<dim>112</dim>
					<dim>112</dim>
				</port>
				<port id="1" precision="FP32">
					<dim>16</dim>
					<dim>1</dim>
					<dim>1</dim>
					<dim>3</dim>
					<dim>3</dim>
				</port>
			</input>
			<output>
				<port id="2" precision="FP32" names="168">
					<dim>1</dim>
					<dim>16</dim>
					<dim>56</dim>
					<dim>56</dim>
				</port>
			</output>
		</layer>
		<layer id="101" name="Relu_95" type="ReLU" version="opset1">
			<input>
				<port id="0" precision="FP32">
					<dim>1</dim>
					<dim>16</dim>
					<dim>56</dim>
					<dim>56</dim>
				</port>
			</input>
			<output>
				<port id="1" precision="FP32" names="169">
					<dim>1</dim>
					<dim>16</dim>
					<dim>56</dim>
					<dim>56</dim>
				</port>
			</output>
		</layer>
		<layer id="102" name="1381" type="Const" version="opset1">
			<data element_type="i64" shape="" offset="203208" size="8"/>
			<output>
				<port id="0" precision="I64"/>
			</output>
		</layer>
		<layer id="103" name="GlobalAveragePool_96/input_rank/shape_of" type="ShapeOf" version="opset3">
			<data output_type="i64"/>
			<input>
				<port id="0" precision="FP32">
					<dim>1</dim>
					<dim>16</dim>
					<dim>56</dim>
					<dim>56</dim>
				</port>
			</input>
			<output>
				<port id="1" precision="I64">
					<dim>4</dim>
				</port>
			</output>
		</layer>
		<layer id="104" name="GlobalAveragePool_96/input_rank/rank_of" type="ShapeOf" version="opset3">
			<data output_type="i64"/>
			<input>
				<port id="0" precision="I64">
					<dim>4</dim>
				</port>
			</input>
			<output>
				<port id="1" precision="I64">
					<dim>1</dim>
				</port>
			</output>
		</layer>
		<layer id="105" name="GlobalAveragePool_96/input_rank/0d_rank_of/value" type="Const" version="opset1">
			<data element_type="i64" shape="1" offset="1736" size="8"/>
			<output>
				<port id="0" precision="I64">
					<dim>1</dim>
				</port>
			</output>
		</layer>
		<layer id="106" name="GlobalAveragePool_96/input_rank" type="Squeeze" version="opset1">
			<input>
				<port id="0" precision="I64">
					<dim>1</dim>
				</port>
				<port id="1" precision="I64">
					<dim>1</dim>
				</port>
			</input>
			<output>
				<port id="2" precision="I64"/>
			</output>
		</layer>
		<layer id="107" name="1383" type="Const" version="opset1">
			<data element_type="i64" shape="" offset="1748" size="8"/>
			<output>
				<port id="0" precision="I64"/>
			</output>
		</layer>
		<layer id="108" name="GlobalAveragePool_96/global_pooling_reduce_axis" type="Range" version="opset4">
			<data output_type="i64"/>
			<input>
				<port id="0" precision="I64"/>
				<port id="1" precision="I64"/>
				<port id="2" precision="I64"/>
			</input>
			<output>
				<port id="3" precision="I64">
					<dim>2</dim>
				</port>
			</output>
		</layer>
		<layer id="109" name="GlobalAveragePool_96/reduce" type="ReduceMean" version="opset1">
			<data keep_dims="true"/>
			<input>
				<port id="0" precision="FP32">
					<dim>1</dim>
					<dim>16</dim>
					<dim>56</dim>
					<dim>56</dim>
				</port>
				<port id="1" precision="I64">
					<dim>2</dim>
				</port>
			</input>
			<output>
				<port id="2" precision="FP32" names="170">
					<dim>1</dim>
					<dim>16</dim>
					<dim>1</dim>
					<dim>1</dim>
				</port>
			</output>
		</layer>
		<layer id="110" name="features.1.block.1.fc1.weight" type="Const" version="opset1">
			<data element_type="f32" shape="8, 16, 1, 1" offset="203216" size="512"/>
			<output>
				<port id="0" precision="FP32" names="features.1.block.1.fc1.weight">
					<dim>8</dim>
					<dim>16</dim>
					<dim>1</dim>
					<dim>1</dim>
				</port>
			</output>
		</layer>
		<layer id="111" name="Conv_97/WithoutBiases" type="Convolution" version="opset1">
			<data strides="1, 1" dilations="1, 1" pads_begin="0, 0" pads_end="0, 0" auto_pad="explicit"/>
			<input>
				<port id="0" precision="FP32">
					<dim>1</dim>
					<dim>16</dim>
					<dim>1</dim>
					<dim>1</dim>
				</port>
				<port id="1" precision="FP32">
					<dim>8</dim>
					<dim>16</dim>
					<dim>1</dim>
					<dim>1</dim>
				</port>
			</input>
			<output>
				<port id="2" precision="FP32">
					<dim>1</dim>
					<dim>8</dim>
					<dim>1</dim>
					<dim>1</dim>
				</port>
			</output>
		</layer>
		<layer id="112" name="Conv_97/Dims12321" type="Const" version="opset1">
			<data element_type="f32" shape="1, 8, 1, 1" offset="203728" size="32"/>
			<output>
				<port id="0" precision="FP32">
					<dim>1</dim>
					<dim>8</dim>
					<dim>1</dim>
					<dim>1</dim>
				</port>
			</output>
		</layer>
		<layer id="113" name="Conv_97" type="Add" version="opset1">
			<data auto_broadcast="numpy"/>
			<input>
				<port id="0" precision="FP32">
					<dim>1</dim>
					<dim>8</dim>
					<dim>1</dim>
					<dim>1</dim>
				</port>
				<port id="1" precision="FP32">
					<dim>1</dim>
					<dim>8</dim>
					<dim>1</dim>
					<dim>1</dim>
				</port>
			</input>
			<output>
				<port id="2" precision="FP32" names="171">
					<dim>1</dim>
					<dim>8</dim>
					<dim>1</dim>
					<dim>1</dim>
				</port>
			</output>
		</layer>
		<layer id="114" name="Relu_98" type="ReLU" version="opset1">
			<input>
				<port id="0" precision="FP32">
					<dim>1</dim>
					<dim>8</dim>
					<dim>1</dim>
					<dim>1</dim>
				</port>
			</input>
			<output>
				<port id="1" precision="FP32" names="172">
					<dim>1</dim>
					<dim>8</dim>
					<dim>1</dim>
					<dim>1</dim>
				</port>
			</output>
		</layer>
		<layer id="115" name="features.1.block.1.fc2.weight" type="Const" version="opset1">
			<data element_type="f32" shape="16, 8, 1, 1" offset="203760" size="512"/>
			<output>
				<port id="0" precision="FP32" names="features.1.block.1.fc2.weight">
					<dim>16</dim>
					<dim>8</dim>
					<dim>1</dim>
					<dim>1</dim>
				</port>
			</output>
		</layer>
		<layer id="116" name="Conv_99/WithoutBiases" type="Convolution" version="opset1">
			<data strides="1, 1" dilations="1, 1" pads_begin="0, 0" pads_end="0, 0" auto_pad="explicit"/>
			<input>
				<port id="0" precision="FP32">
					<dim>1</dim>
					<dim>8</dim>
					<dim>1</dim>
					<dim>1</dim>
				</port>
				<port id="1" precision="FP32">
					<dim>16</dim>
					<dim>8</dim>
					<dim>1</dim>
					<dim>1</dim>
				</port>
			</input>
			<output>
				<port id="2" precision="FP32">
					<dim>1</dim>
					<dim>16</dim>
					<dim>1</dim>
					<dim>1</dim>
				</port>
			</output>
		</layer>
		<layer id="117" name="Conv_99/Dims12345" type="Const" version="opset1">
			<data element_type="f32" shape="1, 16, 1, 1" offset="204272" size="64"/>
			<output>
				<port id="0" precision="FP32">
					<dim>1</dim>
					<dim>16</dim>
					<dim>1</dim>
					<dim>1</dim>
				</port>
			</output>
		</layer>
		<layer id="118" name="Conv_99" type="Add" version="opset1">
			<data auto_broadcast="numpy"/>
			<input>
				<port id="0" precision="FP32">
					<dim>1</dim>
					<dim>16</dim>
					<dim>1</dim>
					<dim>1</dim>
				</port>
				<port id="1" precision="FP32">
					<dim>1</dim>
					<dim>16</dim>
					<dim>1</dim>
					<dim>1</dim>
				</port>
			</input>
			<output>
				<port id="2" precision="FP32" names="173">
					<dim>1</dim>
					<dim>16</dim>
					<dim>1</dim>
					<dim>1</dim>
				</port>
			</output>
		</layer>
		<layer id="119" name="HardSigmoid_100/HardSigmoid__input_port_1/value" type="Const" version="opset1">
			<data element_type="f32" shape="" offset="1732" size="4"/>
			<output>
				<port id="0" precision="FP32"/>
			</output>
		</layer>
		<layer id="120" name="HardSigmoid_100/HardSigmoid__input_port_2/value" type="Const" version="opset1">
			<data element_type="f32" shape="" offset="204336" size="4"/>
			<output>
				<port id="0" precision="FP32"/>
			</output>
		</layer>
		<layer id="121" name="HardSigmoid_100/HardSigmoid_" type="HardSigmoid" version="opset1">
			<input>
				<port id="0" precision="FP32">
					<dim>1</dim>
					<dim>16</dim>
					<dim>1</dim>
					<dim>1</dim>
				</port>
				<port id="1" precision="FP32"/>
				<port id="2" precision="FP32"/>
			</input>
			<output>
				<port id="3" precision="FP32" names="174">
					<dim>1</dim>
					<dim>16</dim>
					<dim>1</dim>
					<dim>1</dim>
				</port>
			</output>
		</layer>
		<layer id="122" name="Mul_101" type="Multiply" version="opset1">
			<data auto_broadcast="numpy"/>
			<input>
				<port id="0" precision="FP32">
					<dim>1</dim>
					<dim>16</dim>
					<dim>1</dim>
					<dim>1</dim>
				</port>
				<port id="1" precision="FP32">
					<dim>1</dim>
					<dim>16</dim>
					<dim>56</dim>
					<dim>56</dim>
				</port>
			</input>
			<output>
				<port id="2" precision="FP32" names="175">
					<dim>1</dim>
					<dim>16</dim>
					<dim>56</dim>
					<dim>56</dim>
				</port>
			</output>
		</layer>
		<layer id="123" name="features.1.block.2.0.weight" type="Const" version="opset1">
			<data element_type="f32" shape="16, 16, 1, 1" offset="204340" size="1024"/>
			<output>
				<port id="0" precision="FP32" names="features.1.block.2.0.weight">
					<dim>16</dim>
					<dim>16</dim>
					<dim>1</dim>
					<dim>1</dim>
				</port>
			</output>
		</layer>
		<layer id="124" name="Conv_102" type="Convolution" version="opset1">
			<data strides="1, 1" dilations="1, 1" pads_begin="0, 0" pads_end="0, 0" auto_pad="explicit"/>
			<input>
				<port id="0" precision="FP32">
					<dim>1</dim>
					<dim>16</dim>
					<dim>56</dim>
					<dim>56</dim>
				</port>
				<port id="1" precision="FP32">
					<dim>16</dim>
					<dim>16</dim>
					<dim>1</dim>
					<dim>1</dim>
				</port>
			</input>
			<output>
				<port id="2" precision="FP32" names="176">
					<dim>1</dim>
					<dim>16</dim>
					<dim>56</dim>
					<dim>56</dim>
				</port>
			</output>
		</layer>
		<layer id="125" name="128747091" type="Const" version="opset1">
			<data element_type="i64" shape="1, 1, 1, 1" offset="1736" size="8"/>
			<output>
				<port id="0" precision="I64" names="1287">
					<dim>1</dim>
					<dim>1</dim>
					<dim>1</dim>
					<dim>1</dim>
				</port>
			</output>
		</layer>
		<layer id="126" name="1287" type="Const" version="opset1">
			<data element_type="i64" shape="1, 1, 1, 1" offset="1736" size="8"/>
			<output>
				<port id="0" precision="I64" names="1287">
					<dim>1</dim>
					<dim>1</dim>
					<dim>1</dim>
					<dim>1</dim>
				</port>
			</output>
		</layer>
		<layer id="127" name="Constant_117" type="Const" version="opset1">
			<data element_type="i64" shape="" offset="1736" size="8"/>
			<output>
				<port id="0" precision="I64" names="192"/>
			</output>
		</layer>
		<layer id="128" name="Shape_113" type="ShapeOf" version="opset3">
			<data output_type="i64"/>
			<input>
				<port id="0" precision="FP32">
					<dim>1</dim>
					<dim>16</dim>
					<dim>56</dim>
					<dim>56</dim>
				</port>
			</input>
			<output>
				<port id="1" precision="I64" names="188">
					<dim>4</dim>
				</port>
			</output>
		</layer>
		<layer id="129" name="Constant_114" type="Const" version="opset1">
			<data element_type="i32" shape="" offset="1744" size="4"/>
			<output>
				<port id="0" precision="I32" names="189"/>
			</output>
		</layer>
		<layer id="130" name="Gather_115/axis" type="Const" version="opset1">
			<data element_type="i64" shape="" offset="1736" size="8"/>
			<output>
				<port id="0" precision="I64"/>
			</output>
		</layer>
		<layer id="131" name="Gather_1151621" type="Gather" version="opset7">
			<data batch_dims="0"/>
			<input>
				<port id="0" precision="I64">
					<dim>4</dim>
				</port>
				<port id="1" precision="I32"/>
				<port id="2" precision="I64"/>
			</input>
			<output>
				<port id="3" precision="I64" names="190,191"/>
			</output>
		</layer>
		<layer id="132" name="Constant_118" type="Const" version="opset1">
			<data element_type="i64" shape="" offset="1748" size="8"/>
			<output>
				<port id="0" precision="I64" names="193"/>
			</output>
		</layer>
		<layer id="133" name="Range_119" type="Range" version="opset4">
			<data output_type="i64"/>
			<input>
				<port id="0" precision="I64"/>
				<port id="1" precision="I64"/>
				<port id="2" precision="I64"/>
			</input>
			<output>
				<port id="3" precision="I64" names="194">
					<dim>16</dim>
				</port>
			</output>
		</layer>
		<layer id="134" name="Slice_124/Concat1322747670" type="Const" version="opset1">
			<data element_type="i64" shape="1" offset="1736" size="8"/>
			<output>
				<port id="0" precision="I64">
					<dim>1</dim>
				</port>
			</output>
		</layer>
		<layer id="135" name="Slice_124/Concat132171322847796" type="Const" version="opset1">
			<data element_type="i64" shape="1" offset="1756" size="8"/>
			<output>
				<port id="0" precision="I64">
					<dim>1</dim>
				</port>
			</output>
		</layer>
		<layer id="136" name="Slice_124/Strides1322947208" type="Const" version="opset1">
			<data element_type="i64" shape="1" offset="1748" size="8"/>
			<output>
				<port id="0" precision="I64">
					<dim>1</dim>
				</port>
			</output>
		</layer>
		<layer id="137" name="Slice_124" type="StridedSlice" version="opset1">
			<data begin_mask="0" end_mask="0" new_axis_mask="0" shrink_axis_mask="0" ellipsis_mask="0"/>
			<input>
				<port id="0" precision="I64">
					<dim>16</dim>
				</port>
				<port id="1" precision="I64">
					<dim>1</dim>
				</port>
				<port id="2" precision="I64">
					<dim>1</dim>
				</port>
				<port id="3" precision="I64">
					<dim>1</dim>
				</port>
			</input>
			<output>
				<port id="4" precision="I64" names="199">
					<dim>4</dim>
				</port>
			</output>
		</layer>
		<layer id="138" name="Constant_139" type="Const" version="opset1">
			<data element_type="i64" shape="3" offset="1764" size="24"/>
			<output>
				<port id="0" precision="I64" names="216">
					<dim>3</dim>
				</port>
			</output>
		</layer>
		<layer id="139" name="Reshape_140" type="Reshape" version="opset1">
			<data special_zero="true"/>
			<input>
				<port id="0" precision="I64">
					<dim>4</dim>
				</port>
				<port id="1" precision="I64">
					<dim>3</dim>
				</port>
			</input>
			<output>
				<port id="2" precision="I64">
					<dim>4</dim>
					<dim>1</dim>
					<dim>1</dim>
				</port>
			</output>
		</layer>
		<layer id="140" name="Reshape_140/EltwiseUnsqueeze_input_port_1/value2109746803" type="Const" version="opset1">
			<data element_type="i64" shape="1" offset="1736" size="8"/>
			<output>
				<port id="0" precision="I64">
					<dim>1</dim>
				</port>
			</output>
		</layer>
		<layer id="141" name="Reshape_140/EltwiseUnsqueeze" type="Unsqueeze" version="opset1">
			<input>
				<port id="0" precision="I64">
					<dim>4</dim>
					<dim>1</dim>
					<dim>1</dim>
				</port>
				<port id="1" precision="I64">
					<dim>1</dim>
				</port>
			</input>
			<output>
				<port id="2" precision="I64" names="217">
					<dim>1</dim>
					<dim>4</dim>
					<dim>1</dim>
					<dim>1</dim>
				</port>
			</output>
		</layer>
		<layer id="142" name="Add_143" type="Add" version="opset1">
			<data auto_broadcast="numpy"/>
			<input>
				<port id="0" precision="I64">
					<dim>1</dim>
					<dim>1</dim>
					<dim>1</dim>
					<dim>1</dim>
				</port>
				<port id="1" precision="I64">
					<dim>1</dim>
					<dim>4</dim>
					<dim>1</dim>
					<dim>1</dim>
				</port>
			</input>
			<output>
				<port id="2" precision="I64" names="220">
					<dim>1</dim>
					<dim>4</dim>
					<dim>1</dim>
					<dim>1</dim>
				</port>
			</output>
		</layer>
		<layer id="143" name="Constant_129" type="Const" version="opset1">
			<data element_type="i64" shape="" offset="1736" size="8"/>
			<output>
				<port id="0" precision="I64" names="204"/>
			</output>
		</layer>
		<layer id="144" name="Shape_125" type="ShapeOf" version="opset3">
			<data output_type="i64"/>
			<input>
				<port id="0" precision="FP32">
					<dim>1</dim>
					<dim>16</dim>
					<dim>56</dim>
					<dim>56</dim>
				</port>
			</input>
			<output>
				<port id="1" precision="I64" names="200">
					<dim>4</dim>
				</port>
			</output>
		</layer>
		<layer id="145" name="Constant_126" type="Const" version="opset1">
			<data element_type="i32" shape="" offset="1788" size="4"/>
			<output>
				<port id="0" precision="I32" names="201"/>
			</output>
		</layer>
		<layer id="146" name="Gather_127/axis" type="Const" version="opset1">
			<data element_type="i64" shape="" offset="1736" size="8"/>
			<output>
				<port id="0" precision="I64"/>
			</output>
		</layer>
		<layer id="147" name="Gather_1271569" type="Gather" version="opset7">
			<data batch_dims="0"/>
			<input>
				<port id="0" precision="I64">
					<dim>4</dim>
				</port>
				<port id="1" precision="I32"/>
				<port id="2" precision="I64"/>
			</input>
			<output>
				<port id="3" precision="I64" names="202,203"/>
			</output>
		</layer>
		<layer id="148" name="Constant_130" type="Const" version="opset1">
			<data element_type="i64" shape="" offset="1748" size="8"/>
			<output>
				<port id="0" precision="I64" names="205"/>
			</output>
		</layer>
		<layer id="149" name="Range_131" type="Range" version="opset4">
			<data output_type="i64"/>
			<input>
				<port id="0" precision="I64"/>
				<port id="1" precision="I64"/>
				<port id="2" precision="I64"/>
			</input>
			<output>
				<port id="3" precision="I64" names="206">
					<dim>56</dim>
				</port>
			</output>
		</layer>
		<layer id="150" name="Constant_141" type="Const" version="opset1">
			<data element_type="i64" shape="2" offset="1792" size="16"/>
			<output>
				<port id="0" precision="I64" names="218">
					<dim>2</dim>
				</port>
			</output>
		</layer>
		<layer id="151" name="Reshape_142" type="Reshape" version="opset1">
			<data special_zero="true"/>
			<input>
				<port id="0" precision="I64">
					<dim>56</dim>
				</port>
				<port id="1" precision="I64">
					<dim>2</dim>
				</port>
			</input>
			<output>
				<port id="2" precision="I64">
					<dim>56</dim>
					<dim>1</dim>
				</port>
			</output>
		</layer>
		<layer id="152" name="Reshape_142/EltwiseUnsqueeze_input_port_1/value2110146992" type="Const" version="opset1">
			<data element_type="i64" shape="2" offset="1808" size="16"/>
			<output>
				<port id="0" precision="I64">
					<dim>2</dim>
				</port>
			</output>
		</layer>
		<layer id="153" name="Reshape_142/EltwiseUnsqueeze" type="Unsqueeze" version="opset1">
			<input>
				<port id="0" precision="I64">
					<dim>56</dim>
					<dim>1</dim>
				</port>
				<port id="1" precision="I64">
					<dim>2</dim>
				</port>
			</input>
			<output>
				<port id="2" precision="I64" names="219">
					<dim>1</dim>
					<dim>1</dim>
					<dim>56</dim>
					<dim>1</dim>
				</port>
			</output>
		</layer>
		<layer id="154" name="Add_144" type="Add" version="opset1">
			<data auto_broadcast="numpy"/>
			<input>
				<port id="0" precision="I64">
					<dim>1</dim>
					<dim>4</dim>
					<dim>1</dim>
					<dim>1</dim>
				</port>
				<port id="1" precision="I64">
					<dim>1</dim>
					<dim>1</dim>
					<dim>56</dim>
					<dim>1</dim>
				</port>
			</input>
			<output>
				<port id="2" precision="I64" names="221">
					<dim>1</dim>
					<dim>4</dim>
					<dim>56</dim>
					<dim>1</dim>
				</port>
			</output>
		</layer>
		<layer id="155" name="Constant_136" type="Const" version="opset1">
			<data element_type="i64" shape="" offset="1736" size="8"/>
			<output>
				<port id="0" precision="I64" names="211"/>
			</output>
		</layer>
		<layer id="156" name="Shape_132" type="ShapeOf" version="opset3">
			<data output_type="i64"/>
			<input>
				<port id="0" precision="FP32">
					<dim>1</dim>
					<dim>16</dim>
					<dim>56</dim>
					<dim>56</dim>
				</port>
			</input>
			<output>
				<port id="1" precision="I64" names="207">
					<dim>4</dim>
				</port>
			</output>
		</layer>
		<layer id="157" name="Constant_133" type="Const" version="opset1">
			<data element_type="i32" shape="" offset="1824" size="4"/>
			<output>
				<port id="0" precision="I32" names="208"/>
			</output>
		</layer>
		<layer id="158" name="Gather_134/axis" type="Const" version="opset1">
			<data element_type="i64" shape="" offset="1736" size="8"/>
			<output>
				<port id="0" precision="I64"/>
			</output>
		</layer>
		<layer id="159" name="Gather_1341567" type="Gather" version="opset7">
			<data batch_dims="0"/>
			<input>
				<port id="0" precision="I64">
					<dim>4</dim>
				</port>
				<port id="1" precision="I32"/>
				<port id="2" precision="I64"/>
			</input>
			<output>
				<port id="3" precision="I64" names="209,210"/>
			</output>
		</layer>
		<layer id="160" name="Constant_137" type="Const" version="opset1">
			<data element_type="i64" shape="" offset="1748" size="8"/>
			<output>
				<port id="0" precision="I64" names="212"/>
			</output>
		</layer>
		<layer id="161" name="Range_138" type="Range" version="opset4">
			<data output_type="i64"/>
			<input>
				<port id="0" precision="I64"/>
				<port id="1" precision="I64"/>
				<port id="2" precision="I64"/>
			</input>
			<output>
				<port id="3" precision="I64">
					<dim>56</dim>
				</port>
			</output>
		</layer>
		<layer id="162" name="Range_138/EltwiseUnsqueeze_input_port_1/value2110546953" type="Const" version="opset1">
			<data element_type="i64" shape="3" offset="1828" size="24"/>
			<output>
				<port id="0" precision="I64">
					<dim>3</dim>
				</port>
			</output>
		</layer>
		<layer id="163" name="Range_138/EltwiseUnsqueeze" type="Unsqueeze" version="opset1">
			<input>
				<port id="0" precision="I64">
					<dim>56</dim>
				</port>
				<port id="1" precision="I64">
					<dim>3</dim>
				</port>
			</input>
			<output>
				<port id="2" precision="I64" names="213">
					<dim>1</dim>
					<dim>1</dim>
					<dim>1</dim>
					<dim>56</dim>
				</port>
			</output>
		</layer>
		<layer id="164" name="Add_145" type="Add" version="opset1">
			<data auto_broadcast="numpy"/>
			<input>
				<port id="0" precision="I64">
					<dim>1</dim>
					<dim>4</dim>
					<dim>56</dim>
					<dim>1</dim>
				</port>
				<port id="1" precision="I64">
					<dim>1</dim>
					<dim>1</dim>
					<dim>1</dim>
					<dim>56</dim>
				</port>
			</input>
			<output>
				<port id="2" precision="I64" names="222">
					<dim>1</dim>
					<dim>4</dim>
					<dim>56</dim>
					<dim>56</dim>
				</port>
			</output>
		</layer>
		<layer id="165" name="Shape_146" type="ShapeOf" version="opset3">
			<data output_type="i64"/>
			<input>
				<port id="0" precision="I64">
					<dim>1</dim>
					<dim>4</dim>
					<dim>56</dim>
					<dim>56</dim>
				</port>
			</input>
			<output>
				<port id="1" precision="I64" names="223,262">
					<dim>4</dim>
				</port>
			</output>
		</layer>
		<layer id="166" name="ConstantOfShape_148/Broadcast/FillValue" type="Const" version="opset1">
			<data element_type="i64" shape="1" offset="1748" size="8"/>
			<output>
				<port id="0" precision="I64">
					<dim>1</dim>
				</port>
			</output>
		</layer>
		<layer id="167" name="Shape_147" type="ShapeOf" version="opset3">
			<data output_type="i64"/>
			<input>
				<port id="0" precision="I64">
					<dim>4</dim>
				</port>
			</input>
			<output>
				<port id="1" precision="I64" names="224">
					<dim>1</dim>
				</port>
			</output>
		</layer>
		<layer id="168" name="ConstantOfShape_148/Broadcast" type="Broadcast" version="opset3">
			<data mode="numpy"/>
			<input>
				<port id="0" precision="I64">
					<dim>1</dim>
				</port>
				<port id="1" precision="I64">
					<dim>1</dim>
				</port>
			</input>
			<output>
				<port id="2" precision="I64" names="225">
					<dim>4</dim>
				</port>
			</output>
		</layer>
		<layer id="169" name="Mul_150/Negate" type="Negative" version="opset1">
			<input>
				<port id="0" precision="I64">
					<dim>4</dim>
				</port>
			</input>
			<output>
				<port id="1" precision="I64" names="227">
					<dim>4</dim>
				</port>
			</output>
		</layer>
		<layer id="170" name="Equal_151" type="Equal" version="opset1">
			<input>
				<port id="0" precision="I64">
					<dim>4</dim>
				</port>
				<port id="1" precision="I64">
					<dim>4</dim>
				</port>
			</input>
			<output>
				<port id="2" precision="BOOL" names="228">
					<dim>4</dim>
				</port>
			</output>
		</layer>
		<layer id="171" name="Where_152" type="Select" version="opset1">
			<data auto_broadcast="numpy"/>
			<input>
				<port id="0" precision="BOOL">
					<dim>4</dim>
				</port>
				<port id="1" precision="I64">
					<dim>4</dim>
				</port>
				<port id="2" precision="I64">
					<dim>4</dim>
				</port>
			</input>
			<output>
				<port id="3" precision="I64" names="229">
					<dim>4</dim>
				</port>
			</output>
		</layer>
		<layer id="172" name="Expand_153" type="Broadcast" version="opset3">
			<data mode="bidirectional"/>
			<input>
				<port id="0" precision="I64">
					<dim>1</dim>
					<dim>1</dim>
					<dim>1</dim>
					<dim>1</dim>
				</port>
				<port id="1" precision="I64">
					<dim>4</dim>
				</port>
			</input>
			<output>
				<port id="2" precision="I64" names="230">
					<dim>1</dim>
					<dim>4</dim>
					<dim>56</dim>
					<dim>56</dim>
				</port>
			</output>
		</layer>
		<layer id="173" name="Unsqueeze_154/Dims" type="Const" version="opset1">
			<data element_type="i64" shape="1" offset="1756" size="8"/>
			<output>
				<port id="0" precision="I64">
					<dim>1</dim>
				</port>
			</output>
		</layer>
		<layer id="174" name="Unsqueeze_154/Unsqueeze" type="Unsqueeze" version="opset1">
			<input>
				<port id="0" precision="I64">
					<dim>1</dim>
					<dim>4</dim>
					<dim>56</dim>
					<dim>56</dim>
				</port>
				<port id="1" precision="I64">
					<dim>1</dim>
				</port>
			</input>
			<output>
				<port id="2" precision="I64" names="231">
					<dim>1</dim>
					<dim>4</dim>
					<dim>56</dim>
					<dim>56</dim>
					<dim>1</dim>
				</port>
			</output>
		</layer>
		<layer id="175" name="ConstantOfShape_156/Broadcast/FillValue" type="Const" version="opset1">
			<data element_type="i64" shape="1" offset="1748" size="8"/>
			<output>
				<port id="0" precision="I64">
					<dim>1</dim>
				</port>
			</output>
		</layer>
		<layer id="176" name="Shape_155" type="ShapeOf" version="opset3">
			<data output_type="i64"/>
			<input>
				<port id="0" precision="I64">
					<dim>4</dim>
				</port>
			</input>
			<output>
				<port id="1" precision="I64" names="232">
					<dim>1</dim>
				</port>
			</output>
		</layer>
		<layer id="177" name="ConstantOfShape_156/Broadcast" type="Broadcast" version="opset3">
			<data mode="numpy"/>
			<input>
				<port id="0" precision="I64">
					<dim>1</dim>
				</port>
				<port id="1" precision="I64">
					<dim>1</dim>
				</port>
			</input>
			<output>
				<port id="2" precision="I64" names="233">
					<dim>4</dim>
				</port>
			</output>
		</layer>
		<layer id="178" name="Mul_158/Negate" type="Negative" version="opset1">
			<input>
				<port id="0" precision="I64">
					<dim>4</dim>
				</port>
			</input>
			<output>
				<port id="1" precision="I64" names="235">
					<dim>4</dim>
				</port>
			</output>
		</layer>
		<layer id="179" name="Equal_159" type="Equal" version="opset1">
			<input>
				<port id="0" precision="I64">
					<dim>4</dim>
				</port>
				<port id="1" precision="I64">
					<dim>4</dim>
				</port>
			</input>
			<output>
				<port id="2" precision="BOOL" names="236">
					<dim>4</dim>
				</port>
			</output>
		</layer>
		<layer id="180" name="Where_160" type="Select" version="opset1">
			<data auto_broadcast="numpy"/>
			<input>
				<port id="0" precision="BOOL">
					<dim>4</dim>
				</port>
				<port id="1" precision="I64">
					<dim>4</dim>
				</port>
				<port id="2" precision="I64">
					<dim>4</dim>
				</port>
			</input>
			<output>
				<port id="3" precision="I64" names="237">
					<dim>4</dim>
				</port>
			</output>
		</layer>
		<layer id="181" name="Expand_161" type="Broadcast" version="opset3">
			<data mode="bidirectional"/>
			<input>
				<port id="0" precision="I64">
					<dim>4</dim>
					<dim>1</dim>
					<dim>1</dim>
				</port>
				<port id="1" precision="I64">
					<dim>4</dim>
				</port>
			</input>
			<output>
				<port id="2" precision="I64" names="238">
					<dim>1</dim>
					<dim>4</dim>
					<dim>56</dim>
					<dim>56</dim>
				</port>
			</output>
		</layer>
		<layer id="182" name="Unsqueeze_162/Dims" type="Const" version="opset1">
			<data element_type="i64" shape="1" offset="1756" size="8"/>
			<output>
				<port id="0" precision="I64">
					<dim>1</dim>
				</port>
			</output>
		</layer>
		<layer id="183" name="Unsqueeze_162/Unsqueeze" type="Unsqueeze" version="opset1">
			<input>
				<port id="0" precision="I64">
					<dim>1</dim>
					<dim>4</dim>
					<dim>56</dim>
					<dim>56</dim>
				</port>
				<port id="1" precision="I64">
					<dim>1</dim>
				</port>
			</input>
			<output>
				<port id="2" precision="I64" names="239">
					<dim>1</dim>
					<dim>4</dim>
					<dim>56</dim>
					<dim>56</dim>
					<dim>1</dim>
				</port>
			</output>
		</layer>
		<layer id="184" name="ConstantOfShape_164/Broadcast/FillValue" type="Const" version="opset1">
			<data element_type="i64" shape="1" offset="1748" size="8"/>
			<output>
				<port id="0" precision="I64">
					<dim>1</dim>
				</port>
			</output>
		</layer>
		<layer id="185" name="Shape_163" type="ShapeOf" version="opset3">
			<data output_type="i64"/>
			<input>
				<port id="0" precision="I64">
					<dim>4</dim>
				</port>
			</input>
			<output>
				<port id="1" precision="I64" names="240">
					<dim>1</dim>
				</port>
			</output>
		</layer>
		<layer id="186" name="ConstantOfShape_164/Broadcast" type="Broadcast" version="opset3">
			<data mode="numpy"/>
			<input>
				<port id="0" precision="I64">
					<dim>1</dim>
				</port>
				<port id="1" precision="I64">
					<dim>1</dim>
				</port>
			</input>
			<output>
				<port id="2" precision="I64" names="241">
					<dim>4</dim>
				</port>
			</output>
		</layer>
		<layer id="187" name="Mul_166/Negate" type="Negative" version="opset1">
			<input>
				<port id="0" precision="I64">
					<dim>4</dim>
				</port>
			</input>
			<output>
				<port id="1" precision="I64" names="243">
					<dim>4</dim>
				</port>
			</output>
		</layer>
		<layer id="188" name="Equal_167" type="Equal" version="opset1">
			<input>
				<port id="0" precision="I64">
					<dim>4</dim>
				</port>
				<port id="1" precision="I64">
					<dim>4</dim>
				</port>
			</input>
			<output>
				<port id="2" precision="BOOL" names="244">
					<dim>4</dim>
				</port>
			</output>
		</layer>
		<layer id="189" name="Where_168" type="Select" version="opset1">
			<data auto_broadcast="numpy"/>
			<input>
				<port id="0" precision="BOOL">
					<dim>4</dim>
				</port>
				<port id="1" precision="I64">
					<dim>4</dim>
				</port>
				<port id="2" precision="I64">
					<dim>4</dim>
				</port>
			</input>
			<output>
				<port id="3" precision="I64" names="245">
					<dim>4</dim>
				</port>
			</output>
		</layer>
		<layer id="190" name="Expand_169" type="Broadcast" version="opset3">
			<data mode="bidirectional"/>
			<input>
				<port id="0" precision="I64">
					<dim>56</dim>
					<dim>1</dim>
				</port>
				<port id="1" precision="I64">
					<dim>4</dim>
				</port>
			</input>
			<output>
				<port id="2" precision="I64" names="246">
					<dim>1</dim>
					<dim>4</dim>
					<dim>56</dim>
					<dim>56</dim>
				</port>
			</output>
		</layer>
		<layer id="191" name="Unsqueeze_170/Dims" type="Const" version="opset1">
			<data element_type="i64" shape="1" offset="1756" size="8"/>
			<output>
				<port id="0" precision="I64">
					<dim>1</dim>
				</port>
			</output>
		</layer>
		<layer id="192" name="Unsqueeze_170/Unsqueeze" type="Unsqueeze" version="opset1">
			<input>
				<port id="0" precision="I64">
					<dim>1</dim>
					<dim>4</dim>
					<dim>56</dim>
					<dim>56</dim>
				</port>
				<port id="1" precision="I64">
					<dim>1</dim>
				</port>
			</input>
			<output>
				<port id="2" precision="I64" names="247">
					<dim>1</dim>
					<dim>4</dim>
					<dim>56</dim>
					<dim>56</dim>
					<dim>1</dim>
				</port>
			</output>
		</layer>
		<layer id="193" name="ConstantOfShape_172/Broadcast/FillValue" type="Const" version="opset1">
			<data element_type="i64" shape="1" offset="1748" size="8"/>
			<output>
				<port id="0" precision="I64">
					<dim>1</dim>
				</port>
			</output>
		</layer>
		<layer id="194" name="Shape_171" type="ShapeOf" version="opset3">
			<data output_type="i64"/>
			<input>
				<port id="0" precision="I64">
					<dim>4</dim>
				</port>
			</input>
			<output>
				<port id="1" precision="I64" names="248">
					<dim>1</dim>
				</port>
			</output>
		</layer>
		<layer id="195" name="ConstantOfShape_172/Broadcast" type="Broadcast" version="opset3">
			<data mode="numpy"/>
			<input>
				<port id="0" precision="I64">
					<dim>1</dim>
				</port>
				<port id="1" precision="I64">
					<dim>1</dim>
				</port>
			</input>
			<output>
				<port id="2" precision="I64" names="249">
					<dim>4</dim>
				</port>
			</output>
		</layer>
		<layer id="196" name="Mul_174/Negate" type="Negative" version="opset1">
			<input>
				<port id="0" precision="I64">
					<dim>4</dim>
				</port>
			</input>
			<output>
				<port id="1" precision="I64" names="251">
					<dim>4</dim>
				</port>
			</output>
		</layer>
		<layer id="197" name="Equal_175" type="Equal" version="opset1">
			<input>
				<port id="0" precision="I64">
					<dim>4</dim>
				</port>
				<port id="1" precision="I64">
					<dim>4</dim>
				</port>
			</input>
			<output>
				<port id="2" precision="BOOL" names="252">
					<dim>4</dim>
				</port>
			</output>
		</layer>
		<layer id="198" name="Where_176" type="Select" version="opset1">
			<data auto_broadcast="numpy"/>
			<input>
				<port id="0" precision="BOOL">
					<dim>4</dim>
				</port>
				<port id="1" precision="I64">
					<dim>4</dim>
				</port>
				<port id="2" precision="I64">
					<dim>4</dim>
				</port>
			</input>
			<output>
				<port id="3" precision="I64" names="253">
					<dim>4</dim>
				</port>
			</output>
		</layer>
		<layer id="199" name="Expand_177" type="Broadcast" version="opset3">
			<data mode="bidirectional"/>
			<input>
				<port id="0" precision="I64">
					<dim>56</dim>
				</port>
				<port id="1" precision="I64">
					<dim>4</dim>
				</port>
			</input>
			<output>
				<port id="2" precision="I64" names="254">
					<dim>1</dim>
					<dim>4</dim>
					<dim>56</dim>
					<dim>56</dim>
				</port>
			</output>
		</layer>
		<layer id="200" name="Unsqueeze_178/Dims" type="Const" version="opset1">
			<data element_type="i64" shape="1" offset="1756" size="8"/>
			<output>
				<port id="0" precision="I64">
					<dim>1</dim>
				</port>
			</output>
		</layer>
		<layer id="201" name="Unsqueeze_178/Unsqueeze" type="Unsqueeze" version="opset1">
			<input>
				<port id="0" precision="I64">
					<dim>1</dim>
					<dim>4</dim>
					<dim>56</dim>
					<dim>56</dim>
				</port>
				<port id="1" precision="I64">
					<dim>1</dim>
				</port>
			</input>
			<output>
				<port id="2" precision="I64" names="255">
					<dim>1</dim>
					<dim>4</dim>
					<dim>56</dim>
					<dim>56</dim>
					<dim>1</dim>
				</port>
			</output>
		</layer>
		<layer id="202" name="Concat_179" type="Concat" version="opset1">
			<data axis="4"/>
			<input>
				<port id="0" precision="I64">
					<dim>1</dim>
					<dim>4</dim>
					<dim>56</dim>
					<dim>56</dim>
					<dim>1</dim>
				</port>
				<port id="1" precision="I64">
					<dim>1</dim>
					<dim>4</dim>
					<dim>56</dim>
					<dim>56</dim>
					<dim>1</dim>
				</port>
				<port id="2" precision="I64">
					<dim>1</dim>
					<dim>4</dim>
					<dim>56</dim>
					<dim>56</dim>
					<dim>1</dim>
				</port>
				<port id="3" precision="I64">
					<dim>1</dim>
					<dim>4</dim>
					<dim>56</dim>
					<dim>56</dim>
					<dim>1</dim>
				</port>
			</input>
			<output>
				<port id="4" precision="I64" names="256">
					<dim>1</dim>
					<dim>4</dim>
					<dim>56</dim>
					<dim>56</dim>
					<dim>4</dim>
				</port>
			</output>
		</layer>
		<layer id="203" name="Constant_110" type="Const" version="opset1">
			<data element_type="f32" shape="4, 56, 56" offset="205364" size="50176"/>
			<output>
				<port id="0" precision="FP32" names="184">
					<dim>4</dim>
					<dim>56</dim>
					<dim>56</dim>
				</port>
			</output>
		</layer>
		<layer id="204" name="Constant_103" type="Const" version="opset1">
			<data element_type="i32" shape="" offset="202556" size="4"/>
			<output>
				<port id="0" precision="I32" names="177"/>
			</output>
		</layer>
		<layer id="205" name="Gather_104/axis" type="Const" version="opset1">
			<data element_type="i64" shape="" offset="1736" size="8"/>
			<output>
				<port id="0" precision="I64"/>
			</output>
		</layer>
		<layer id="206" name="Gather_1041583" type="Gather" version="opset7">
			<data batch_dims="0"/>
			<input>
				<port id="0" precision="FP32">
					<dim>1</dim>
					<dim>16</dim>
					<dim>56</dim>
					<dim>56</dim>
				</port>
				<port id="1" precision="I32"/>
				<port id="2" precision="I64"/>
			</input>
			<output>
				<port id="3" precision="FP32" names="178">
					<dim>16</dim>
					<dim>56</dim>
					<dim>56</dim>
				</port>
			</output>
		</layer>
		<layer id="207" name="Slice_109/Concat1319148324" type="Const" version="opset1">
			<data element_type="i64" shape="3" offset="202560" size="24"/>
			<output>
				<port id="0" precision="I64">
					<dim>3</dim>
				</port>
			</output>
		</layer>
		<layer id="208" name="Slice_109/Concat131771319247433" type="Const" version="opset1">
			<data element_type="i64" shape="3" offset="202584" size="24"/>
			<output>
				<port id="0" precision="I64">
					<dim>3</dim>
				</port>
			</output>
		</layer>
		<layer id="209" name="Slice_109/Strides1319347961" type="Const" version="opset1">
			<data element_type="i64" shape="3" offset="202608" size="24"/>
			<output>
				<port id="0" precision="I64">
					<dim>3</dim>
				</port>
			</output>
		</layer>
		<layer id="210" name="Slice_109" type="StridedSlice" version="opset1">
			<data begin_mask="0, 1, 1" end_mask="0, 1, 1" new_axis_mask="0, 0, 0" shrink_axis_mask="0, 0, 0" ellipsis_mask="0, 0, 0"/>
			<input>
				<port id="0" precision="FP32">
					<dim>16</dim>
					<dim>56</dim>
					<dim>56</dim>
				</port>
				<port id="1" precision="I64">
					<dim>3</dim>
				</port>
				<port id="2" precision="I64">
					<dim>3</dim>
				</port>
				<port id="3" precision="I64">
					<dim>3</dim>
				</port>
			</input>
			<output>
				<port id="4" precision="FP32" names="183">
					<dim>4</dim>
					<dim>56</dim>
					<dim>56</dim>
				</port>
			</output>
		</layer>
		<layer id="211" name="Shape_111" type="ShapeOf" version="opset3">
			<data output_type="i64"/>
			<input>
				<port id="0" precision="FP32">
					<dim>4</dim>
					<dim>56</dim>
					<dim>56</dim>
				</port>
			</input>
			<output>
				<port id="1" precision="I64" names="185">
					<dim>3</dim>
				</port>
			</output>
		</layer>
		<layer id="212" name="Expand_112" type="Broadcast" version="opset3">
			<data mode="bidirectional"/>
			<input>
				<port id="0" precision="FP32">
					<dim>4</dim>
					<dim>56</dim>
					<dim>56</dim>
				</port>
				<port id="1" precision="I64">
					<dim>3</dim>
				</port>
			</input>
			<output>
				<port id="2" precision="FP32" names="186">
					<dim>4</dim>
					<dim>56</dim>
					<dim>56</dim>
				</port>
			</output>
		</layer>
		<layer id="213" name="Reshape_186" type="Reshape" version="opset1">
			<data special_zero="true"/>
			<input>
				<port id="0" precision="FP32">
					<dim>4</dim>
					<dim>56</dim>
					<dim>56</dim>
				</port>
				<port id="1" precision="I64">
					<dim>4</dim>
				</port>
			</input>
			<output>
				<port id="2" precision="FP32" names="263">
					<dim>1</dim>
					<dim>4</dim>
					<dim>56</dim>
					<dim>56</dim>
				</port>
			</output>
		</layer>
		<layer id="214" name="ScatterND_187" type="ScatterNDUpdate" version="opset4">
			<input>
				<port id="0" precision="FP32">
					<dim>1</dim>
					<dim>16</dim>
					<dim>56</dim>
					<dim>56</dim>
				</port>
				<port id="1" precision="I64">
					<dim>1</dim>
					<dim>4</dim>
					<dim>56</dim>
					<dim>56</dim>
					<dim>4</dim>
				</port>
				<port id="2" precision="FP32">
					<dim>1</dim>
					<dim>4</dim>
					<dim>56</dim>
					<dim>56</dim>
				</port>
			</input>
			<output>
				<port id="3" precision="FP32" names="264">
					<dim>1</dim>
					<dim>16</dim>
					<dim>56</dim>
					<dim>56</dim>
				</port>
			</output>
		</layer>
		<layer id="215" name="features.2.block.0.0.weight" type="Const" version="opset1">
			<data element_type="f32" shape="72, 16, 1, 1" offset="255540" size="4608"/>
			<output>
				<port id="0" precision="FP32" names="features.2.block.0.0.weight">
					<dim>72</dim>
					<dim>16</dim>
					<dim>1</dim>
					<dim>1</dim>
				</port>
			</output>
		</layer>
		<layer id="216" name="Conv_188" type="Convolution" version="opset1">
			<data strides="1, 1" dilations="1, 1" pads_begin="0, 0" pads_end="0, 0" auto_pad="explicit"/>
			<input>
				<port id="0" precision="FP32">
					<dim>1</dim>
					<dim>16</dim>
					<dim>56</dim>
					<dim>56</dim>
				</port>
				<port id="1" precision="FP32">
					<dim>72</dim>
					<dim>16</dim>
					<dim>1</dim>
					<dim>1</dim>
				</port>
			</input>
			<output>
				<port id="2" precision="FP32" names="265">
					<dim>1</dim>
					<dim>72</dim>
					<dim>56</dim>
					<dim>56</dim>
				</port>
			</output>
		</layer>
		<layer id="217" name="Relu_189" type="ReLU" version="opset1">
			<input>
				<port id="0" precision="FP32">
					<dim>1</dim>
					<dim>72</dim>
					<dim>56</dim>
					<dim>56</dim>
				</port>
			</input>
			<output>
				<port id="1" precision="FP32" names="266">
					<dim>1</dim>
					<dim>72</dim>
					<dim>56</dim>
					<dim>56</dim>
				</port>
			</output>
		</layer>
		<layer id="218" name="features.2.block.1.0.weight" type="Const" version="opset1">
			<data element_type="f32" shape="72, 1, 1, 3, 3" offset="260148" size="2592"/>
			<output>
				<port id="0" precision="FP32" names="features.2.block.1.0.weight">
					<dim>72</dim>
					<dim>1</dim>
					<dim>1</dim>
					<dim>3</dim>
					<dim>3</dim>
				</port>
			</output>
		</layer>
		<layer id="219" name="Conv_190" type="GroupConvolution" version="opset1">
			<data strides="2, 2" pads_begin="1, 1" pads_end="1, 1" dilations="1, 1" auto_pad="explicit"/>
			<input>
				<port id="0" precision="FP32">
					<dim>1</dim>
					<dim>72</dim>
					<dim>56</dim>
					<dim>56</dim>
				</port>
				<port id="1" precision="FP32">
					<dim>72</dim>
					<dim>1</dim>
					<dim>1</dim>
					<dim>3</dim>
					<dim>3</dim>
				</port>
			</input>
			<output>
				<port id="2" precision="FP32" names="267">
					<dim>1</dim>
					<dim>72</dim>
					<dim>28</dim>
					<dim>28</dim>
				</port>
			</output>
		</layer>
		<layer id="220" name="Relu_191" type="ReLU" version="opset1">
			<input>
				<port id="0" precision="FP32">
					<dim>1</dim>
					<dim>72</dim>
					<dim>28</dim>
					<dim>28</dim>
				</port>
			</input>
			<output>
				<port id="1" precision="FP32" names="268">
					<dim>1</dim>
					<dim>72</dim>
					<dim>28</dim>
					<dim>28</dim>
				</port>
			</output>
		</layer>
		<layer id="221" name="features.2.block.2.0.weight" type="Const" version="opset1">
			<data element_type="f32" shape="24, 72, 1, 1" offset="262740" size="6912"/>
			<output>
				<port id="0" precision="FP32" names="features.2.block.2.0.weight">
					<dim>24</dim>
					<dim>72</dim>
					<dim>1</dim>
					<dim>1</dim>
				</port>
			</output>
		</layer>
		<layer id="222" name="Conv_192" type="Convolution" version="opset1">
			<data strides="1, 1" dilations="1, 1" pads_begin="0, 0" pads_end="0, 0" auto_pad="explicit"/>
			<input>
				<port id="0" precision="FP32">
					<dim>1</dim>
					<dim>72</dim>
					<dim>28</dim>
					<dim>28</dim>
				</port>
				<port id="1" precision="FP32">
					<dim>24</dim>
					<dim>72</dim>
					<dim>1</dim>
					<dim>1</dim>
				</port>
			</input>
			<output>
				<port id="2" precision="FP32" names="269">
					<dim>1</dim>
					<dim>24</dim>
					<dim>28</dim>
					<dim>28</dim>
				</port>
			</output>
		</layer>
		<layer id="223" name="128948015" type="Const" version="opset1">
			<data element_type="i64" shape="1, 1, 1, 1" offset="1736" size="8"/>
			<output>
				<port id="0" precision="I64" names="1289">
					<dim>1</dim>
					<dim>1</dim>
					<dim>1</dim>
					<dim>1</dim>
				</port>
			</output>
		</layer>
		<layer id="224" name="1289" type="Const" version="opset1">
			<data element_type="i64" shape="1, 1, 1, 1" offset="1736" size="8"/>
			<output>
				<port id="0" precision="I64" names="1289">
					<dim>1</dim>
					<dim>1</dim>
					<dim>1</dim>
					<dim>1</dim>
				</port>
			</output>
		</layer>
		<layer id="225" name="Constant_207" type="Const" version="opset1">
			<data element_type="i64" shape="" offset="1736" size="8"/>
			<output>
				<port id="0" precision="I64" names="285"/>
			</output>
		</layer>
		<layer id="226" name="Shape_203" type="ShapeOf" version="opset3">
			<data output_type="i64"/>
			<input>
				<port id="0" precision="FP32">
					<dim>1</dim>
					<dim>24</dim>
					<dim>28</dim>
					<dim>28</dim>
				</port>
			</input>
			<output>
				<port id="1" precision="I64" names="281">
					<dim>4</dim>
				</port>
			</output>
		</layer>
		<layer id="227" name="Constant_204" type="Const" version="opset1">
			<data element_type="i32" shape="" offset="1744" size="4"/>
			<output>
				<port id="0" precision="I32" names="282"/>
			</output>
		</layer>
		<layer id="228" name="Gather_205/axis" type="Const" version="opset1">
			<data element_type="i64" shape="" offset="1736" size="8"/>
			<output>
				<port id="0" precision="I64"/>
			</output>
		</layer>
		<layer id="229" name="Gather_2051623" type="Gather" version="opset7">
			<data batch_dims="0"/>
			<input>
				<port id="0" precision="I64">
					<dim>4</dim>
				</port>
				<port id="1" precision="I32"/>
				<port id="2" precision="I64"/>
			</input>
			<output>
				<port id="3" precision="I64" names="283,284"/>
			</output>
		</layer>
		<layer id="230" name="Constant_208" type="Const" version="opset1">
			<data element_type="i64" shape="" offset="1748" size="8"/>
			<output>
				<port id="0" precision="I64" names="286"/>
			</output>
		</layer>
		<layer id="231" name="Range_209" type="Range" version="opset4">
			<data output_type="i64"/>
			<input>
				<port id="0" precision="I64"/>
				<port id="1" precision="I64"/>
				<port id="2" precision="I64"/>
			</input>
			<output>
				<port id="3" precision="I64" names="287">
					<dim>24</dim>
				</port>
			</output>
		</layer>
		<layer id="232" name="Slice_214/Concat1334347241" type="Const" version="opset1">
			<data element_type="i64" shape="1" offset="1736" size="8"/>
			<output>
				<port id="0" precision="I64">
					<dim>1</dim>
				</port>
			</output>
		</layer>
		<layer id="233" name="Slice_214/Concat133331334447508" type="Const" version="opset1">
			<data element_type="i64" shape="1" offset="269652" size="8"/>
			<output>
				<port id="0" precision="I64">
					<dim>1</dim>
				</port>
			</output>
		</layer>
		<layer id="234" name="Slice_214/Strides1334547124" type="Const" version="opset1">
			<data element_type="i64" shape="1" offset="1748" size="8"/>
			<output>
				<port id="0" precision="I64">
					<dim>1</dim>
				</port>
			</output>
		</layer>
		<layer id="235" name="Slice_214" type="StridedSlice" version="opset1">
			<data begin_mask="0" end_mask="0" new_axis_mask="0" shrink_axis_mask="0" ellipsis_mask="0"/>
			<input>
				<port id="0" precision="I64">
					<dim>24</dim>
				</port>
				<port id="1" precision="I64">
					<dim>1</dim>
				</port>
				<port id="2" precision="I64">
					<dim>1</dim>
				</port>
				<port id="3" precision="I64">
					<dim>1</dim>
				</port>
			</input>
			<output>
				<port id="4" precision="I64" names="292">
					<dim>6</dim>
				</port>
			</output>
		</layer>
		<layer id="236" name="Constant_229" type="Const" version="opset1">
			<data element_type="i64" shape="3" offset="1764" size="24"/>
			<output>
				<port id="0" precision="I64" names="309">
					<dim>3</dim>
				</port>
			</output>
		</layer>
		<layer id="237" name="Reshape_230" type="Reshape" version="opset1">
			<data special_zero="true"/>
			<input>
				<port id="0" precision="I64">
					<dim>6</dim>
				</port>
				<port id="1" precision="I64">
					<dim>3</dim>
				</port>
			</input>
			<output>
				<port id="2" precision="I64">
					<dim>6</dim>
					<dim>1</dim>
					<dim>1</dim>
				</port>
			</output>
		</layer>
		<layer id="238" name="Reshape_230/EltwiseUnsqueeze_input_port_1/value2112548210" type="Const" version="opset1">
			<data element_type="i64" shape="1" offset="1736" size="8"/>
			<output>
				<port id="0" precision="I64">
					<dim>1</dim>
				</port>
			</output>
		</layer>
		<layer id="239" name="Reshape_230/EltwiseUnsqueeze" type="Unsqueeze" version="opset1">
			<input>
				<port id="0" precision="I64">
					<dim>6</dim>
					<dim>1</dim>
					<dim>1</dim>
				</port>
				<port id="1" precision="I64">
					<dim>1</dim>
				</port>
			</input>
			<output>
				<port id="2" precision="I64" names="310">
					<dim>1</dim>
					<dim>6</dim>
					<dim>1</dim>
					<dim>1</dim>
				</port>
			</output>
		</layer>
		<layer id="240" name="Add_233" type="Add" version="opset1">
			<data auto_broadcast="numpy"/>
			<input>
				<port id="0" precision="I64">
					<dim>1</dim>
					<dim>1</dim>
					<dim>1</dim>
					<dim>1</dim>
				</port>
				<port id="1" precision="I64">
					<dim>1</dim>
					<dim>6</dim>
					<dim>1</dim>
					<dim>1</dim>
				</port>
			</input>
			<output>
				<port id="2" precision="I64" names="313">
					<dim>1</dim>
					<dim>6</dim>
					<dim>1</dim>
					<dim>1</dim>
				</port>
			</output>
		</layer>
		<layer id="241" name="Constant_219" type="Const" version="opset1">
			<data element_type="i64" shape="" offset="1736" size="8"/>
			<output>
				<port id="0" precision="I64" names="297"/>
			</output>
		</layer>
		<layer id="242" name="Shape_215" type="ShapeOf" version="opset3">
			<data output_type="i64"/>
			<input>
				<port id="0" precision="FP32">
					<dim>1</dim>
					<dim>24</dim>
					<dim>28</dim>
					<dim>28</dim>
				</port>
			</input>
			<output>
				<port id="1" precision="I64" names="293">
					<dim>4</dim>
				</port>
			</output>
		</layer>
		<layer id="243" name="Constant_216" type="Const" version="opset1">
			<data element_type="i32" shape="" offset="1788" size="4"/>
			<output>
				<port id="0" precision="I32" names="294"/>
			</output>
		</layer>
		<layer id="244" name="Gather_217/axis" type="Const" version="opset1">
			<data element_type="i64" shape="" offset="1736" size="8"/>
			<output>
				<port id="0" precision="I64"/>
			</output>
		</layer>
		<layer id="245" name="Gather_2171641" type="Gather" version="opset7">
			<data batch_dims="0"/>
			<input>
				<port id="0" precision="I64">
					<dim>4</dim>
				</port>
				<port id="1" precision="I32"/>
				<port id="2" precision="I64"/>
			</input>
			<output>
				<port id="3" precision="I64" names="295,296"/>
			</output>
		</layer>
		<layer id="246" name="Constant_220" type="Const" version="opset1">
			<data element_type="i64" shape="" offset="1748" size="8"/>
			<output>
				<port id="0" precision="I64" names="298"/>
			</output>
		</layer>
		<layer id="247" name="Range_221" type="Range" version="opset4">
			<data output_type="i64"/>
			<input>
				<port id="0" precision="I64"/>
				<port id="1" precision="I64"/>
				<port id="2" precision="I64"/>
			</input>
			<output>
				<port id="3" precision="I64" names="299">
					<dim>28</dim>
				</port>
			</output>
		</layer>
		<layer id="248" name="Constant_231" type="Const" version="opset1">
			<data element_type="i64" shape="2" offset="1792" size="16"/>
			<output>
				<port id="0" precision="I64" names="311">
					<dim>2</dim>
				</port>
			</output>
		</layer>
		<layer id="249" name="Reshape_232" type="Reshape" version="opset1">
			<data special_zero="true"/>
			<input>
				<port id="0" precision="I64">
					<dim>28</dim>
				</port>
				<port id="1" precision="I64">
					<dim>2</dim>
				</port>
			</input>
			<output>
				<port id="2" precision="I64">
					<dim>28</dim>
					<dim>1</dim>
				</port>
			</output>
		</layer>
		<layer id="250" name="Reshape_232/EltwiseUnsqueeze_input_port_1/value2112947889" type="Const" version="opset1">
			<data element_type="i64" shape="2" offset="1808" size="16"/>
			<output>
				<port id="0" precision="I64">
					<dim>2</dim>
				</port>
			</output>
		</layer>
		<layer id="251" name="Reshape_232/EltwiseUnsqueeze" type="Unsqueeze" version="opset1">
			<input>
				<port id="0" precision="I64">
					<dim>28</dim>
					<dim>1</dim>
				</port>
				<port id="1" precision="I64">
					<dim>2</dim>
				</port>
			</input>
			<output>
				<port id="2" precision="I64" names="312">
					<dim>1</dim>
					<dim>1</dim>
					<dim>28</dim>
					<dim>1</dim>
				</port>
			</output>
		</layer>
		<layer id="252" name="Add_234" type="Add" version="opset1">
			<data auto_broadcast="numpy"/>
			<input>
				<port id="0" precision="I64">
					<dim>1</dim>
					<dim>6</dim>
					<dim>1</dim>
					<dim>1</dim>
				</port>
				<port id="1" precision="I64">
					<dim>1</dim>
					<dim>1</dim>
					<dim>28</dim>
					<dim>1</dim>
				</port>
			</input>
			<output>
				<port id="2" precision="I64" names="314">
					<dim>1</dim>
					<dim>6</dim>
					<dim>28</dim>
					<dim>1</dim>
				</port>
			</output>
		</layer>
		<layer id="253" name="Constant_226" type="Const" version="opset1">
			<data element_type="i64" shape="" offset="1736" size="8"/>
			<output>
				<port id="0" precision="I64" names="304"/>
			</output>
		</layer>
		<layer id="254" name="Shape_222" type="ShapeOf" version="opset3">
			<data output_type="i64"/>
			<input>
				<port id="0" precision="FP32">
					<dim>1</dim>
					<dim>24</dim>
					<dim>28</dim>
					<dim>28</dim>
				</port>
			</input>
			<output>
				<port id="1" precision="I64" names="300">
					<dim>4</dim>
				</port>
			</output>
		</layer>
		<layer id="255" name="Constant_223" type="Const" version="opset1">
			<data element_type="i32" shape="" offset="1824" size="4"/>
			<output>
				<port id="0" precision="I32" names="301"/>
			</output>
		</layer>
		<layer id="256" name="Gather_224/axis" type="Const" version="opset1">
			<data element_type="i64" shape="" offset="1736" size="8"/>
			<output>
				<port id="0" precision="I64"/>
			</output>
		</layer>
		<layer id="257" name="Gather_2241585" type="Gather" version="opset7">
			<data batch_dims="0"/>
			<input>
				<port id="0" precision="I64">
					<dim>4</dim>
				</port>
				<port id="1" precision="I32"/>
				<port id="2" precision="I64"/>
			</input>
			<output>
				<port id="3" precision="I64" names="302,303"/>
			</output>
		</layer>
		<layer id="258" name="Constant_227" type="Const" version="opset1">
			<data element_type="i64" shape="" offset="1748" size="8"/>
			<output>
				<port id="0" precision="I64" names="305"/>
			</output>
		</layer>
		<layer id="259" name="Range_228" type="Range" version="opset4">
			<data output_type="i64"/>
			<input>
				<port id="0" precision="I64"/>
				<port id="1" precision="I64"/>
				<port id="2" precision="I64"/>
			</input>
			<output>
				<port id="3" precision="I64">
					<dim>28</dim>
				</port>
			</output>
		</layer>
		<layer id="260" name="Range_228/EltwiseUnsqueeze_input_port_1/value2113347157" type="Const" version="opset1">
			<data element_type="i64" shape="3" offset="1828" size="24"/>
			<output>
				<port id="0" precision="I64">
					<dim>3</dim>
				</port>
			</output>
		</layer>
		<layer id="261" name="Range_228/EltwiseUnsqueeze" type="Unsqueeze" version="opset1">
			<input>
				<port id="0" precision="I64">
					<dim>28</dim>
				</port>
				<port id="1" precision="I64">
					<dim>3</dim>
				</port>
			</input>
			<output>
				<port id="2" precision="I64" names="306">
					<dim>1</dim>
					<dim>1</dim>
					<dim>1</dim>
					<dim>28</dim>
				</port>
			</output>
		</layer>
		<layer id="262" name="Add_235" type="Add" version="opset1">
			<data auto_broadcast="numpy"/>
			<input>
				<port id="0" precision="I64">
					<dim>1</dim>
					<dim>6</dim>
					<dim>28</dim>
					<dim>1</dim>
				</port>
				<port id="1" precision="I64">
					<dim>1</dim>
					<dim>1</dim>
					<dim>1</dim>
					<dim>28</dim>
				</port>
			</input>
			<output>
				<port id="2" precision="I64" names="315">
					<dim>1</dim>
					<dim>6</dim>
					<dim>28</dim>
					<dim>28</dim>
				</port>
			</output>
		</layer>
		<layer id="263" name="Shape_236" type="ShapeOf" version="opset3">
			<data output_type="i64"/>
			<input>
				<port id="0" precision="I64">
					<dim>1</dim>
					<dim>6</dim>
					<dim>28</dim>
					<dim>28</dim>
				</port>
			</input>
			<output>
				<port id="1" precision="I64" names="316,355">
					<dim>4</dim>
				</port>
			</output>
		</layer>
		<layer id="264" name="ConstantOfShape_238/Broadcast/FillValue" type="Const" version="opset1">
			<data element_type="i64" shape="1" offset="1748" size="8"/>
			<output>
				<port id="0" precision="I64">
					<dim>1</dim>
				</port>
			</output>
		</layer>
		<layer id="265" name="Shape_237" type="ShapeOf" version="opset3">
			<data output_type="i64"/>
			<input>
				<port id="0" precision="I64">
					<dim>4</dim>
				</port>
			</input>
			<output>
				<port id="1" precision="I64" names="317">
					<dim>1</dim>
				</port>
			</output>
		</layer>
		<layer id="266" name="ConstantOfShape_238/Broadcast" type="Broadcast" version="opset3">
			<data mode="numpy"/>
			<input>
				<port id="0" precision="I64">
					<dim>1</dim>
				</port>
				<port id="1" precision="I64">
					<dim>1</dim>
				</port>
			</input>
			<output>
				<port id="2" precision="I64" names="318">
					<dim>4</dim>
				</port>
			</output>
		</layer>
		<layer id="267" name="Mul_240/Negate" type="Negative" version="opset1">
			<input>
				<port id="0" precision="I64">
					<dim>4</dim>
				</port>
			</input>
			<output>
				<port id="1" precision="I64" names="320">
					<dim>4</dim>
				</port>
			</output>
		</layer>
		<layer id="268" name="Equal_241" type="Equal" version="opset1">
			<input>
				<port id="0" precision="I64">
					<dim>4</dim>
				</port>
				<port id="1" precision="I64">
					<dim>4</dim>
				</port>
			</input>
			<output>
				<port id="2" precision="BOOL" names="321">
					<dim>4</dim>
				</port>
			</output>
		</layer>
		<layer id="269" name="Where_242" type="Select" version="opset1">
			<data auto_broadcast="numpy"/>
			<input>
				<port id="0" precision="BOOL">
					<dim>4</dim>
				</port>
				<port id="1" precision="I64">
					<dim>4</dim>
				</port>
				<port id="2" precision="I64">
					<dim>4</dim>
				</port>
			</input>
			<output>
				<port id="3" precision="I64" names="322">
					<dim>4</dim>
				</port>
			</output>
		</layer>
		<layer id="270" name="Expand_243" type="Broadcast" version="opset3">
			<data mode="bidirectional"/>
			<input>
				<port id="0" precision="I64">
					<dim>1</dim>
					<dim>1</dim>
					<dim>1</dim>
					<dim>1</dim>
				</port>
				<port id="1" precision="I64">
					<dim>4</dim>
				</port>
			</input>
			<output>
				<port id="2" precision="I64" names="323">
					<dim>1</dim>
					<dim>6</dim>
					<dim>28</dim>
					<dim>28</dim>
				</port>
			</output>
		</layer>
		<layer id="271" name="Unsqueeze_244/Dims" type="Const" version="opset1">
			<data element_type="i64" shape="1" offset="1756" size="8"/>
			<output>
				<port id="0" precision="I64">
					<dim>1</dim>
				</port>
			</output>
		</layer>
		<layer id="272" name="Unsqueeze_244/Unsqueeze" type="Unsqueeze" version="opset1">
			<input>
				<port id="0" precision="I64">
					<dim>1</dim>
					<dim>6</dim>
					<dim>28</dim>
					<dim>28</dim>
				</port>
				<port id="1" precision="I64">
					<dim>1</dim>
				</port>
			</input>
			<output>
				<port id="2" precision="I64" names="324">
					<dim>1</dim>
					<dim>6</dim>
					<dim>28</dim>
					<dim>28</dim>
					<dim>1</dim>
				</port>
			</output>
		</layer>
		<layer id="273" name="ConstantOfShape_246/Broadcast/FillValue" type="Const" version="opset1">
			<data element_type="i64" shape="1" offset="1748" size="8"/>
			<output>
				<port id="0" precision="I64">
					<dim>1</dim>
				</port>
			</output>
		</layer>
		<layer id="274" name="Shape_245" type="ShapeOf" version="opset3">
			<data output_type="i64"/>
			<input>
				<port id="0" precision="I64">
					<dim>4</dim>
				</port>
			</input>
			<output>
				<port id="1" precision="I64" names="325">
					<dim>1</dim>
				</port>
			</output>
		</layer>
		<layer id="275" name="ConstantOfShape_246/Broadcast" type="Broadcast" version="opset3">
			<data mode="numpy"/>
			<input>
				<port id="0" precision="I64">
					<dim>1</dim>
				</port>
				<port id="1" precision="I64">
					<dim>1</dim>
				</port>
			</input>
			<output>
				<port id="2" precision="I64" names="326">
					<dim>4</dim>
				</port>
			</output>
		</layer>
		<layer id="276" name="Mul_248/Negate" type="Negative" version="opset1">
			<input>
				<port id="0" precision="I64">
					<dim>4</dim>
				</port>
			</input>
			<output>
				<port id="1" precision="I64" names="328">
					<dim>4</dim>
				</port>
			</output>
		</layer>
		<layer id="277" name="Equal_249" type="Equal" version="opset1">
			<input>
				<port id="0" precision="I64">
					<dim>4</dim>
				</port>
				<port id="1" precision="I64">
					<dim>4</dim>
				</port>
			</input>
			<output>
				<port id="2" precision="BOOL" names="329">
					<dim>4</dim>
				</port>
			</output>
		</layer>
		<layer id="278" name="Where_250" type="Select" version="opset1">
			<data auto_broadcast="numpy"/>
			<input>
				<port id="0" precision="BOOL">
					<dim>4</dim>
				</port>
				<port id="1" precision="I64">
					<dim>4</dim>
				</port>
				<port id="2" precision="I64">
					<dim>4</dim>
				</port>
			</input>
			<output>
				<port id="3" precision="I64" names="330">
					<dim>4</dim>
				</port>
			</output>
		</layer>
		<layer id="279" name="Expand_251" type="Broadcast" version="opset3">
			<data mode="bidirectional"/>
			<input>
				<port id="0" precision="I64">
					<dim>6</dim>
					<dim>1</dim>
					<dim>1</dim>
				</port>
				<port id="1" precision="I64">
					<dim>4</dim>
				</port>
			</input>
			<output>
				<port id="2" precision="I64" names="331">
					<dim>1</dim>
					<dim>6</dim>
					<dim>28</dim>
					<dim>28</dim>
				</port>
			</output>
		</layer>
		<layer id="280" name="Unsqueeze_252/Dims" type="Const" version="opset1">
			<data element_type="i64" shape="1" offset="1756" size="8"/>
			<output>
				<port id="0" precision="I64">
					<dim>1</dim>
				</port>
			</output>
		</layer>
		<layer id="281" name="Unsqueeze_252/Unsqueeze" type="Unsqueeze" version="opset1">
			<input>
				<port id="0" precision="I64">
					<dim>1</dim>
					<dim>6</dim>
					<dim>28</dim>
					<dim>28</dim>
				</port>
				<port id="1" precision="I64">
					<dim>1</dim>
				</port>
			</input>
			<output>
				<port id="2" precision="I64" names="332">
					<dim>1</dim>
					<dim>6</dim>
					<dim>28</dim>
					<dim>28</dim>
					<dim>1</dim>
				</port>
			</output>
		</layer>
		<layer id="282" name="ConstantOfShape_254/Broadcast/FillValue" type="Const" version="opset1">
			<data element_type="i64" shape="1" offset="1748" size="8"/>
			<output>
				<port id="0" precision="I64">
					<dim>1</dim>
				</port>
			</output>
		</layer>
		<layer id="283" name="Shape_253" type="ShapeOf" version="opset3">
			<data output_type="i64"/>
			<input>
				<port id="0" precision="I64">
					<dim>4</dim>
				</port>
			</input>
			<output>
				<port id="1" precision="I64" names="333">
					<dim>1</dim>
				</port>
			</output>
		</layer>
		<layer id="284" name="ConstantOfShape_254/Broadcast" type="Broadcast" version="opset3">
			<data mode="numpy"/>
			<input>
				<port id="0" precision="I64">
					<dim>1</dim>
				</port>
				<port id="1" precision="I64">
					<dim>1</dim>
				</port>
			</input>
			<output>
				<port id="2" precision="I64" names="334">
					<dim>4</dim>
				</port>
			</output>
		</layer>
		<layer id="285" name="Mul_256/Negate" type="Negative" version="opset1">
			<input>
				<port id="0" precision="I64">
					<dim>4</dim>
				</port>
			</input>
			<output>
				<port id="1" precision="I64" names="336">
					<dim>4</dim>
				</port>
			</output>
		</layer>
		<layer id="286" name="Equal_257" type="Equal" version="opset1">
			<input>
				<port id="0" precision="I64">
					<dim>4</dim>
				</port>
				<port id="1" precision="I64">
					<dim>4</dim>
				</port>
			</input>
			<output>
				<port id="2" precision="BOOL" names="337">
					<dim>4</dim>
				</port>
			</output>
		</layer>
		<layer id="287" name="Where_258" type="Select" version="opset1">
			<data auto_broadcast="numpy"/>
			<input>
				<port id="0" precision="BOOL">
					<dim>4</dim>
				</port>
				<port id="1" precision="I64">
					<dim>4</dim>
				</port>
				<port id="2" precision="I64">
					<dim>4</dim>
				</port>
			</input>
			<output>
				<port id="3" precision="I64" names="338">
					<dim>4</dim>
				</port>
			</output>
		</layer>
		<layer id="288" name="Expand_259" type="Broadcast" version="opset3">
			<data mode="bidirectional"/>
			<input>
				<port id="0" precision="I64">
					<dim>28</dim>
					<dim>1</dim>
				</port>
				<port id="1" precision="I64">
					<dim>4</dim>
				</port>
			</input>
			<output>
				<port id="2" precision="I64" names="339">
					<dim>1</dim>
					<dim>6</dim>
					<dim>28</dim>
					<dim>28</dim>
				</port>
			</output>
		</layer>
		<layer id="289" name="Unsqueeze_260/Dims" type="Const" version="opset1">
			<data element_type="i64" shape="1" offset="1756" size="8"/>
			<output>
				<port id="0" precision="I64">
					<dim>1</dim>
				</port>
			</output>
		</layer>
		<layer id="290" name="Unsqueeze_260/Unsqueeze" type="Unsqueeze" version="opset1">
			<input>
				<port id="0" precision="I64">
					<dim>1</dim>
					<dim>6</dim>
					<dim>28</dim>
					<dim>28</dim>
				</port>
				<port id="1" precision="I64">
					<dim>1</dim>
				</port>
			</input>
			<output>
				<port id="2" precision="I64" names="340">
					<dim>1</dim>
					<dim>6</dim>
					<dim>28</dim>
					<dim>28</dim>
					<dim>1</dim>
				</port>
			</output>
		</layer>
		<layer id="291" name="ConstantOfShape_262/Broadcast/FillValue" type="Const" version="opset1">
			<data element_type="i64" shape="1" offset="1748" size="8"/>
			<output>
				<port id="0" precision="I64">
					<dim>1</dim>
				</port>
			</output>
		</layer>
		<layer id="292" name="Shape_261" type="ShapeOf" version="opset3">
			<data output_type="i64"/>
			<input>
				<port id="0" precision="I64">
					<dim>4</dim>
				</port>
			</input>
			<output>
				<port id="1" precision="I64" names="341">
					<dim>1</dim>
				</port>
			</output>
		</layer>
		<layer id="293" name="ConstantOfShape_262/Broadcast" type="Broadcast" version="opset3">
			<data mode="numpy"/>
			<input>
				<port id="0" precision="I64">
					<dim>1</dim>
				</port>
				<port id="1" precision="I64">
					<dim>1</dim>
				</port>
			</input>
			<output>
				<port id="2" precision="I64" names="342">
					<dim>4</dim>
				</port>
			</output>
		</layer>
		<layer id="294" name="Mul_264/Negate" type="Negative" version="opset1">
			<input>
				<port id="0" precision="I64">
					<dim>4</dim>
				</port>
			</input>
			<output>
				<port id="1" precision="I64" names="344">
					<dim>4</dim>
				</port>
			</output>
		</layer>
		<layer id="295" name="Equal_265" type="Equal" version="opset1">
			<input>
				<port id="0" precision="I64">
					<dim>4</dim>
				</port>
				<port id="1" precision="I64">
					<dim>4</dim>
				</port>
			</input>
			<output>
				<port id="2" precision="BOOL" names="345">
					<dim>4</dim>
				</port>
			</output>
		</layer>
		<layer id="296" name="Where_266" type="Select" version="opset1">
			<data auto_broadcast="numpy"/>
			<input>
				<port id="0" precision="BOOL">
					<dim>4</dim>
				</port>
				<port id="1" precision="I64">
					<dim>4</dim>
				</port>
				<port id="2" precision="I64">
					<dim>4</dim>
				</port>
			</input>
			<output>
				<port id="3" precision="I64" names="346">
					<dim>4</dim>
				</port>
			</output>
		</layer>
		<layer id="297" name="Expand_267" type="Broadcast" version="opset3">
			<data mode="bidirectional"/>
			<input>
				<port id="0" precision="I64">
					<dim>28</dim>
				</port>
				<port id="1" precision="I64">
					<dim>4</dim>
				</port>
			</input>
			<output>
				<port id="2" precision="I64" names="347">
					<dim>1</dim>
					<dim>6</dim>
					<dim>28</dim>
					<dim>28</dim>
				</port>
			</output>
		</layer>
		<layer id="298" name="Unsqueeze_268/Dims" type="Const" version="opset1">
			<data element_type="i64" shape="1" offset="1756" size="8"/>
			<output>
				<port id="0" precision="I64">
					<dim>1</dim>
				</port>
			</output>
		</layer>
		<layer id="299" name="Unsqueeze_268/Unsqueeze" type="Unsqueeze" version="opset1">
			<input>
				<port id="0" precision="I64">
					<dim>1</dim>
					<dim>6</dim>
					<dim>28</dim>
					<dim>28</dim>
				</port>
				<port id="1" precision="I64">
					<dim>1</dim>
				</port>
			</input>
			<output>
				<port id="2" precision="I64" names="348">
					<dim>1</dim>
					<dim>6</dim>
					<dim>28</dim>
					<dim>28</dim>
					<dim>1</dim>
				</port>
			</output>
		</layer>
		<layer id="300" name="Concat_269" type="Concat" version="opset1">
			<data axis="4"/>
			<input>
				<port id="0" precision="I64">
					<dim>1</dim>
					<dim>6</dim>
					<dim>28</dim>
					<dim>28</dim>
					<dim>1</dim>
				</port>
				<port id="1" precision="I64">
					<dim>1</dim>
					<dim>6</dim>
					<dim>28</dim>
					<dim>28</dim>
					<dim>1</dim>
				</port>
				<port id="2" precision="I64">
					<dim>1</dim>
					<dim>6</dim>
					<dim>28</dim>
					<dim>28</dim>
					<dim>1</dim>
				</port>
				<port id="3" precision="I64">
					<dim>1</dim>
					<dim>6</dim>
					<dim>28</dim>
					<dim>28</dim>
					<dim>1</dim>
				</port>
			</input>
			<output>
				<port id="4" precision="I64" names="349">
					<dim>1</dim>
					<dim>6</dim>
					<dim>28</dim>
					<dim>28</dim>
					<dim>4</dim>
				</port>
			</output>
		</layer>
		<layer id="301" name="Constant_200" type="Const" version="opset1">
			<data element_type="f32" shape="6, 28, 28" offset="269660" size="18816"/>
			<output>
				<port id="0" precision="FP32" names="277">
					<dim>6</dim>
					<dim>28</dim>
					<dim>28</dim>
				</port>
			</output>
		</layer>
		<layer id="302" name="Constant_193" type="Const" version="opset1">
			<data element_type="i32" shape="" offset="202556" size="4"/>
			<output>
				<port id="0" precision="I32" names="270"/>
			</output>
		</layer>
		<layer id="303" name="Gather_194/axis" type="Const" version="opset1">
			<data element_type="i64" shape="" offset="1736" size="8"/>
			<output>
				<port id="0" precision="I64"/>
			</output>
		</layer>
		<layer id="304" name="Gather_1941581" type="Gather" version="opset7">
			<data batch_dims="0"/>
			<input>
				<port id="0" precision="FP32">
					<dim>1</dim>
					<dim>24</dim>
					<dim>28</dim>
					<dim>28</dim>
				</port>
				<port id="1" precision="I32"/>
				<port id="2" precision="I64"/>
			</input>
			<output>
				<port id="3" precision="FP32" names="271">
					<dim>24</dim>
					<dim>28</dim>
					<dim>28</dim>
				</port>
			</output>
		</layer>
		<layer id="305" name="Slice_199/Concat1330748138" type="Const" version="opset1">
			<data element_type="i64" shape="3" offset="202560" size="24"/>
			<output>
				<port id="0" precision="I64">
					<dim>3</dim>
				</port>
			</output>
		</layer>
		<layer id="306" name="Slice_199/Concat132931330847199" type="Const" version="opset1">
			<data element_type="i64" shape="3" offset="288476" size="24"/>
			<output>
				<port id="0" precision="I64">
					<dim>3</dim>
				</port>
			</output>
		</layer>
		<layer id="307" name="Slice_199/Strides1330948090" type="Const" version="opset1">
			<data element_type="i64" shape="3" offset="202608" size="24"/>
			<output>
				<port id="0" precision="I64">
					<dim>3</dim>
				</port>
			</output>
		</layer>
		<layer id="308" name="Slice_199" type="StridedSlice" version="opset1">
			<data begin_mask="0, 1, 1" end_mask="0, 1, 1" new_axis_mask="0, 0, 0" shrink_axis_mask="0, 0, 0" ellipsis_mask="0, 0, 0"/>
			<input>
				<port id="0" precision="FP32">
					<dim>24</dim>
					<dim>28</dim>
					<dim>28</dim>
				</port>
				<port id="1" precision="I64">
					<dim>3</dim>
				</port>
				<port id="2" precision="I64">
					<dim>3</dim>
				</port>
				<port id="3" precision="I64">
					<dim>3</dim>
				</port>
			</input>
			<output>
				<port id="4" precision="FP32" names="276">
					<dim>6</dim>
					<dim>28</dim>
					<dim>28</dim>
				</port>
			</output>
		</layer>
		<layer id="309" name="Shape_201" type="ShapeOf" version="opset3">
			<data output_type="i64"/>
			<input>
				<port id="0" precision="FP32">
					<dim>6</dim>
					<dim>28</dim>
					<dim>28</dim>
				</port>
			</input>
			<output>
				<port id="1" precision="I64" names="278">
					<dim>3</dim>
				</port>
			</output>
		</layer>
		<layer id="310" name="Expand_202" type="Broadcast" version="opset3">
			<data mode="bidirectional"/>
			<input>
				<port id="0" precision="FP32">
					<dim>6</dim>
					<dim>28</dim>
					<dim>28</dim>
				</port>
				<port id="1" precision="I64">
					<dim>3</dim>
				</port>
			</input>
			<output>
				<port id="2" precision="FP32" names="279">
					<dim>6</dim>
					<dim>28</dim>
					<dim>28</dim>
				</port>
			</output>
		</layer>
		<layer id="311" name="Reshape_276" type="Reshape" version="opset1">
			<data special_zero="true"/>
			<input>
				<port id="0" precision="FP32">
					<dim>6</dim>
					<dim>28</dim>
					<dim>28</dim>
				</port>
				<port id="1" precision="I64">
					<dim>4</dim>
				</port>
			</input>
			<output>
				<port id="2" precision="FP32" names="356">
					<dim>1</dim>
					<dim>6</dim>
					<dim>28</dim>
					<dim>28</dim>
				</port>
			</output>
		</layer>
		<layer id="312" name="ScatterND_277" type="ScatterNDUpdate" version="opset4">
			<input>
				<port id="0" precision="FP32">
					<dim>1</dim>
					<dim>24</dim>
					<dim>28</dim>
					<dim>28</dim>
				</port>
				<port id="1" precision="I64">
					<dim>1</dim>
					<dim>6</dim>
					<dim>28</dim>
					<dim>28</dim>
					<dim>4</dim>
				</port>
				<port id="2" precision="FP32">
					<dim>1</dim>
					<dim>6</dim>
					<dim>28</dim>
					<dim>28</dim>
				</port>
			</input>
			<output>
				<port id="3" precision="FP32" names="357">
					<dim>1</dim>
					<dim>24</dim>
					<dim>28</dim>
					<dim>28</dim>
				</port>
			</output>
		</layer>
		<layer id="313" name="features.3.block.0.0.weight" type="Const" version="opset1">
			<data element_type="f32" shape="88, 24, 1, 1" offset="288500" size="8448"/>
			<output>
				<port id="0" precision="FP32" names="features.3.block.0.0.weight">
					<dim>88</dim>
					<dim>24</dim>
					<dim>1</dim>
					<dim>1</dim>
				</port>
			</output>
		</layer>
		<layer id="314" name="Conv_278" type="Convolution" version="opset1">
			<data strides="1, 1" dilations="1, 1" pads_begin="0, 0" pads_end="0, 0" auto_pad="explicit"/>
			<input>
				<port id="0" precision="FP32">
					<dim>1</dim>
					<dim>24</dim>
					<dim>28</dim>
					<dim>28</dim>
				</port>
				<port id="1" precision="FP32">
					<dim>88</dim>
					<dim>24</dim>
					<dim>1</dim>
					<dim>1</dim>
				</port>
			</input>
			<output>
				<port id="2" precision="FP32" names="358">
					<dim>1</dim>
					<dim>88</dim>
					<dim>28</dim>
					<dim>28</dim>
				</port>
			</output>
		</layer>
		<layer id="315" name="Relu_279" type="ReLU" version="opset1">
			<input>
				<port id="0" precision="FP32">
					<dim>1</dim>
					<dim>88</dim>
					<dim>28</dim>
					<dim>28</dim>
				</port>
			</input>
			<output>
				<port id="1" precision="FP32" names="359">
					<dim>1</dim>
					<dim>88</dim>
					<dim>28</dim>
					<dim>28</dim>
				</port>
			</output>
		</layer>
		<layer id="316" name="features.3.block.1.0.weight" type="Const" version="opset1">
			<data element_type="f32" shape="88, 1, 1, 3, 3" offset="296948" size="3168"/>
			<output>
				<port id="0" precision="FP32" names="features.3.block.1.0.weight">
					<dim>88</dim>
					<dim>1</dim>
					<dim>1</dim>
					<dim>3</dim>
					<dim>3</dim>
				</port>
			</output>
		</layer>
		<layer id="317" name="Conv_280" type="GroupConvolution" version="opset1">
			<data strides="1, 1" pads_begin="1, 1" pads_end="1, 1" dilations="1, 1" auto_pad="explicit"/>
			<input>
				<port id="0" precision="FP32">
					<dim>1</dim>
					<dim>88</dim>
					<dim>28</dim>
					<dim>28</dim>
				</port>
				<port id="1" precision="FP32">
					<dim>88</dim>
					<dim>1</dim>
					<dim>1</dim>
					<dim>3</dim>
					<dim>3</dim>
				</port>
			</input>
			<output>
				<port id="2" precision="FP32" names="360">
					<dim>1</dim>
					<dim>88</dim>
					<dim>28</dim>
					<dim>28</dim>
				</port>
			</output>
		</layer>
		<layer id="318" name="Relu_281" type="ReLU" version="opset1">
			<input>
				<port id="0" precision="FP32">
					<dim>1</dim>
					<dim>88</dim>
					<dim>28</dim>
					<dim>28</dim>
				</port>
			</input>
			<output>
				<port id="1" precision="FP32" names="361">
					<dim>1</dim>
					<dim>88</dim>
					<dim>28</dim>
					<dim>28</dim>
				</port>
			</output>
		</layer>
		<layer id="319" name="features.3.block.2.0.weight" type="Const" version="opset1">
			<data element_type="f32" shape="24, 88, 1, 1" offset="300116" size="8448"/>
			<output>
				<port id="0" precision="FP32" names="features.3.block.2.0.weight">
					<dim>24</dim>
					<dim>88</dim>
					<dim>1</dim>
					<dim>1</dim>
				</port>
			</output>
		</layer>
		<layer id="320" name="Conv_282" type="Convolution" version="opset1">
			<data strides="1, 1" dilations="1, 1" pads_begin="0, 0" pads_end="0, 0" auto_pad="explicit"/>
			<input>
				<port id="0" precision="FP32">
					<dim>1</dim>
					<dim>88</dim>
					<dim>28</dim>
					<dim>28</dim>
				</port>
				<port id="1" precision="FP32">
					<dim>24</dim>
					<dim>88</dim>
					<dim>1</dim>
					<dim>1</dim>
				</port>
			</input>
			<output>
				<port id="2" precision="FP32" names="362">
					<dim>1</dim>
					<dim>24</dim>
					<dim>28</dim>
					<dim>28</dim>
				</port>
			</output>
		</layer>
		<layer id="321" name="Add_283" type="Add" version="opset1">
			<data auto_broadcast="numpy"/>
			<input>
				<port id="0" precision="FP32">
					<dim>1</dim>
					<dim>24</dim>
					<dim>28</dim>
					<dim>28</dim>
				</port>
				<port id="1" precision="FP32">
					<dim>1</dim>
					<dim>24</dim>
					<dim>28</dim>
					<dim>28</dim>
				</port>
			</input>
			<output>
				<port id="2" precision="FP32" names="363">
					<dim>1</dim>
					<dim>24</dim>
					<dim>28</dim>
					<dim>28</dim>
				</port>
			</output>
		</layer>
		<layer id="322" name="129147271" type="Const" version="opset1">
			<data element_type="i64" shape="1, 1, 1, 1" offset="1736" size="8"/>
			<output>
				<port id="0" precision="I64" names="1291">
					<dim>1</dim>
					<dim>1</dim>
					<dim>1</dim>
					<dim>1</dim>
				</port>
			</output>
		</layer>
		<layer id="323" name="1291" type="Const" version="opset1">
			<data element_type="i64" shape="1, 1, 1, 1" offset="1736" size="8"/>
			<output>
				<port id="0" precision="I64" names="1291">
					<dim>1</dim>
					<dim>1</dim>
					<dim>1</dim>
					<dim>1</dim>
				</port>
			</output>
		</layer>
		<layer id="324" name="Constant_298" type="Const" version="opset1">
			<data element_type="i64" shape="" offset="1736" size="8"/>
			<output>
				<port id="0" precision="I64" names="379"/>
			</output>
		</layer>
		<layer id="325" name="Shape_294" type="ShapeOf" version="opset3">
			<data output_type="i64"/>
			<input>
				<port id="0" precision="FP32">
					<dim>1</dim>
					<dim>24</dim>
					<dim>28</dim>
					<dim>28</dim>
				</port>
			</input>
			<output>
				<port id="1" precision="I64" names="375">
					<dim>4</dim>
				</port>
			</output>
		</layer>
		<layer id="326" name="Constant_295" type="Const" version="opset1">
			<data element_type="i32" shape="" offset="1744" size="4"/>
			<output>
				<port id="0" precision="I32" names="376"/>
			</output>
		</layer>
		<layer id="327" name="Gather_296/axis" type="Const" version="opset1">
			<data element_type="i64" shape="" offset="1736" size="8"/>
			<output>
				<port id="0" precision="I64"/>
			</output>
		</layer>
		<layer id="328" name="Gather_2961645" type="Gather" version="opset7">
			<data batch_dims="0"/>
			<input>
				<port id="0" precision="I64">
					<dim>4</dim>
				</port>
				<port id="1" precision="I32"/>
				<port id="2" precision="I64"/>
			</input>
			<output>
				<port id="3" precision="I64" names="377,378"/>
			</output>
		</layer>
		<layer id="329" name="Constant_299" type="Const" version="opset1">
			<data element_type="i64" shape="" offset="1748" size="8"/>
			<output>
				<port id="0" precision="I64" names="380"/>
			</output>
		</layer>
		<layer id="330" name="Range_300" type="Range" version="opset4">
			<data output_type="i64"/>
			<input>
				<port id="0" precision="I64"/>
				<port id="1" precision="I64"/>
				<port id="2" precision="I64"/>
			</input>
			<output>
				<port id="3" precision="I64" names="381">
					<dim>24</dim>
				</port>
			</output>
		</layer>
		<layer id="331" name="Slice_305/Concat1345948081" type="Const" version="opset1">
			<data element_type="i64" shape="1" offset="1736" size="8"/>
			<output>
				<port id="0" precision="I64">
					<dim>1</dim>
				</port>
			</output>
		</layer>
		<layer id="332" name="Slice_305/Concat134491346047247" type="Const" version="opset1">
			<data element_type="i64" shape="1" offset="269652" size="8"/>
			<output>
				<port id="0" precision="I64">
					<dim>1</dim>
				</port>
			</output>
		</layer>
		<layer id="333" name="Slice_305/Strides1346146758" type="Const" version="opset1">
			<data element_type="i64" shape="1" offset="1748" size="8"/>
			<output>
				<port id="0" precision="I64">
					<dim>1</dim>
				</port>
			</output>
		</layer>
		<layer id="334" name="Slice_305" type="StridedSlice" version="opset1">
			<data begin_mask="0" end_mask="0" new_axis_mask="0" shrink_axis_mask="0" ellipsis_mask="0"/>
			<input>
				<port id="0" precision="I64">
					<dim>24</dim>
				</port>
				<port id="1" precision="I64">
					<dim>1</dim>
				</port>
				<port id="2" precision="I64">
					<dim>1</dim>
				</port>
				<port id="3" precision="I64">
					<dim>1</dim>
				</port>
			</input>
			<output>
				<port id="4" precision="I64" names="386">
					<dim>6</dim>
				</port>
			</output>
		</layer>
		<layer id="335" name="Constant_320" type="Const" version="opset1">
			<data element_type="i64" shape="3" offset="1764" size="24"/>
			<output>
				<port id="0" precision="I64" names="403">
					<dim>3</dim>
				</port>
			</output>
		</layer>
		<layer id="336" name="Reshape_321" type="Reshape" version="opset1">
			<data special_zero="true"/>
			<input>
				<port id="0" precision="I64">
					<dim>6</dim>
				</port>
				<port id="1" precision="I64">
					<dim>3</dim>
				</port>
			</input>
			<output>
				<port id="2" precision="I64">
					<dim>6</dim>
					<dim>1</dim>
					<dim>1</dim>
				</port>
			</output>
		</layer>
		<layer id="337" name="Reshape_321/EltwiseUnsqueeze_input_port_1/value2115348021" type="Const" version="opset1">
			<data element_type="i64" shape="1" offset="1736" size="8"/>
			<output>
				<port id="0" precision="I64">
					<dim>1</dim>
				</port>
			</output>
		</layer>
		<layer id="338" name="Reshape_321/EltwiseUnsqueeze" type="Unsqueeze" version="opset1">
			<input>
				<port id="0" precision="I64">
					<dim>6</dim>
					<dim>1</dim>
					<dim>1</dim>
				</port>
				<port id="1" precision="I64">
					<dim>1</dim>
				</port>
			</input>
			<output>
				<port id="2" precision="I64" names="404">
					<dim>1</dim>
					<dim>6</dim>
					<dim>1</dim>
					<dim>1</dim>
				</port>
			</output>
		</layer>
		<layer id="339" name="Add_324" type="Add" version="opset1">
			<data auto_broadcast="numpy"/>
			<input>
				<port id="0" precision="I64">
					<dim>1</dim>
					<dim>1</dim>
					<dim>1</dim>
					<dim>1</dim>
				</port>
				<port id="1" precision="I64">
					<dim>1</dim>
					<dim>6</dim>
					<dim>1</dim>
					<dim>1</dim>
				</port>
			</input>
			<output>
				<port id="2" precision="I64" names="407">
					<dim>1</dim>
					<dim>6</dim>
					<dim>1</dim>
					<dim>1</dim>
				</port>
			</output>
		</layer>
		<layer id="340" name="Constant_310" type="Const" version="opset1">
			<data element_type="i64" shape="" offset="1736" size="8"/>
			<output>
				<port id="0" precision="I64" names="391"/>
			</output>
		</layer>
		<layer id="341" name="Shape_306" type="ShapeOf" version="opset3">
			<data output_type="i64"/>
			<input>
				<port id="0" precision="FP32">
					<dim>1</dim>
					<dim>24</dim>
					<dim>28</dim>
					<dim>28</dim>
				</port>
			</input>
			<output>
				<port id="1" precision="I64" names="387">
					<dim>4</dim>
				</port>
			</output>
		</layer>
		<layer id="342" name="Constant_307" type="Const" version="opset1">
			<data element_type="i32" shape="" offset="1788" size="4"/>
			<output>
				<port id="0" precision="I32" names="388"/>
			</output>
		</layer>
		<layer id="343" name="Gather_308/axis" type="Const" version="opset1">
			<data element_type="i64" shape="" offset="1736" size="8"/>
			<output>
				<port id="0" precision="I64"/>
			</output>
		</layer>
		<layer id="344" name="Gather_3081611" type="Gather" version="opset7">
			<data batch_dims="0"/>
			<input>
				<port id="0" precision="I64">
					<dim>4</dim>
				</port>
				<port id="1" precision="I32"/>
				<port id="2" precision="I64"/>
			</input>
			<output>
				<port id="3" precision="I64" names="389,390"/>
			</output>
		</layer>
		<layer id="345" name="Constant_311" type="Const" version="opset1">
			<data element_type="i64" shape="" offset="1748" size="8"/>
			<output>
				<port id="0" precision="I64" names="392"/>
			</output>
		</layer>
		<layer id="346" name="Range_312" type="Range" version="opset4">
			<data output_type="i64"/>
			<input>
				<port id="0" precision="I64"/>
				<port id="1" precision="I64"/>
				<port id="2" precision="I64"/>
			</input>
			<output>
				<port id="3" precision="I64" names="393">
					<dim>28</dim>
				</port>
			</output>
		</layer>
		<layer id="347" name="Constant_322" type="Const" version="opset1">
			<data element_type="i64" shape="2" offset="1792" size="16"/>
			<output>
				<port id="0" precision="I64" names="405">
					<dim>2</dim>
				</port>
			</output>
		</layer>
		<layer id="348" name="Reshape_323" type="Reshape" version="opset1">
			<data special_zero="true"/>
			<input>
				<port id="0" precision="I64">
					<dim>28</dim>
				</port>
				<port id="1" precision="I64">
					<dim>2</dim>
				</port>
			</input>
			<output>
				<port id="2" precision="I64">
					<dim>28</dim>
					<dim>1</dim>
				</port>
			</output>
		</layer>
		<layer id="349" name="Reshape_323/EltwiseUnsqueeze_input_port_1/value2115747169" type="Const" version="opset1">
			<data element_type="i64" shape="2" offset="1808" size="16"/>
			<output>
				<port id="0" precision="I64">
					<dim>2</dim>
				</port>
			</output>
		</layer>
		<layer id="350" name="Reshape_323/EltwiseUnsqueeze" type="Unsqueeze" version="opset1">
			<input>
				<port id="0" precision="I64">
					<dim>28</dim>
					<dim>1</dim>
				</port>
				<port id="1" precision="I64">
					<dim>2</dim>
				</port>
			</input>
			<output>
				<port id="2" precision="I64" names="406">
					<dim>1</dim>
					<dim>1</dim>
					<dim>28</dim>
					<dim>1</dim>
				</port>
			</output>
		</layer>
		<layer id="351" name="Add_325" type="Add" version="opset1">
			<data auto_broadcast="numpy"/>
			<input>
				<port id="0" precision="I64">
					<dim>1</dim>
					<dim>6</dim>
					<dim>1</dim>
					<dim>1</dim>
				</port>
				<port id="1" precision="I64">
					<dim>1</dim>
					<dim>1</dim>
					<dim>28</dim>
					<dim>1</dim>
				</port>
			</input>
			<output>
				<port id="2" precision="I64" names="408">
					<dim>1</dim>
					<dim>6</dim>
					<dim>28</dim>
					<dim>1</dim>
				</port>
			</output>
		</layer>
		<layer id="352" name="Constant_317" type="Const" version="opset1">
			<data element_type="i64" shape="" offset="1736" size="8"/>
			<output>
				<port id="0" precision="I64" names="398"/>
			</output>
		</layer>
		<layer id="353" name="Shape_313" type="ShapeOf" version="opset3">
			<data output_type="i64"/>
			<input>
				<port id="0" precision="FP32">
					<dim>1</dim>
					<dim>24</dim>
					<dim>28</dim>
					<dim>28</dim>
				</port>
			</input>
			<output>
				<port id="1" precision="I64" names="394">
					<dim>4</dim>
				</port>
			</output>
		</layer>
		<layer id="354" name="Constant_314" type="Const" version="opset1">
			<data element_type="i32" shape="" offset="1824" size="4"/>
			<output>
				<port id="0" precision="I32" names="395"/>
			</output>
		</layer>
		<layer id="355" name="Gather_315/axis" type="Const" version="opset1">
			<data element_type="i64" shape="" offset="1736" size="8"/>
			<output>
				<port id="0" precision="I64"/>
			</output>
		</layer>
		<layer id="356" name="Gather_3151643" type="Gather" version="opset7">
			<data batch_dims="0"/>
			<input>
				<port id="0" precision="I64">
					<dim>4</dim>
				</port>
				<port id="1" precision="I32"/>
				<port id="2" precision="I64"/>
			</input>
			<output>
				<port id="3" precision="I64" names="396,397"/>
			</output>
		</layer>
		<layer id="357" name="Constant_318" type="Const" version="opset1">
			<data element_type="i64" shape="" offset="1748" size="8"/>
			<output>
				<port id="0" precision="I64" names="399"/>
			</output>
		</layer>
		<layer id="358" name="Range_319" type="Range" version="opset4">
			<data output_type="i64"/>
			<input>
				<port id="0" precision="I64"/>
				<port id="1" precision="I64"/>
				<port id="2" precision="I64"/>
			</input>
			<output>
				<port id="3" precision="I64">
					<dim>28</dim>
				</port>
			</output>
		</layer>
		<layer id="359" name="Range_319/EltwiseUnsqueeze_input_port_1/value2116146938" type="Const" version="opset1">
			<data element_type="i64" shape="3" offset="1828" size="24"/>
			<output>
				<port id="0" precision="I64">
					<dim>3</dim>
				</port>
			</output>
		</layer>
		<layer id="360" name="Range_319/EltwiseUnsqueeze" type="Unsqueeze" version="opset1">
			<input>
				<port id="0" precision="I64">
					<dim>28</dim>
				</port>
				<port id="1" precision="I64">
					<dim>3</dim>
				</port>
			</input>
			<output>
				<port id="2" precision="I64" names="400">
					<dim>1</dim>
					<dim>1</dim>
					<dim>1</dim>
					<dim>28</dim>
				</port>
			</output>
		</layer>
		<layer id="361" name="Add_326" type="Add" version="opset1">
			<data auto_broadcast="numpy"/>
			<input>
				<port id="0" precision="I64">
					<dim>1</dim>
					<dim>6</dim>
					<dim>28</dim>
					<dim>1</dim>
				</port>
				<port id="1" precision="I64">
					<dim>1</dim>
					<dim>1</dim>
					<dim>1</dim>
					<dim>28</dim>
				</port>
			</input>
			<output>
				<port id="2" precision="I64" names="409">
					<dim>1</dim>
					<dim>6</dim>
					<dim>28</dim>
					<dim>28</dim>
				</port>
			</output>
		</layer>
		<layer id="362" name="Shape_327" type="ShapeOf" version="opset3">
			<data output_type="i64"/>
			<input>
				<port id="0" precision="I64">
					<dim>1</dim>
					<dim>6</dim>
					<dim>28</dim>
					<dim>28</dim>
				</port>
			</input>
			<output>
				<port id="1" precision="I64" names="410,449">
					<dim>4</dim>
				</port>
			</output>
		</layer>
		<layer id="363" name="ConstantOfShape_329/Broadcast/FillValue" type="Const" version="opset1">
			<data element_type="i64" shape="1" offset="1748" size="8"/>
			<output>
				<port id="0" precision="I64">
					<dim>1</dim>
				</port>
			</output>
		</layer>
		<layer id="364" name="Shape_328" type="ShapeOf" version="opset3">
			<data output_type="i64"/>
			<input>
				<port id="0" precision="I64">
					<dim>4</dim>
				</port>
			</input>
			<output>
				<port id="1" precision="I64" names="411">
					<dim>1</dim>
				</port>
			</output>
		</layer>
		<layer id="365" name="ConstantOfShape_329/Broadcast" type="Broadcast" version="opset3">
			<data mode="numpy"/>
			<input>
				<port id="0" precision="I64">
					<dim>1</dim>
				</port>
				<port id="1" precision="I64">
					<dim>1</dim>
				</port>
			</input>
			<output>
				<port id="2" precision="I64" names="412">
					<dim>4</dim>
				</port>
			</output>
		</layer>
		<layer id="366" name="Mul_331/Negate" type="Negative" version="opset1">
			<input>
				<port id="0" precision="I64">
					<dim>4</dim>
				</port>
			</input>
			<output>
				<port id="1" precision="I64" names="414">
					<dim>4</dim>
				</port>
			</output>
		</layer>
		<layer id="367" name="Equal_332" type="Equal" version="opset1">
			<input>
				<port id="0" precision="I64">
					<dim>4</dim>
				</port>
				<port id="1" precision="I64">
					<dim>4</dim>
				</port>
			</input>
			<output>
				<port id="2" precision="BOOL" names="415">
					<dim>4</dim>
				</port>
			</output>
		</layer>
		<layer id="368" name="Where_333" type="Select" version="opset1">
			<data auto_broadcast="numpy"/>
			<input>
				<port id="0" precision="BOOL">
					<dim>4</dim>
				</port>
				<port id="1" precision="I64">
					<dim>4</dim>
				</port>
				<port id="2" precision="I64">
					<dim>4</dim>
				</port>
			</input>
			<output>
				<port id="3" precision="I64" names="416">
					<dim>4</dim>
				</port>
			</output>
		</layer>
		<layer id="369" name="Expand_334" type="Broadcast" version="opset3">
			<data mode="bidirectional"/>
			<input>
				<port id="0" precision="I64">
					<dim>1</dim>
					<dim>1</dim>
					<dim>1</dim>
					<dim>1</dim>
				</port>
				<port id="1" precision="I64">
					<dim>4</dim>
				</port>
			</input>
			<output>
				<port id="2" precision="I64" names="417">
					<dim>1</dim>
					<dim>6</dim>
					<dim>28</dim>
					<dim>28</dim>
				</port>
			</output>
		</layer>
		<layer id="370" name="Unsqueeze_335/Dims" type="Const" version="opset1">
			<data element_type="i64" shape="1" offset="1756" size="8"/>
			<output>
				<port id="0" precision="I64">
					<dim>1</dim>
				</port>
			</output>
		</layer>
		<layer id="371" name="Unsqueeze_335/Unsqueeze" type="Unsqueeze" version="opset1">
			<input>
				<port id="0" precision="I64">
					<dim>1</dim>
					<dim>6</dim>
					<dim>28</dim>
					<dim>28</dim>
				</port>
				<port id="1" precision="I64">
					<dim>1</dim>
				</port>
			</input>
			<output>
				<port id="2" precision="I64" names="418">
					<dim>1</dim>
					<dim>6</dim>
					<dim>28</dim>
					<dim>28</dim>
					<dim>1</dim>
				</port>
			</output>
		</layer>
		<layer id="372" name="ConstantOfShape_337/Broadcast/FillValue" type="Const" version="opset1">
			<data element_type="i64" shape="1" offset="1748" size="8"/>
			<output>
				<port id="0" precision="I64">
					<dim>1</dim>
				</port>
			</output>
		</layer>
		<layer id="373" name="Shape_336" type="ShapeOf" version="opset3">
			<data output_type="i64"/>
			<input>
				<port id="0" precision="I64">
					<dim>4</dim>
				</port>
			</input>
			<output>
				<port id="1" precision="I64" names="419">
					<dim>1</dim>
				</port>
			</output>
		</layer>
		<layer id="374" name="ConstantOfShape_337/Broadcast" type="Broadcast" version="opset3">
			<data mode="numpy"/>
			<input>
				<port id="0" precision="I64">
					<dim>1</dim>
				</port>
				<port id="1" precision="I64">
					<dim>1</dim>
				</port>
			</input>
			<output>
				<port id="2" precision="I64" names="420">
					<dim>4</dim>
				</port>
			</output>
		</layer>
		<layer id="375" name="Mul_339/Negate" type="Negative" version="opset1">
			<input>
				<port id="0" precision="I64">
					<dim>4</dim>
				</port>
			</input>
			<output>
				<port id="1" precision="I64" names="422">
					<dim>4</dim>
				</port>
			</output>
		</layer>
		<layer id="376" name="Equal_340" type="Equal" version="opset1">
			<input>
				<port id="0" precision="I64">
					<dim>4</dim>
				</port>
				<port id="1" precision="I64">
					<dim>4</dim>
				</port>
			</input>
			<output>
				<port id="2" precision="BOOL" names="423">
					<dim>4</dim>
				</port>
			</output>
		</layer>
		<layer id="377" name="Where_341" type="Select" version="opset1">
			<data auto_broadcast="numpy"/>
			<input>
				<port id="0" precision="BOOL">
					<dim>4</dim>
				</port>
				<port id="1" precision="I64">
					<dim>4</dim>
				</port>
				<port id="2" precision="I64">
					<dim>4</dim>
				</port>
			</input>
			<output>
				<port id="3" precision="I64" names="424">
					<dim>4</dim>
				</port>
			</output>
		</layer>
		<layer id="378" name="Expand_342" type="Broadcast" version="opset3">
			<data mode="bidirectional"/>
			<input>
				<port id="0" precision="I64">
					<dim>6</dim>
					<dim>1</dim>
					<dim>1</dim>
				</port>
				<port id="1" precision="I64">
					<dim>4</dim>
				</port>
			</input>
			<output>
				<port id="2" precision="I64" names="425">
					<dim>1</dim>
					<dim>6</dim>
					<dim>28</dim>
					<dim>28</dim>
				</port>
			</output>
		</layer>
		<layer id="379" name="Unsqueeze_343/Dims" type="Const" version="opset1">
			<data element_type="i64" shape="1" offset="1756" size="8"/>
			<output>
				<port id="0" precision="I64">
					<dim>1</dim>
				</port>
			</output>
		</layer>
		<layer id="380" name="Unsqueeze_343/Unsqueeze" type="Unsqueeze" version="opset1">
			<input>
				<port id="0" precision="I64">
					<dim>1</dim>
					<dim>6</dim>
					<dim>28</dim>
					<dim>28</dim>
				</port>
				<port id="1" precision="I64">
					<dim>1</dim>
				</port>
			</input>
			<output>
				<port id="2" precision="I64" names="426">
					<dim>1</dim>
					<dim>6</dim>
					<dim>28</dim>
					<dim>28</dim>
					<dim>1</dim>
				</port>
			</output>
		</layer>
		<layer id="381" name="ConstantOfShape_345/Broadcast/FillValue" type="Const" version="opset1">
			<data element_type="i64" shape="1" offset="1748" size="8"/>
			<output>
				<port id="0" precision="I64">
					<dim>1</dim>
				</port>
			</output>
		</layer>
		<layer id="382" name="Shape_344" type="ShapeOf" version="opset3">
			<data output_type="i64"/>
			<input>
				<port id="0" precision="I64">
					<dim>4</dim>
				</port>
			</input>
			<output>
				<port id="1" precision="I64" names="427">
					<dim>1</dim>
				</port>
			</output>
		</layer>
		<layer id="383" name="ConstantOfShape_345/Broadcast" type="Broadcast" version="opset3">
			<data mode="numpy"/>
			<input>
				<port id="0" precision="I64">
					<dim>1</dim>
				</port>
				<port id="1" precision="I64">
					<dim>1</dim>
				</port>
			</input>
			<output>
				<port id="2" precision="I64" names="428">
					<dim>4</dim>
				</port>
			</output>
		</layer>
		<layer id="384" name="Mul_347/Negate" type="Negative" version="opset1">
			<input>
				<port id="0" precision="I64">
					<dim>4</dim>
				</port>
			</input>
			<output>
				<port id="1" precision="I64" names="430">
					<dim>4</dim>
				</port>
			</output>
		</layer>
		<layer id="385" name="Equal_348" type="Equal" version="opset1">
			<input>
				<port id="0" precision="I64">
					<dim>4</dim>
				</port>
				<port id="1" precision="I64">
					<dim>4</dim>
				</port>
			</input>
			<output>
				<port id="2" precision="BOOL" names="431">
					<dim>4</dim>
				</port>
			</output>
		</layer>
		<layer id="386" name="Where_349" type="Select" version="opset1">
			<data auto_broadcast="numpy"/>
			<input>
				<port id="0" precision="BOOL">
					<dim>4</dim>
				</port>
				<port id="1" precision="I64">
					<dim>4</dim>
				</port>
				<port id="2" precision="I64">
					<dim>4</dim>
				</port>
			</input>
			<output>
				<port id="3" precision="I64" names="432">
					<dim>4</dim>
				</port>
			</output>
		</layer>
		<layer id="387" name="Expand_350" type="Broadcast" version="opset3">
			<data mode="bidirectional"/>
			<input>
				<port id="0" precision="I64">
					<dim>28</dim>
					<dim>1</dim>
				</port>
				<port id="1" precision="I64">
					<dim>4</dim>
				</port>
			</input>
			<output>
				<port id="2" precision="I64" names="433">
					<dim>1</dim>
					<dim>6</dim>
					<dim>28</dim>
					<dim>28</dim>
				</port>
			</output>
		</layer>
		<layer id="388" name="Unsqueeze_351/Dims" type="Const" version="opset1">
			<data element_type="i64" shape="1" offset="1756" size="8"/>
			<output>
				<port id="0" precision="I64">
					<dim>1</dim>
				</port>
			</output>
		</layer>
		<layer id="389" name="Unsqueeze_351/Unsqueeze" type="Unsqueeze" version="opset1">
			<input>
				<port id="0" precision="I64">
					<dim>1</dim>
					<dim>6</dim>
					<dim>28</dim>
					<dim>28</dim>
				</port>
				<port id="1" precision="I64">
					<dim>1</dim>
				</port>
			</input>
			<output>
				<port id="2" precision="I64" names="434">
					<dim>1</dim>
					<dim>6</dim>
					<dim>28</dim>
					<dim>28</dim>
					<dim>1</dim>
				</port>
			</output>
		</layer>
		<layer id="390" name="ConstantOfShape_353/Broadcast/FillValue" type="Const" version="opset1">
			<data element_type="i64" shape="1" offset="1748" size="8"/>
			<output>
				<port id="0" precision="I64">
					<dim>1</dim>
				</port>
			</output>
		</layer>
		<layer id="391" name="Shape_352" type="ShapeOf" version="opset3">
			<data output_type="i64"/>
			<input>
				<port id="0" precision="I64">
					<dim>4</dim>
				</port>
			</input>
			<output>
				<port id="1" precision="I64" names="435">
					<dim>1</dim>
				</port>
			</output>
		</layer>
		<layer id="392" name="ConstantOfShape_353/Broadcast" type="Broadcast" version="opset3">
			<data mode="numpy"/>
			<input>
				<port id="0" precision="I64">
					<dim>1</dim>
				</port>
				<port id="1" precision="I64">
					<dim>1</dim>
				</port>
			</input>
			<output>
				<port id="2" precision="I64" names="436">
					<dim>4</dim>
				</port>
			</output>
		</layer>
		<layer id="393" name="Mul_355/Negate" type="Negative" version="opset1">
			<input>
				<port id="0" precision="I64">
					<dim>4</dim>
				</port>
			</input>
			<output>
				<port id="1" precision="I64" names="438">
					<dim>4</dim>
				</port>
			</output>
		</layer>
		<layer id="394" name="Equal_356" type="Equal" version="opset1">
			<input>
				<port id="0" precision="I64">
					<dim>4</dim>
				</port>
				<port id="1" precision="I64">
					<dim>4</dim>
				</port>
			</input>
			<output>
				<port id="2" precision="BOOL" names="439">
					<dim>4</dim>
				</port>
			</output>
		</layer>
		<layer id="395" name="Where_357" type="Select" version="opset1">
			<data auto_broadcast="numpy"/>
			<input>
				<port id="0" precision="BOOL">
					<dim>4</dim>
				</port>
				<port id="1" precision="I64">
					<dim>4</dim>
				</port>
				<port id="2" precision="I64">
					<dim>4</dim>
				</port>
			</input>
			<output>
				<port id="3" precision="I64" names="440">
					<dim>4</dim>
				</port>
			</output>
		</layer>
		<layer id="396" name="Expand_358" type="Broadcast" version="opset3">
			<data mode="bidirectional"/>
			<input>
				<port id="0" precision="I64">
					<dim>28</dim>
				</port>
				<port id="1" precision="I64">
					<dim>4</dim>
				</port>
			</input>
			<output>
				<port id="2" precision="I64" names="441">
					<dim>1</dim>
					<dim>6</dim>
					<dim>28</dim>
					<dim>28</dim>
				</port>
			</output>
		</layer>
		<layer id="397" name="Unsqueeze_359/Dims" type="Const" version="opset1">
			<data element_type="i64" shape="1" offset="1756" size="8"/>
			<output>
				<port id="0" precision="I64">
					<dim>1</dim>
				</port>
			</output>
		</layer>
		<layer id="398" name="Unsqueeze_359/Unsqueeze" type="Unsqueeze" version="opset1">
			<input>
				<port id="0" precision="I64">
					<dim>1</dim>
					<dim>6</dim>
					<dim>28</dim>
					<dim>28</dim>
				</port>
				<port id="1" precision="I64">
					<dim>1</dim>
				</port>
			</input>
			<output>
				<port id="2" precision="I64" names="442">
					<dim>1</dim>
					<dim>6</dim>
					<dim>28</dim>
					<dim>28</dim>
					<dim>1</dim>
				</port>
			</output>
		</layer>
		<layer id="399" name="Concat_360" type="Concat" version="opset1">
			<data axis="4"/>
			<input>
				<port id="0" precision="I64">
					<dim>1</dim>
					<dim>6</dim>
					<dim>28</dim>
					<dim>28</dim>
					<dim>1</dim>
				</port>
				<port id="1" precision="I64">
					<dim>1</dim>
					<dim>6</dim>
					<dim>28</dim>
					<dim>28</dim>
					<dim>1</dim>
				</port>
				<port id="2" precision="I64">
					<dim>1</dim>
					<dim>6</dim>
					<dim>28</dim>
					<dim>28</dim>
					<dim>1</dim>
				</port>
				<port id="3" precision="I64">
					<dim>1</dim>
					<dim>6</dim>
					<dim>28</dim>
					<dim>28</dim>
					<dim>1</dim>
				</port>
			</input>
			<output>
				<port id="4" precision="I64" names="443">
					<dim>1</dim>
					<dim>6</dim>
					<dim>28</dim>
					<dim>28</dim>
					<dim>4</dim>
				</port>
			</output>
		</layer>
		<layer id="400" name="Constant_291" type="Const" version="opset1">
			<data element_type="f32" shape="6, 28, 28" offset="308564" size="18816"/>
			<output>
				<port id="0" precision="FP32" names="371">
					<dim>6</dim>
					<dim>28</dim>
					<dim>28</dim>
				</port>
			</output>
		</layer>
		<layer id="401" name="Constant_284" type="Const" version="opset1">
			<data element_type="i32" shape="" offset="202556" size="4"/>
			<output>
				<port id="0" precision="I32" names="364"/>
			</output>
		</layer>
		<layer id="402" name="Gather_285/axis" type="Const" version="opset1">
			<data element_type="i64" shape="" offset="1736" size="8"/>
			<output>
				<port id="0" precision="I64"/>
			</output>
		</layer>
		<layer id="403" name="Gather_2851599" type="Gather" version="opset7">
			<data batch_dims="0"/>
			<input>
				<port id="0" precision="FP32">
					<dim>1</dim>
					<dim>24</dim>
					<dim>28</dim>
					<dim>28</dim>
				</port>
				<port id="1" precision="I32"/>
				<port id="2" precision="I64"/>
			</input>
			<output>
				<port id="3" precision="FP32" names="365">
					<dim>24</dim>
					<dim>28</dim>
					<dim>28</dim>
				</port>
			</output>
		</layer>
		<layer id="404" name="Slice_290/Concat1342348096" type="Const" version="opset1">
			<data element_type="i64" shape="3" offset="202560" size="24"/>
			<output>
				<port id="0" precision="I64">
					<dim>3</dim>
				</port>
			</output>
		</layer>
		<layer id="405" name="Slice_290/Concat134091342446968" type="Const" version="opset1">
			<data element_type="i64" shape="3" offset="288476" size="24"/>
			<output>
				<port id="0" precision="I64">
					<dim>3</dim>
				</port>
			</output>
		</layer>
		<layer id="406" name="Slice_290/Strides1342547742" type="Const" version="opset1">
			<data element_type="i64" shape="3" offset="202608" size="24"/>
			<output>
				<port id="0" precision="I64">
					<dim>3</dim>
				</port>
			</output>
		</layer>
		<layer id="407" name="Slice_290" type="StridedSlice" version="opset1">
			<data begin_mask="0, 1, 1" end_mask="0, 1, 1" new_axis_mask="0, 0, 0" shrink_axis_mask="0, 0, 0" ellipsis_mask="0, 0, 0"/>
			<input>
				<port id="0" precision="FP32">
					<dim>24</dim>
					<dim>28</dim>
					<dim>28</dim>
				</port>
				<port id="1" precision="I64">
					<dim>3</dim>
				</port>
				<port id="2" precision="I64">
					<dim>3</dim>
				</port>
				<port id="3" precision="I64">
					<dim>3</dim>
				</port>
			</input>
			<output>
				<port id="4" precision="FP32" names="370">
					<dim>6</dim>
					<dim>28</dim>
					<dim>28</dim>
				</port>
			</output>
		</layer>
		<layer id="408" name="Shape_292" type="ShapeOf" version="opset3">
			<data output_type="i64"/>
			<input>
				<port id="0" precision="FP32">
					<dim>6</dim>
					<dim>28</dim>
					<dim>28</dim>
				</port>
			</input>
			<output>
				<port id="1" precision="I64" names="372">
					<dim>3</dim>
				</port>
			</output>
		</layer>
		<layer id="409" name="Expand_293" type="Broadcast" version="opset3">
			<data mode="bidirectional"/>
			<input>
				<port id="0" precision="FP32">
					<dim>6</dim>
					<dim>28</dim>
					<dim>28</dim>
				</port>
				<port id="1" precision="I64">
					<dim>3</dim>
				</port>
			</input>
			<output>
				<port id="2" precision="FP32" names="373">
					<dim>6</dim>
					<dim>28</dim>
					<dim>28</dim>
				</port>
			</output>
		</layer>
		<layer id="410" name="Reshape_367" type="Reshape" version="opset1">
			<data special_zero="true"/>
			<input>
				<port id="0" precision="FP32">
					<dim>6</dim>
					<dim>28</dim>
					<dim>28</dim>
				</port>
				<port id="1" precision="I64">
					<dim>4</dim>
				</port>
			</input>
			<output>
				<port id="2" precision="FP32" names="450">
					<dim>1</dim>
					<dim>6</dim>
					<dim>28</dim>
					<dim>28</dim>
				</port>
			</output>
		</layer>
		<layer id="411" name="ScatterND_368" type="ScatterNDUpdate" version="opset4">
			<input>
				<port id="0" precision="FP32">
					<dim>1</dim>
					<dim>24</dim>
					<dim>28</dim>
					<dim>28</dim>
				</port>
				<port id="1" precision="I64">
					<dim>1</dim>
					<dim>6</dim>
					<dim>28</dim>
					<dim>28</dim>
					<dim>4</dim>
				</port>
				<port id="2" precision="FP32">
					<dim>1</dim>
					<dim>6</dim>
					<dim>28</dim>
					<dim>28</dim>
				</port>
			</input>
			<output>
				<port id="3" precision="FP32" names="451">
					<dim>1</dim>
					<dim>24</dim>
					<dim>28</dim>
					<dim>28</dim>
				</port>
			</output>
		</layer>
		<layer id="412" name="features.4.block.0.0.weight" type="Const" version="opset1">
			<data element_type="f32" shape="96, 24, 1, 1" offset="327380" size="9216"/>
			<output>
				<port id="0" precision="FP32" names="features.4.block.0.0.weight">
					<dim>96</dim>
					<dim>24</dim>
					<dim>1</dim>
					<dim>1</dim>
				</port>
			</output>
		</layer>
		<layer id="413" name="Conv_369" type="Convolution" version="opset1">
			<data strides="1, 1" dilations="1, 1" pads_begin="0, 0" pads_end="0, 0" auto_pad="explicit"/>
			<input>
				<port id="0" precision="FP32">
					<dim>1</dim>
					<dim>24</dim>
					<dim>28</dim>
					<dim>28</dim>
				</port>
				<port id="1" precision="FP32">
					<dim>96</dim>
					<dim>24</dim>
					<dim>1</dim>
					<dim>1</dim>
				</port>
			</input>
			<output>
				<port id="2" precision="FP32" names="452">
					<dim>1</dim>
					<dim>96</dim>
					<dim>28</dim>
					<dim>28</dim>
				</port>
			</output>
		</layer>
		<layer id="414" name="Constant_370" type="Const" version="opset1">
			<data element_type="f32" shape="1, 1, 1, 1" offset="1728" size="4"/>
			<output>
				<port id="0" precision="FP32" names="453">
					<dim>1</dim>
					<dim>1</dim>
					<dim>1</dim>
					<dim>1</dim>
				</port>
			</output>
		</layer>
		<layer id="415" name="Add_371" type="Add" version="opset1">
			<data auto_broadcast="numpy"/>
			<input>
				<port id="0" precision="FP32">
					<dim>1</dim>
					<dim>96</dim>
					<dim>28</dim>
					<dim>28</dim>
				</port>
				<port id="1" precision="FP32">
					<dim>1</dim>
					<dim>1</dim>
					<dim>1</dim>
					<dim>1</dim>
				</port>
			</input>
			<output>
				<port id="2" precision="FP32" names="454">
					<dim>1</dim>
					<dim>96</dim>
					<dim>28</dim>
					<dim>28</dim>
				</port>
			</output>
		</layer>
		<layer id="416" name="Clip_374" type="Clamp" version="opset1">
			<data min="0" max="6"/>
			<input>
				<port id="0" precision="FP32">
					<dim>1</dim>
					<dim>96</dim>
					<dim>28</dim>
					<dim>28</dim>
				</port>
			</input>
			<output>
				<port id="1" precision="FP32" names="457">
					<dim>1</dim>
					<dim>96</dim>
					<dim>28</dim>
					<dim>28</dim>
				</port>
			</output>
		</layer>
		<layer id="417" name="Constant_375" type="Const" version="opset1">
			<data element_type="f32" shape="1, 1, 1, 1" offset="1732" size="4"/>
			<output>
				<port id="0" precision="FP32" names="458">
					<dim>1</dim>
					<dim>1</dim>
					<dim>1</dim>
					<dim>1</dim>
				</port>
			</output>
		</layer>
		<layer id="418" name="Div_376" type="Multiply" version="opset1">
			<data auto_broadcast="numpy"/>
			<input>
				<port id="0" precision="FP32">
					<dim>1</dim>
					<dim>96</dim>
					<dim>28</dim>
					<dim>28</dim>
				</port>
				<port id="1" precision="FP32">
					<dim>1</dim>
					<dim>1</dim>
					<dim>1</dim>
					<dim>1</dim>
				</port>
			</input>
			<output>
				<port id="2" precision="FP32" names="459">
					<dim>1</dim>
					<dim>96</dim>
					<dim>28</dim>
					<dim>28</dim>
				</port>
			</output>
		</layer>
		<layer id="419" name="Mul_377" type="Multiply" version="opset1">
			<data auto_broadcast="numpy"/>
			<input>
				<port id="0" precision="FP32">
					<dim>1</dim>
					<dim>96</dim>
					<dim>28</dim>
					<dim>28</dim>
				</port>
				<port id="1" precision="FP32">
					<dim>1</dim>
					<dim>96</dim>
					<dim>28</dim>
					<dim>28</dim>
				</port>
			</input>
			<output>
				<port id="2" precision="FP32" names="460">
					<dim>1</dim>
					<dim>96</dim>
					<dim>28</dim>
					<dim>28</dim>
				</port>
			</output>
		</layer>
		<layer id="420" name="features.4.block.1.0.weight" type="Const" version="opset1">
			<data element_type="f32" shape="96, 1, 1, 5, 5" offset="336596" size="9600"/>
			<output>
				<port id="0" precision="FP32" names="features.4.block.1.0.weight">
					<dim>96</dim>
					<dim>1</dim>
					<dim>1</dim>
					<dim>5</dim>
					<dim>5</dim>
				</port>
			</output>
		</layer>
		<layer id="421" name="Conv_378" type="GroupConvolution" version="opset1">
			<data strides="2, 2" pads_begin="2, 2" pads_end="2, 2" dilations="1, 1" auto_pad="explicit"/>
			<input>
				<port id="0" precision="FP32">
					<dim>1</dim>
					<dim>96</dim>
					<dim>28</dim>
					<dim>28</dim>
				</port>
				<port id="1" precision="FP32">
					<dim>96</dim>
					<dim>1</dim>
					<dim>1</dim>
					<dim>5</dim>
					<dim>5</dim>
				</port>
			</input>
			<output>
				<port id="2" precision="FP32" names="461">
					<dim>1</dim>
					<dim>96</dim>
					<dim>14</dim>
					<dim>14</dim>
				</port>
			</output>
		</layer>
		<layer id="422" name="Constant_379" type="Const" version="opset1">
			<data element_type="f32" shape="1, 1, 1, 1" offset="1728" size="4"/>
			<output>
				<port id="0" precision="FP32" names="462">
					<dim>1</dim>
					<dim>1</dim>
					<dim>1</dim>
					<dim>1</dim>
				</port>
			</output>
		</layer>
		<layer id="423" name="Add_380" type="Add" version="opset1">
			<data auto_broadcast="numpy"/>
			<input>
				<port id="0" precision="FP32">
					<dim>1</dim>
					<dim>96</dim>
					<dim>14</dim>
					<dim>14</dim>
				</port>
				<port id="1" precision="FP32">
					<dim>1</dim>
					<dim>1</dim>
					<dim>1</dim>
					<dim>1</dim>
				</port>
…
		<edge from-layer="802" from-port="2" to-layer="808" to-port="0"/>
		<edge from-layer="803" from-port="0" to-layer="804" to-port="1"/>
		<edge from-layer="804" from-port="2" to-layer="805" to-port="0"/>
		<edge from-layer="805" from-port="1" to-layer="807" to-port="0"/>
		<edge from-layer="806" from-port="0" to-layer="807" to-port="1"/>
		<edge from-layer="807" from-port="2" to-layer="808" to-port="1"/>
		<edge from-layer="808" from-port="2" to-layer="810" to-port="0"/>
		<edge from-layer="809" from-port="0" to-layer="810" to-port="1"/>
		<edge from-layer="810" from-port="2" to-layer="812" to-port="0"/>
		<edge from-layer="810" from-port="2" to-layer="816" to-port="0"/>
		<edge from-layer="811" from-port="0" to-layer="812" to-port="1"/>
		<edge from-layer="812" from-port="2" to-layer="813" to-port="0"/>
		<edge from-layer="813" from-port="1" to-layer="815" to-port="0"/>
		<edge from-layer="814" from-port="0" to-layer="815" to-port="1"/>
		<edge from-layer="815" from-port="2" to-layer="816" to-port="1"/>
		<edge from-layer="816" from-port="2" to-layer="837" to-port="1"/>
		<edge from-layer="816" from-port="2" to-layer="824" to-port="0"/>
		<edge from-layer="816" from-port="2" to-layer="818" to-port="0"/>
		<edge from-layer="817" from-port="0" to-layer="823" to-port="0"/>
		<edge from-layer="818" from-port="1" to-layer="819" to-port="0"/>
		<edge from-layer="819" from-port="1" to-layer="821" to-port="0"/>
		<edge from-layer="820" from-port="0" to-layer="821" to-port="1"/>
		<edge from-layer="821" from-port="2" to-layer="823" to-port="1"/>
		<edge from-layer="822" from-port="0" to-layer="823" to-port="2"/>
		<edge from-layer="823" from-port="3" to-layer="824" to-port="1"/>
		<edge from-layer="824" from-port="2" to-layer="826" to-port="0"/>
		<edge from-layer="825" from-port="0" to-layer="826" to-port="1"/>
		<edge from-layer="826" from-port="2" to-layer="828" to-port="0"/>
		<edge from-layer="827" from-port="0" to-layer="828" to-port="1"/>
		<edge from-layer="828" from-port="2" to-layer="829" to-port="0"/>
		<edge from-layer="829" from-port="1" to-layer="831" to-port="0"/>
		<edge from-layer="830" from-port="0" to-layer="831" to-port="1"/>
		<edge from-layer="831" from-port="2" to-layer="833" to-port="0"/>
		<edge from-layer="832" from-port="0" to-layer="833" to-port="1"/>
		<edge from-layer="833" from-port="2" to-layer="836" to-port="0"/>
		<edge from-layer="834" from-port="0" to-layer="836" to-port="1"/>
		<edge from-layer="835" from-port="0" to-layer="836" to-port="2"/>
		<edge from-layer="836" from-port="3" to-layer="837" to-port="0"/>
		<edge from-layer="837" from-port="2" to-layer="839" to-port="0"/>
		<edge from-layer="838" from-port="0" to-layer="839" to-port="1"/>
		<edge from-layer="839" from-port="2" to-layer="871" to-port="0"/>
		<edge from-layer="839" from-port="2" to-layer="921" to-port="0"/>
		<edge from-layer="839" from-port="2" to-layer="929" to-port="0"/>
		<edge from-layer="839" from-port="2" to-layer="859" to-port="0"/>
		<edge from-layer="839" from-port="2" to-layer="843" to-port="0"/>
		<edge from-layer="840" from-port="0" to-layer="887" to-port="0"/>
		<edge from-layer="841" from-port="0" to-layer="857" to-port="0"/>
		<edge from-layer="842" from-port="0" to-layer="848" to-port="0"/>
		<edge from-layer="843" from-port="1" to-layer="846" to-port="0"/>
		<edge from-layer="844" from-port="0" to-layer="846" to-port="1"/>
		<edge from-layer="845" from-port="0" to-layer="846" to-port="2"/>
		<edge from-layer="846" from-port="3" to-layer="848" to-port="1"/>
		<edge from-layer="847" from-port="0" to-layer="848" to-port="2"/>
		<edge from-layer="848" from-port="3" to-layer="852" to-port="0"/>
		<edge from-layer="849" from-port="0" to-layer="852" to-port="1"/>
		<edge from-layer="850" from-port="0" to-layer="852" to-port="2"/>
		<edge from-layer="851" from-port="0" to-layer="852" to-port="3"/>
		<edge from-layer="852" from-port="4" to-layer="854" to-port="0"/>
		<edge from-layer="853" from-port="0" to-layer="854" to-port="1"/>
		<edge from-layer="854" from-port="2" to-layer="856" to-port="0"/>
		<edge from-layer="854" from-port="2" to-layer="896" to-port="0"/>
		<edge from-layer="855" from-port="0" to-layer="856" to-port="1"/>
		<edge from-layer="856" from-port="2" to-layer="857" to-port="1"/>
		<edge from-layer="857" from-port="2" to-layer="869" to-port="0"/>
		<edge from-layer="858" from-port="0" to-layer="864" to-port="0"/>
		<edge from-layer="859" from-port="1" to-layer="862" to-port="0"/>
		<edge from-layer="860" from-port="0" to-layer="862" to-port="1"/>
		<edge from-layer="861" from-port="0" to-layer="862" to-port="2"/>
		<edge from-layer="862" from-port="3" to-layer="864" to-port="1"/>
		<edge from-layer="863" from-port="0" to-layer="864" to-port="2"/>
		<edge from-layer="864" from-port="3" to-layer="866" to-port="0"/>
		<edge from-layer="865" from-port="0" to-layer="866" to-port="1"/>
		<edge from-layer="866" from-port="2" to-layer="905" to-port="0"/>
		<edge from-layer="866" from-port="2" to-layer="868" to-port="0"/>
		<edge from-layer="867" from-port="0" to-layer="868" to-port="1"/>
		<edge from-layer="868" from-port="2" to-layer="869" to-port="1"/>
		<edge from-layer="869" from-port="2" to-layer="879" to-port="0"/>
		<edge from-layer="870" from-port="0" to-layer="876" to-port="0"/>
		<edge from-layer="871" from-port="1" to-layer="874" to-port="0"/>
		<edge from-layer="872" from-port="0" to-layer="874" to-port="1"/>
		<edge from-layer="873" from-port="0" to-layer="874" to-port="2"/>
		<edge from-layer="874" from-port="3" to-layer="876" to-port="1"/>
		<edge from-layer="875" from-port="0" to-layer="876" to-port="2"/>
		<edge from-layer="876" from-port="3" to-layer="878" to-port="0"/>
		<edge from-layer="876" from-port="3" to-layer="914" to-port="0"/>
		<edge from-layer="877" from-port="0" to-layer="878" to-port="1"/>
		<edge from-layer="878" from-port="2" to-layer="879" to-port="1"/>
		<edge from-layer="879" from-port="2" to-layer="880" to-port="0"/>
		<edge from-layer="880" from-port="1" to-layer="913" to-port="2"/>
		<edge from-layer="880" from-port="1" to-layer="912" to-port="0"/>
		<edge from-layer="880" from-port="1" to-layer="909" to-port="0"/>
		<edge from-layer="880" from-port="1" to-layer="928" to-port="1"/>
		<edge from-layer="880" from-port="1" to-layer="904" to-port="2"/>
		<edge from-layer="880" from-port="1" to-layer="900" to-port="0"/>
		<edge from-layer="880" from-port="1" to-layer="903" to-port="0"/>
		<edge from-layer="880" from-port="1" to-layer="895" to-port="2"/>
		<edge from-layer="880" from-port="1" to-layer="894" to-port="0"/>
		<edge from-layer="880" from-port="1" to-layer="886" to-port="2"/>
		<edge from-layer="880" from-port="1" to-layer="882" to-port="0"/>
		<edge from-layer="880" from-port="1" to-layer="891" to-port="0"/>
		<edge from-layer="880" from-port="1" to-layer="885" to-port="0"/>
		<edge from-layer="881" from-port="0" to-layer="883" to-port="0"/>
		<edge from-layer="882" from-port="1" to-layer="883" to-port="1"/>
		<edge from-layer="883" from-port="2" to-layer="886" to-port="1"/>
		<edge from-layer="883" from-port="2" to-layer="884" to-port="0"/>
		<edge from-layer="884" from-port="1" to-layer="885" to-port="1"/>
		<edge from-layer="885" from-port="2" to-layer="886" to-port="0"/>
		<edge from-layer="886" from-port="3" to-layer="887" to-port="1"/>
		<edge from-layer="887" from-port="2" to-layer="889" to-port="0"/>
		<edge from-layer="888" from-port="0" to-layer="889" to-port="1"/>
		<edge from-layer="889" from-port="2" to-layer="917" to-port="0"/>
		<edge from-layer="890" from-port="0" to-layer="892" to-port="0"/>
		<edge from-layer="891" from-port="1" to-layer="892" to-port="1"/>
		<edge from-layer="892" from-port="2" to-layer="893" to-port="0"/>
		<edge from-layer="892" from-port="2" to-layer="895" to-port="1"/>
		<edge from-layer="893" from-port="1" to-layer="894" to-port="1"/>
		<edge from-layer="894" from-port="2" to-layer="895" to-port="0"/>
		<edge from-layer="895" from-port="3" to-layer="896" to-port="1"/>
		<edge from-layer="896" from-port="2" to-layer="898" to-port="0"/>
		<edge from-layer="897" from-port="0" to-layer="898" to-port="1"/>
		<edge from-layer="898" from-port="2" to-layer="917" to-port="1"/>
		<edge from-layer="899" from-port="0" to-layer="901" to-port="0"/>
		<edge from-layer="900" from-port="1" to-layer="901" to-port="1"/>
		<edge from-layer="901" from-port="2" to-layer="904" to-port="1"/>
		<edge from-layer="901" from-port="2" to-layer="902" to-port="0"/>
		<edge from-layer="902" from-port="1" to-layer="903" to-port="1"/>
		<edge from-layer="903" from-port="2" to-layer="904" to-port="0"/>
		<edge from-layer="904" from-port="3" to-layer="905" to-port="1"/>
		<edge from-layer="905" from-port="2" to-layer="907" to-port="0"/>
		<edge from-layer="906" from-port="0" to-layer="907" to-port="1"/>
		<edge from-layer="907" from-port="2" to-layer="917" to-port="2"/>
		<edge from-layer="908" from-port="0" to-layer="910" to-port="0"/>
		<edge from-layer="909" from-port="1" to-layer="910" to-port="1"/>
		<edge from-layer="910" from-port="2" to-layer="913" to-port="1"/>
		<edge from-layer="910" from-port="2" to-layer="911" to-port="0"/>
		<edge from-layer="911" from-port="1" to-layer="912" to-port="1"/>
		<edge from-layer="912" from-port="2" to-layer="913" to-port="0"/>
		<edge from-layer="913" from-port="3" to-layer="914" to-port="1"/>
		<edge from-layer="914" from-port="2" to-layer="916" to-port="0"/>
		<edge from-layer="915" from-port="0" to-layer="916" to-port="1"/>
		<edge from-layer="916" from-port="2" to-layer="917" to-port="3"/>
		<edge from-layer="917" from-port="4" to-layer="929" to-port="1"/>
		<edge from-layer="918" from-port="0" to-layer="927" to-port="0"/>
		<edge from-layer="919" from-port="0" to-layer="921" to-port="1"/>
		<edge from-layer="920" from-port="0" to-layer="921" to-port="2"/>
		<edge from-layer="921" from-port="3" to-layer="925" to-port="0"/>
		<edge from-layer="922" from-port="0" to-layer="925" to-port="1"/>
		<edge from-layer="923" from-port="0" to-layer="925" to-port="2"/>
		<edge from-layer="924" from-port="0" to-layer="925" to-port="3"/>
		<edge from-layer="925" from-port="4" to-layer="926" to-port="0"/>
		<edge from-layer="926" from-port="1" to-layer="927" to-port="1"/>
		<edge from-layer="927" from-port="2" to-layer="928" to-port="0"/>
		<edge from-layer="928" from-port="2" to-layer="929" to-port="2"/>
		<edge from-layer="929" from-port="3" to-layer="931" to-port="0"/>
		<edge from-layer="929" from-port="3" to-layer="969" to-port="1"/>
		<edge from-layer="930" from-port="0" to-layer="931" to-port="1"/>
		<edge from-layer="931" from-port="2" to-layer="933" to-port="0"/>
		<edge from-layer="931" from-port="2" to-layer="937" to-port="0"/>
		<edge from-layer="932" from-port="0" to-layer="933" to-port="1"/>
		<edge from-layer="933" from-port="2" to-layer="934" to-port="0"/>
		<edge from-layer="934" from-port="1" to-layer="936" to-port="0"/>
		<edge from-layer="935" from-port="0" to-layer="936" to-port="1"/>
		<edge from-layer="936" from-port="2" to-layer="937" to-port="1"/>
		<edge from-layer="937" from-port="2" to-layer="939" to-port="0"/>
		<edge from-layer="938" from-port="0" to-layer="939" to-port="1"/>
		<edge from-layer="939" from-port="2" to-layer="941" to-port="0"/>
		<edge from-layer="939" from-port="2" to-layer="945" to-port="0"/>
		<edge from-layer="940" from-port="0" to-layer="941" to-port="1"/>
		<edge from-layer="941" from-port="2" to-layer="942" to-port="0"/>
		<edge from-layer="942" from-port="1" to-layer="944" to-port="0"/>
		<edge from-layer="943" from-port="0" to-layer="944" to-port="1"/>
		<edge from-layer="944" from-port="2" to-layer="945" to-port="1"/>
		<edge from-layer="945" from-port="2" to-layer="966" to-port="1"/>
		<edge from-layer="945" from-port="2" to-layer="953" to-port="0"/>
		<edge from-layer="945" from-port="2" to-layer="947" to-port="0"/>
		<edge from-layer="946" from-port="0" to-layer="952" to-port="0"/>
		<edge from-layer="947" from-port="1" to-layer="948" to-port="0"/>
		<edge from-layer="948" from-port="1" to-layer="950" to-port="0"/>
		<edge from-layer="949" from-port="0" to-layer="950" to-port="1"/>
		<edge from-layer="950" from-port="2" to-layer="952" to-port="1"/>
		<edge from-layer="951" from-port="0" to-layer="952" to-port="2"/>
		<edge from-layer="952" from-port="3" to-layer="953" to-port="1"/>
		<edge from-layer="953" from-port="2" to-layer="955" to-port="0"/>
		<edge from-layer="954" from-port="0" to-layer="955" to-port="1"/>
		<edge from-layer="955" from-port="2" to-layer="957" to-port="0"/>
		<edge from-layer="956" from-port="0" to-layer="957" to-port="1"/>
		<edge from-layer="957" from-port="2" to-layer="958" to-port="0"/>
		<edge from-layer="958" from-port="1" to-layer="960" to-port="0"/>
		<edge from-layer="959" from-port="0" to-layer="960" to-port="1"/>
		<edge from-layer="960" from-port="2" to-layer="962" to-port="0"/>
		<edge from-layer="961" from-port="0" to-layer="962" to-port="1"/>
		<edge from-layer="962" from-port="2" to-layer="965" to-port="0"/>
		<edge from-layer="963" from-port="0" to-layer="965" to-port="1"/>
		<edge from-layer="964" from-port="0" to-layer="965" to-port="2"/>
		<edge from-layer="965" from-port="3" to-layer="966" to-port="0"/>
		<edge from-layer="966" from-port="2" to-layer="968" to-port="0"/>
		<edge from-layer="967" from-port="0" to-layer="968" to-port="1"/>
		<edge from-layer="968" from-port="2" to-layer="969" to-port="0"/>
		<edge from-layer="969" from-port="2" to-layer="989" to-port="0"/>
		<edge from-layer="969" from-port="2" to-layer="1001" to-port="0"/>
		<edge from-layer="969" from-port="2" to-layer="1059" to-port="0"/>
		<edge from-layer="969" from-port="2" to-layer="1051" to-port="0"/>
		<edge from-layer="969" from-port="2" to-layer="973" to-port="0"/>
		<edge from-layer="970" from-port="0" to-layer="1017" to-port="0"/>
		<edge from-layer="971" from-port="0" to-layer="987" to-port="0"/>
		<edge from-layer="972" from-port="0" to-layer="978" to-port="0"/>
		<edge from-layer="973" from-port="1" to-layer="976" to-port="0"/>
		<edge from-layer="974" from-port="0" to-layer="976" to-port="1"/>
		<edge from-layer="975" from-port="0" to-layer="976" to-port="2"/>
		<edge from-layer="976" from-port="3" to-layer="978" to-port="1"/>
		<edge from-layer="977" from-port="0" to-layer="978" to-port="2"/>
		<edge from-layer="978" from-port="3" to-layer="982" to-port="0"/>
		<edge from-layer="979" from-port="0" to-layer="982" to-port="1"/>
		<edge from-layer="980" from-port="0" to-layer="982" to-port="2"/>
		<edge from-layer="981" from-port="0" to-layer="982" to-port="3"/>
		<edge from-layer="982" from-port="4" to-layer="984" to-port="0"/>
		<edge from-layer="983" from-port="0" to-layer="984" to-port="1"/>
		<edge from-layer="984" from-port="2" to-layer="986" to-port="0"/>
		<edge from-layer="984" from-port="2" to-layer="1026" to-port="0"/>
		<edge from-layer="985" from-port="0" to-layer="986" to-port="1"/>
		<edge from-layer="986" from-port="2" to-layer="987" to-port="1"/>
		<edge from-layer="987" from-port="2" to-layer="999" to-port="0"/>
		<edge from-layer="988" from-port="0" to-layer="994" to-port="0"/>
		<edge from-layer="989" from-port="1" to-layer="992" to-port="0"/>
		<edge from-layer="990" from-port="0" to-layer="992" to-port="1"/>
		<edge from-layer="991" from-port="0" to-layer="992" to-port="2"/>
		<edge from-layer="992" from-port="3" to-layer="994" to-port="1"/>
		<edge from-layer="993" from-port="0" to-layer="994" to-port="2"/>
		<edge from-layer="994" from-port="3" to-layer="996" to-port="0"/>
		<edge from-layer="995" from-port="0" to-layer="996" to-port="1"/>
		<edge from-layer="996" from-port="2" to-layer="998" to-port="0"/>
		<edge from-layer="996" from-port="2" to-layer="1035" to-port="0"/>
		<edge from-layer="997" from-port="0" to-layer="998" to-port="1"/>
		<edge from-layer="998" from-port="2" to-layer="999" to-port="1"/>
		<edge from-layer="999" from-port="2" to-layer="1009" to-port="0"/>
		<edge from-layer="1000" from-port="0" to-layer="1006" to-port="0"/>
		<edge from-layer="1001" from-port="1" to-layer="1004" to-port="0"/>
		<edge from-layer="1002" from-port="0" to-layer="1004" to-port="1"/>
		<edge from-layer="1003" from-port="0" to-layer="1004" to-port="2"/>
		<edge from-layer="1004" from-port="3" to-layer="1006" to-port="1"/>
		<edge from-layer="1005" from-port="0" to-layer="1006" to-port="2"/>
		<edge from-layer="1006" from-port="3" to-layer="1044" to-port="0"/>
		<edge from-layer="1006" from-port="3" to-layer="1008" to-port="0"/>
		<edge from-layer="1007" from-port="0" to-layer="1008" to-port="1"/>
		<edge from-layer="1008" from-port="2" to-layer="1009" to-port="1"/>
		<edge from-layer="1009" from-port="2" to-layer="1010" to-port="0"/>
		<edge from-layer="1010" from-port="1" to-layer="1058" to-port="1"/>
		<edge from-layer="1010" from-port="1" to-layer="1043" to-port="2"/>
		<edge from-layer="1010" from-port="1" to-layer="1042" to-port="0"/>
		<edge from-layer="1010" from-port="1" to-layer="1039" to-port="0"/>
		<edge from-layer="1010" from-port="1" to-layer="1034" to-port="2"/>
		<edge from-layer="1010" from-port="1" to-layer="1033" to-port="0"/>
		<edge from-layer="1010" from-port="1" to-layer="1030" to-port="0"/>
		<edge from-layer="1010" from-port="1" to-layer="1025" to-port="2"/>
		<edge from-layer="1010" from-port="1" to-layer="1024" to-port="0"/>
		<edge from-layer="1010" from-port="1" to-layer="1016" to-port="2"/>
		<edge from-layer="1010" from-port="1" to-layer="1012" to-port="0"/>
		<edge from-layer="1010" from-port="1" to-layer="1021" to-port="0"/>
		<edge from-layer="1010" from-port="1" to-layer="1015" to-port="0"/>
		<edge from-layer="1011" from-port="0" to-layer="1013" to-port="0"/>
		<edge from-layer="1012" from-port="1" to-layer="1013" to-port="1"/>
		<edge from-layer="1013" from-port="2" to-layer="1014" to-port="0"/>
		<edge from-layer="1013" from-port="2" to-layer="1016" to-port="1"/>
		<edge from-layer="1014" from-port="1" to-layer="1015" to-port="1"/>
		<edge from-layer="1015" from-port="2" to-layer="1016" to-port="0"/>
		<edge from-layer="1016" from-port="3" to-layer="1017" to-port="1"/>
		<edge from-layer="1017" from-port="2" to-layer="1019" to-port="0"/>
		<edge from-layer="1018" from-port="0" to-layer="1019" to-port="1"/>
		<edge from-layer="1019" from-port="2" to-layer="1047" to-port="0"/>
		<edge from-layer="1020" from-port="0" to-layer="1022" to-port="0"/>
		<edge from-layer="1021" from-port="1" to-layer="1022" to-port="1"/>
		<edge from-layer="1022" from-port="2" to-layer="1023" to-port="0"/>
		<edge from-layer="1022" from-port="2" to-layer="1025" to-port="1"/>
		<edge from-layer="1023" from-port="1" to-layer="1024" to-port="1"/>
		<edge from-layer="1024" from-port="2" to-layer="1025" to-port="0"/>
		<edge from-layer="1025" from-port="3" to-layer="1026" to-port="1"/>
		<edge from-layer="1026" from-port="2" to-layer="1028" to-port="0"/>
		<edge from-layer="1027" from-port="0" to-layer="1028" to-port="1"/>
		<edge from-layer="1028" from-port="2" to-layer="1047" to-port="1"/>
		<edge from-layer="1029" from-port="0" to-layer="1031" to-port="0"/>
		<edge from-layer="1030" from-port="1" to-layer="1031" to-port="1"/>
		<edge from-layer="1031" from-port="2" to-layer="1034" to-port="1"/>
		<edge from-layer="1031" from-port="2" to-layer="1032" to-port="0"/>
		<edge from-layer="1032" from-port="1" to-layer="1033" to-port="1"/>
		<edge from-layer="1033" from-port="2" to-layer="1034" to-port="0"/>
		<edge from-layer="1034" from-port="3" to-layer="1035" to-port="1"/>
		<edge from-layer="1035" from-port="2" to-layer="1037" to-port="0"/>
		<edge from-layer="1036" from-port="0" to-layer="1037" to-port="1"/>
		<edge from-layer="1037" from-port="2" to-layer="1047" to-port="2"/>
		<edge from-layer="1038" from-port="0" to-layer="1040" to-port="0"/>
		<edge from-layer="1039" from-port="1" to-layer="1040" to-port="1"/>
		<edge from-layer="1040" from-port="2" to-layer="1041" to-port="0"/>
		<edge from-layer="1040" from-port="2" to-layer="1043" to-port="1"/>
		<edge from-layer="1041" from-port="1" to-layer="1042" to-port="1"/>
		<edge from-layer="1042" from-port="2" to-layer="1043" to-port="0"/>
		<edge from-layer="1043" from-port="3" to-layer="1044" to-port="1"/>
		<edge from-layer="1044" from-port="2" to-layer="1046" to-port="0"/>
		<edge from-layer="1045" from-port="0" to-layer="1046" to-port="1"/>
		<edge from-layer="1046" from-port="2" to-layer="1047" to-port="3"/>
		<edge from-layer="1047" from-port="4" to-layer="1059" to-port="1"/>
		<edge from-layer="1048" from-port="0" to-layer="1057" to-port="0"/>
		<edge from-layer="1049" from-port="0" to-layer="1051" to-port="1"/>
		<edge from-layer="1050" from-port="0" to-layer="1051" to-port="2"/>
		<edge from-layer="1051" from-port="3" to-layer="1055" to-port="0"/>
		<edge from-layer="1052" from-port="0" to-layer="1055" to-port="1"/>
		<edge from-layer="1053" from-port="0" to-layer="1055" to-port="2"/>
		<edge from-layer="1054" from-port="0" to-layer="1055" to-port="3"/>
		<edge from-layer="1055" from-port="4" to-layer="1056" to-port="0"/>
		<edge from-layer="1056" from-port="1" to-layer="1057" to-port="1"/>
		<edge from-layer="1057" from-port="2" to-layer="1058" to-port="0"/>
		<edge from-layer="1058" from-port="2" to-layer="1059" to-port="2"/>
		<edge from-layer="1059" from-port="3" to-layer="1061" to-port="0"/>
		<edge from-layer="1060" from-port="0" to-layer="1061" to-port="1"/>
		<edge from-layer="1061" from-port="2" to-layer="1063" to-port="0"/>
		<edge from-layer="1061" from-port="2" to-layer="1067" to-port="0"/>
		<edge from-layer="1062" from-port="0" to-layer="1063" to-port="1"/>
		<edge from-layer="1063" from-port="2" to-layer="1064" to-port="0"/>
		<edge from-layer="1064" from-port="1" to-layer="1066" to-port="0"/>
		<edge from-layer="1065" from-port="0" to-layer="1066" to-port="1"/>
		<edge from-layer="1066" from-port="2" to-layer="1067" to-port="1"/>
		<edge from-layer="1067" from-port="2" to-layer="1069" to-port="0"/>
		<edge from-layer="1068" from-port="0" to-layer="1069" to-port="1"/>
		<edge from-layer="1069" from-port="2" to-layer="1071" to-port="0"/>
		<edge from-layer="1069" from-port="2" to-layer="1075" to-port="0"/>
		<edge from-layer="1070" from-port="0" to-layer="1071" to-port="1"/>
		<edge from-layer="1071" from-port="2" to-layer="1072" to-port="0"/>
		<edge from-layer="1072" from-port="1" to-layer="1074" to-port="0"/>
		<edge from-layer="1073" from-port="0" to-layer="1074" to-port="1"/>
		<edge from-layer="1074" from-port="2" to-layer="1075" to-port="1"/>
		<edge from-layer="1075" from-port="2" to-layer="1096" to-port="1"/>
		<edge from-layer="1075" from-port="2" to-layer="1083" to-port="0"/>
		<edge from-layer="1075" from-port="2" to-layer="1077" to-port="0"/>
		<edge from-layer="1076" from-port="0" to-layer="1082" to-port="0"/>
		<edge from-layer="1077" from-port="1" to-layer="1078" to-port="0"/>
		<edge from-layer="1078" from-port="1" to-layer="1080" to-port="0"/>
		<edge from-layer="1079" from-port="0" to-layer="1080" to-port="1"/>
		<edge from-layer="1080" from-port="2" to-layer="1082" to-port="1"/>
		<edge from-layer="1081" from-port="0" to-layer="1082" to-port="2"/>
		<edge from-layer="1082" from-port="3" to-layer="1083" to-port="1"/>
		<edge from-layer="1083" from-port="2" to-layer="1085" to-port="0"/>
		<edge from-layer="1084" from-port="0" to-layer="1085" to-port="1"/>
		<edge from-layer="1085" from-port="2" to-layer="1087" to-port="0"/>
		<edge from-layer="1086" from-port="0" to-layer="1087" to-port="1"/>
		<edge from-layer="1087" from-port="2" to-layer="1088" to-port="0"/>
		<edge from-layer="1088" from-port="1" to-layer="1090" to-port="0"/>
		<edge from-layer="1089" from-port="0" to-layer="1090" to-port="1"/>
		<edge from-layer="1090" from-port="2" to-layer="1092" to-port="0"/>
		<edge from-layer="1091" from-port="0" to-layer="1092" to-port="1"/>
		<edge from-layer="1092" from-port="2" to-layer="1095" to-port="0"/>
		<edge from-layer="1093" from-port="0" to-layer="1095" to-port="1"/>
		<edge from-layer="1094" from-port="0" to-layer="1095" to-port="2"/>
		<edge from-layer="1095" from-port="3" to-layer="1096" to-port="0"/>
		<edge from-layer="1096" from-port="2" to-layer="1098" to-port="0"/>
		<edge from-layer="1097" from-port="0" to-layer="1098" to-port="1"/>
		<edge from-layer="1098" from-port="2" to-layer="1118" to-port="0"/>
		<edge from-layer="1098" from-port="2" to-layer="1130" to-port="0"/>
		<edge from-layer="1098" from-port="2" to-layer="1180" to-port="0"/>
		<edge from-layer="1098" from-port="2" to-layer="1188" to-port="0"/>
		<edge from-layer="1098" from-port="2" to-layer="1102" to-port="0"/>
		<edge from-layer="1099" from-port="0" to-layer="1146" to-port="0"/>
		<edge from-layer="1100" from-port="0" to-layer="1116" to-port="0"/>
		<edge from-layer="1101" from-port="0" to-layer="1107" to-port="0"/>
		<edge from-layer="1102" from-port="1" to-layer="1105" to-port="0"/>
		<edge from-layer="1103" from-port="0" to-layer="1105" to-port="1"/>
		<edge from-layer="1104" from-port="0" to-layer="1105" to-port="2"/>
		<edge from-layer="1105" from-port="3" to-layer="1107" to-port="1"/>
		<edge from-layer="1106" from-port="0" to-layer="1107" to-port="2"/>
		<edge from-layer="1107" from-port="3" to-layer="1111" to-port="0"/>
		<edge from-layer="1108" from-port="0" to-layer="1111" to-port="1"/>
		<edge from-layer="1109" from-port="0" to-layer="1111" to-port="2"/>
		<edge from-layer="1110" from-port="0" to-layer="1111" to-port="3"/>
		<edge from-layer="1111" from-port="4" to-layer="1113" to-port="0"/>
		<edge from-layer="1112" from-port="0" to-layer="1113" to-port="1"/>
		<edge from-layer="1113" from-port="2" to-layer="1115" to-port="0"/>
		<edge from-layer="1113" from-port="2" to-layer="1155" to-port="0"/>
		<edge from-layer="1114" from-port="0" to-layer="1115" to-port="1"/>
		<edge from-layer="1115" from-port="2" to-layer="1116" to-port="1"/>
		<edge from-layer="1116" from-port="2" to-layer="1128" to-port="0"/>
		<edge from-layer="1117" from-port="0" to-layer="1123" to-port="0"/>
		<edge from-layer="1118" from-port="1" to-layer="1121" to-port="0"/>
		<edge from-layer="1119" from-port="0" to-layer="1121" to-port="1"/>
		<edge from-layer="1120" from-port="0" to-layer="1121" to-port="2"/>
		<edge from-layer="1121" from-port="3" to-layer="1123" to-port="1"/>
		<edge from-layer="1122" from-port="0" to-layer="1123" to-port="2"/>
		<edge from-layer="1123" from-port="3" to-layer="1125" to-port="0"/>
		<edge from-layer="1124" from-port="0" to-layer="1125" to-port="1"/>
		<edge from-layer="1125" from-port="2" to-layer="1164" to-port="0"/>
		<edge from-layer="1125" from-port="2" to-layer="1127" to-port="0"/>
		<edge from-layer="1126" from-port="0" to-layer="1127" to-port="1"/>
		<edge from-layer="1127" from-port="2" to-layer="1128" to-port="1"/>
		<edge from-layer="1128" from-port="2" to-layer="1138" to-port="0"/>
		<edge from-layer="1129" from-port="0" to-layer="1135" to-port="0"/>
		<edge from-layer="1130" from-port="1" to-layer="1133" to-port="0"/>
		<edge from-layer="1131" from-port="0" to-layer="1133" to-port="1"/>
		<edge from-layer="1132" from-port="0" to-layer="1133" to-port="2"/>
		<edge from-layer="1133" from-port="3" to-layer="1135" to-port="1"/>
		<edge from-layer="1134" from-port="0" to-layer="1135" to-port="2"/>
		<edge from-layer="1135" from-port="3" to-layer="1137" to-port="0"/>
		<edge from-layer="1135" from-port="3" to-layer="1173" to-port="0"/>
		<edge from-layer="1136" from-port="0" to-layer="1137" to-port="1"/>
		<edge from-layer="1137" from-port="2" to-layer="1138" to-port="1"/>
		<edge from-layer="1138" from-port="2" to-layer="1139" to-port="0"/>
		<edge from-layer="1139" from-port="1" to-layer="1172" to-port="2"/>
		<edge from-layer="1139" from-port="1" to-layer="1163" to-port="2"/>
		<edge from-layer="1139" from-port="1" to-layer="1168" to-port="0"/>
		<edge from-layer="1139" from-port="1" to-layer="1187" to-port="1"/>
		<edge from-layer="1139" from-port="1" to-layer="1162" to-port="0"/>
		<edge from-layer="1139" from-port="1" to-layer="1159" to-port="0"/>
		<edge from-layer="1139" from-port="1" to-layer="1171" to-port="0"/>
		<edge from-layer="1139" from-port="1" to-layer="1154" to-port="2"/>
		<edge from-layer="1139" from-port="1" to-layer="1153" to-port="0"/>
		<edge from-layer="1139" from-port="1" to-layer="1141" to-port="0"/>
		<edge from-layer="1139" from-port="1" to-layer="1150" to-port="0"/>
		<edge from-layer="1139" from-port="1" to-layer="1145" to-port="2"/>
		<edge from-layer="1139" from-port="1" to-layer="1144" to-port="0"/>
		<edge from-layer="1140" from-port="0" to-layer="1142" to-port="0"/>
		<edge from-layer="1141" from-port="1" to-layer="1142" to-port="1"/>
		<edge from-layer="1142" from-port="2" to-layer="1145" to-port="1"/>
		<edge from-layer="1142" from-port="2" to-layer="1143" to-port="0"/>
		<edge from-layer="1143" from-port="1" to-layer="1144" to-port="1"/>
		<edge from-layer="1144" from-port="2" to-layer="1145" to-port="0"/>
		<edge from-layer="1145" from-port="3" to-layer="1146" to-port="1"/>
		<edge from-layer="1146" from-port="2" to-layer="1148" to-port="0"/>
		<edge from-layer="1147" from-port="0" to-layer="1148" to-port="1"/>
		<edge from-layer="1148" from-port="2" to-layer="1176" to-port="0"/>
		<edge from-layer="1149" from-port="0" to-layer="1151" to-port="0"/>
		<edge from-layer="1150" from-port="1" to-layer="1151" to-port="1"/>
		<edge from-layer="1151" from-port="2" to-layer="1152" to-port="0"/>
		<edge from-layer="1151" from-port="2" to-layer="1154" to-port="1"/>
		<edge from-layer="1152" from-port="1" to-layer="1153" to-port="1"/>
		<edge from-layer="1153" from-port="2" to-layer="1154" to-port="0"/>
		<edge from-layer="1154" from-port="3" to-layer="1155" to-port="1"/>
		<edge from-layer="1155" from-port="2" to-layer="1157" to-port="0"/>
		<edge from-layer="1156" from-port="0" to-layer="1157" to-port="1"/>
		<edge from-layer="1157" from-port="2" to-layer="1176" to-port="1"/>
		<edge from-layer="1158" from-port="0" to-layer="1160" to-port="0"/>
		<edge from-layer="1159" from-port="1" to-layer="1160" to-port="1"/>
		<edge from-layer="1160" from-port="2" to-layer="1161" to-port="0"/>
		<edge from-layer="1160" from-port="2" to-layer="1163" to-port="1"/>
		<edge from-layer="1161" from-port="1" to-layer="1162" to-port="1"/>
		<edge from-layer="1162" from-port="2" to-layer="1163" to-port="0"/>
		<edge from-layer="1163" from-port="3" to-layer="1164" to-port="1"/>
		<edge from-layer="1164" from-port="2" to-layer="1166" to-port="0"/>
		<edge from-layer="1165" from-port="0" to-layer="1166" to-port="1"/>
		<edge from-layer="1166" from-port="2" to-layer="1176" to-port="2"/>
		<edge from-layer="1167" from-port="0" to-layer="1169" to-port="0"/>
		<edge from-layer="1168" from-port="1" to-layer="1169" to-port="1"/>
		<edge from-layer="1169" from-port="2" to-layer="1170" to-port="0"/>
		<edge from-layer="1169" from-port="2" to-layer="1172" to-port="1"/>
		<edge from-layer="1170" from-port="1" to-layer="1171" to-port="1"/>
		<edge from-layer="1171" from-port="2" to-layer="1172" to-port="0"/>
		<edge from-layer="1172" from-port="3" to-layer="1173" to-port="1"/>
		<edge from-layer="1173" from-port="2" to-layer="1175" to-port="0"/>
		<edge from-layer="1174" from-port="0" to-layer="1175" to-port="1"/>
		<edge from-layer="1175" from-port="2" to-layer="1176" to-port="3"/>
		<edge from-layer="1176" from-port="4" to-layer="1188" to-port="1"/>
		<edge from-layer="1177" from-port="0" to-layer="1186" to-port="0"/>
		<edge from-layer="1178" from-port="0" to-layer="1180" to-port="1"/>
		<edge from-layer="1179" from-port="0" to-layer="1180" to-port="2"/>
		<edge from-layer="1180" from-port="3" to-layer="1184" to-port="0"/>
		<edge from-layer="1181" from-port="0" to-layer="1184" to-port="1"/>
		<edge from-layer="1182" from-port="0" to-layer="1184" to-port="2"/>
		<edge from-layer="1183" from-port="0" to-layer="1184" to-port="3"/>
		<edge from-layer="1184" from-port="4" to-layer="1185" to-port="0"/>
		<edge from-layer="1185" from-port="1" to-layer="1186" to-port="1"/>
		<edge from-layer="1186" from-port="2" to-layer="1187" to-port="0"/>
		<edge from-layer="1187" from-port="2" to-layer="1188" to-port="2"/>
		<edge from-layer="1188" from-port="3" to-layer="1190" to-port="0"/>
		<edge from-layer="1188" from-port="3" to-layer="1228" to-port="1"/>
		<edge from-layer="1189" from-port="0" to-layer="1190" to-port="1"/>
		<edge from-layer="1190" from-port="2" to-layer="1192" to-port="0"/>
		<edge from-layer="1190" from-port="2" to-layer="1196" to-port="0"/>
		<edge from-layer="1191" from-port="0" to-layer="1192" to-port="1"/>
		<edge from-layer="1192" from-port="2" to-layer="1193" to-port="0"/>
		<edge from-layer="1193" from-port="1" to-layer="1195" to-port="0"/>
		<edge from-layer="1194" from-port="0" to-layer="1195" to-port="1"/>
		<edge from-layer="1195" from-port="2" to-layer="1196" to-port="1"/>
		<edge from-layer="1196" from-port="2" to-layer="1198" to-port="0"/>
		<edge from-layer="1197" from-port="0" to-layer="1198" to-port="1"/>
		<edge from-layer="1198" from-port="2" to-layer="1204" to-port="0"/>
		<edge from-layer="1198" from-port="2" to-layer="1200" to-port="0"/>
		<edge from-layer="1199" from-port="0" to-layer="1200" to-port="1"/>
		<edge from-layer="1200" from-port="2" to-layer="1201" to-port="0"/>
		<edge from-layer="1201" from-port="1" to-layer="1203" to-port="0"/>
		<edge from-layer="1202" from-port="0" to-layer="1203" to-port="1"/>
		<edge from-layer="1203" from-port="2" to-layer="1204" to-port="1"/>
		<edge from-layer="1204" from-port="2" to-layer="1225" to-port="1"/>
		<edge from-layer="1204" from-port="2" to-layer="1212" to-port="0"/>
		<edge from-layer="1204" from-port="2" to-layer="1206" to-port="0"/>
		<edge from-layer="1205" from-port="0" to-layer="1211" to-port="0"/>
		<edge from-layer="1206" from-port="1" to-layer="1207" to-port="0"/>
		<edge from-layer="1207" from-port="1" to-layer="1209" to-port="0"/>
		<edge from-layer="1208" from-port="0" to-layer="1209" to-port="1"/>
		<edge from-layer="1209" from-port="2" to-layer="1211" to-port="1"/>
		<edge from-layer="1210" from-port="0" to-layer="1211" to-port="2"/>
		<edge from-layer="1211" from-port="3" to-layer="1212" to-port="1"/>
		<edge from-layer="1212" from-port="2" to-layer="1214" to-port="0"/>
		<edge from-layer="1213" from-port="0" to-layer="1214" to-port="1"/>
		<edge from-layer="1214" from-port="2" to-layer="1216" to-port="0"/>
		<edge from-layer="1215" from-port="0" to-layer="1216" to-port="1"/>
		<edge from-layer="1216" from-port="2" to-layer="1217" to-port="0"/>
		<edge from-layer="1217" from-port="1" to-layer="1219" to-port="0"/>
		<edge from-layer="1218" from-port="0" to-layer="1219" to-port="1"/>
		<edge from-layer="1219" from-port="2" to-layer="1221" to-port="0"/>
		<edge from-layer="1220" from-port="0" to-layer="1221" to-port="1"/>
		<edge from-layer="1221" from-port="2" to-layer="1224" to-port="0"/>
		<edge from-layer="1222" from-port="0" to-layer="1224" to-port="1"/>
		<edge from-layer="1223" from-port="0" to-layer="1224" to-port="2"/>
		<edge from-layer="1224" from-port="3" to-layer="1225" to-port="0"/>
		<edge from-layer="1225" from-port="2" to-layer="1227" to-port="0"/>
		<edge from-layer="1226" from-port="0" to-layer="1227" to-port="1"/>
		<edge from-layer="1227" from-port="2" to-layer="1228" to-port="0"/>
		<edge from-layer="1228" from-port="2" to-layer="1232" to-port="0"/>
		<edge from-layer="1228" from-port="2" to-layer="1260" to-port="0"/>
		<edge from-layer="1228" from-port="2" to-layer="1318" to-port="0"/>
		<edge from-layer="1228" from-port="2" to-layer="1310" to-port="0"/>
		<edge from-layer="1228" from-port="2" to-layer="1248" to-port="0"/>
		<edge from-layer="1229" from-port="0" to-layer="1276" to-port="0"/>
		<edge from-layer="1230" from-port="0" to-layer="1246" to-port="0"/>
		<edge from-layer="1231" from-port="0" to-layer="1237" to-port="0"/>
		<edge from-layer="1232" from-port="1" to-layer="1235" to-port="0"/>
		<edge from-layer="1233" from-port="0" to-layer="1235" to-port="1"/>
		<edge from-layer="1234" from-port="0" to-layer="1235" to-port="2"/>
		<edge from-layer="1235" from-port="3" to-layer="1237" to-port="1"/>
		<edge from-layer="1236" from-port="0" to-layer="1237" to-port="2"/>
		<edge from-layer="1237" from-port="3" to-layer="1241" to-port="0"/>
		<edge from-layer="1238" from-port="0" to-layer="1241" to-port="1"/>
		<edge from-layer="1239" from-port="0" to-layer="1241" to-port="2"/>
		<edge from-layer="1240" from-port="0" to-layer="1241" to-port="3"/>
		<edge from-layer="1241" from-port="4" to-layer="1243" to-port="0"/>
		<edge from-layer="1242" from-port="0" to-layer="1243" to-port="1"/>
		<edge from-layer="1243" from-port="2" to-layer="1245" to-port="0"/>
		<edge from-layer="1243" from-port="2" to-layer="1285" to-port="0"/>
		<edge from-layer="1244" from-port="0" to-layer="1245" to-port="1"/>
		<edge from-layer="1245" from-port="2" to-layer="1246" to-port="1"/>
		<edge from-layer="1246" from-port="2" to-layer="1258" to-port="0"/>
		<edge from-layer="1247" from-port="0" to-layer="1253" to-port="0"/>
		<edge from-layer="1248" from-port="1" to-layer="1251" to-port="0"/>
		<edge from-layer="1249" from-port="0" to-layer="1251" to-port="1"/>
		<edge from-layer="1250" from-port="0" to-layer="1251" to-port="2"/>
		<edge from-layer="1251" from-port="3" to-layer="1253" to-port="1"/>
		<edge from-layer="1252" from-port="0" to-layer="1253" to-port="2"/>
		<edge from-layer="1253" from-port="3" to-layer="1255" to-port="0"/>
		<edge from-layer="1254" from-port="0" to-layer="1255" to-port="1"/>
		<edge from-layer="1255" from-port="2" to-layer="1257" to-port="0"/>
		<edge from-layer="1255" from-port="2" to-layer="1294" to-port="0"/>
		<edge from-layer="1256" from-port="0" to-layer="1257" to-port="1"/>
		<edge from-layer="1257" from-port="2" to-layer="1258" to-port="1"/>
		<edge from-layer="1258" from-port="2" to-layer="1268" to-port="0"/>
		<edge from-layer="1259" from-port="0" to-layer="1265" to-port="0"/>
		<edge from-layer="1260" from-port="1" to-layer="1263" to-port="0"/>
		<edge from-layer="1261" from-port="0" to-layer="1263" to-port="1"/>
		<edge from-layer="1262" from-port="0" to-layer="1263" to-port="2"/>
		<edge from-layer="1263" from-port="3" to-layer="1265" to-port="1"/>
		<edge from-layer="1264" from-port="0" to-layer="1265" to-port="2"/>
		<edge from-layer="1265" from-port="3" to-layer="1303" to-port="0"/>
		<edge from-layer="1265" from-port="3" to-layer="1267" to-port="0"/>
		<edge from-layer="1266" from-port="0" to-layer="1267" to-port="1"/>
		<edge from-layer="1267" from-port="2" to-layer="1268" to-port="1"/>
		<edge from-layer="1268" from-port="2" to-layer="1269" to-port="0"/>
		<edge from-layer="1269" from-port="1" to-layer="1301" to-port="0"/>
		<edge from-layer="1269" from-port="1" to-layer="1284" to-port="2"/>
		<edge from-layer="1269" from-port="1" to-layer="1289" to-port="0"/>
		<edge from-layer="1269" from-port="1" to-layer="1283" to-port="0"/>
		<edge from-layer="1269" from-port="1" to-layer="1292" to-port="0"/>
		<edge from-layer="1269" from-port="1" to-layer="1317" to-port="1"/>
		<edge from-layer="1269" from-port="1" to-layer="1293" to-port="2"/>
		<edge from-layer="1269" from-port="1" to-layer="1298" to-port="0"/>
		<edge from-layer="1269" from-port="1" to-layer="1302" to-port="2"/>
		<edge from-layer="1269" from-port="1" to-layer="1275" to-port="2"/>
		<edge from-layer="1269" from-port="1" to-layer="1271" to-port="0"/>
		<edge from-layer="1269" from-port="1" to-layer="1280" to-port="0"/>
		<edge from-layer="1269" from-port="1" to-layer="1274" to-port="0"/>
		<edge from-layer="1270" from-port="0" to-layer="1272" to-port="0"/>
		<edge from-layer="1271" from-port="1" to-layer="1272" to-port="1"/>
		<edge from-layer="1272" from-port="2" to-layer="1273" to-port="0"/>
		<edge from-layer="1272" from-port="2" to-layer="1275" to-port="1"/>
		<edge from-layer="1273" from-port="1" to-layer="1274" to-port="1"/>
		<edge from-layer="1274" from-port="2" to-layer="1275" to-port="0"/>
		<edge from-layer="1275" from-port="3" to-layer="1276" to-port="1"/>
		<edge from-layer="1276" from-port="2" to-layer="1278" to-port="0"/>
		<edge from-layer="1277" from-port="0" to-layer="1278" to-port="1"/>
		<edge from-layer="1278" from-port="2" to-layer="1306" to-port="0"/>
		<edge from-layer="1279" from-port="0" to-layer="1281" to-port="0"/>
		<edge from-layer="1280" from-port="1" to-layer="1281" to-port="1"/>
		<edge from-layer="1281" from-port="2" to-layer="1282" to-port="0"/>
		<edge from-layer="1281" from-port="2" to-layer="1284" to-port="1"/>
		<edge from-layer="1282" from-port="1" to-layer="1283" to-port="1"/>
		<edge from-layer="1283" from-port="2" to-layer="1284" to-port="0"/>
		<edge from-layer="1284" from-port="3" to-layer="1285" to-port="1"/>
		<edge from-layer="1285" from-port="2" to-layer="1287" to-port="0"/>
		<edge from-layer="1286" from-port="0" to-layer="1287" to-port="1"/>
		<edge from-layer="1287" from-port="2" to-layer="1306" to-port="1"/>
		<edge from-layer="1288" from-port="0" to-layer="1290" to-port="0"/>
		<edge from-layer="1289" from-port="1" to-layer="1290" to-port="1"/>
		<edge from-layer="1290" from-port="2" to-layer="1291" to-port="0"/>
		<edge from-layer="1290" from-port="2" to-layer="1293" to-port="1"/>
		<edge from-layer="1291" from-port="1" to-layer="1292" to-port="1"/>
		<edge from-layer="1292" from-port="2" to-layer="1293" to-port="0"/>
		<edge from-layer="1293" from-port="3" to-layer="1294" to-port="1"/>
		<edge from-layer="1294" from-port="2" to-layer="1296" to-port="0"/>
		<edge from-layer="1295" from-port="0" to-layer="1296" to-port="1"/>
		<edge from-layer="1296" from-port="2" to-layer="1306" to-port="2"/>
		<edge from-layer="1297" from-port="0" to-layer="1299" to-port="0"/>
		<edge from-layer="1298" from-port="1" to-layer="1299" to-port="1"/>
		<edge from-layer="1299" from-port="2" to-layer="1300" to-port="0"/>
		<edge from-layer="1299" from-port="2" to-layer="1302" to-port="1"/>
		<edge from-layer="1300" from-port="1" to-layer="1301" to-port="1"/>
		<edge from-layer="1301" from-port="2" to-layer="1302" to-port="0"/>
		<edge from-layer="1302" from-port="3" to-layer="1303" to-port="1"/>
		<edge from-layer="1303" from-port="2" to-layer="1305" to-port="0"/>
		<edge from-layer="1304" from-port="0" to-layer="1305" to-port="1"/>
		<edge from-layer="1305" from-port="2" to-layer="1306" to-port="3"/>
		<edge from-layer="1306" from-port="4" to-layer="1318" to-port="1"/>
		<edge from-layer="1307" from-port="0" to-layer="1316" to-port="0"/>
		<edge from-layer="1308" from-port="0" to-layer="1310" to-port="1"/>
		<edge from-layer="1309" from-port="0" to-layer="1310" to-port="2"/>
		<edge from-layer="1310" from-port="3" to-layer="1314" to-port="0"/>
		<edge from-layer="1311" from-port="0" to-layer="1314" to-port="1"/>
		<edge from-layer="1312" from-port="0" to-layer="1314" to-port="2"/>
		<edge from-layer="1313" from-port="0" to-layer="1314" to-port="3"/>
		<edge from-layer="1314" from-port="4" to-layer="1315" to-port="0"/>
		<edge from-layer="1315" from-port="1" to-layer="1316" to-port="1"/>
		<edge from-layer="1316" from-port="2" to-layer="1317" to-port="0"/>
		<edge from-layer="1317" from-port="2" to-layer="1318" to-port="2"/>
		<edge from-layer="1318" from-port="3" to-layer="1358" to-port="1"/>
		<edge from-layer="1318" from-port="3" to-layer="1320" to-port="0"/>
		<edge from-layer="1319" from-port="0" to-layer="1320" to-port="1"/>
		<edge from-layer="1320" from-port="2" to-layer="1326" to-port="0"/>
		<edge from-layer="1320" from-port="2" to-layer="1322" to-port="0"/>
		<edge from-layer="1321" from-port="0" to-layer="1322" to-port="1"/>
		<edge from-layer="1322" from-port="2" to-layer="1323" to-port="0"/>
		<edge from-layer="1323" from-port="1" to-layer="1325" to-port="0"/>
		<edge from-layer="1324" from-port="0" to-layer="1325" to-port="1"/>
		<edge from-layer="1325" from-port="2" to-layer="1326" to-port="1"/>
		<edge from-layer="1326" from-port="2" to-layer="1328" to-port="0"/>
		<edge from-layer="1327" from-port="0" to-layer="1328" to-port="1"/>
		<edge from-layer="1328" from-port="2" to-layer="1330" to-port="0"/>
		<edge from-layer="1328" from-port="2" to-layer="1334" to-port="0"/>
		<edge from-layer="1329" from-port="0" to-layer="1330" to-port="1"/>
		<edge from-layer="1330" from-port="2" to-layer="1331" to-port="0"/>
		<edge from-layer="1331" from-port="1" to-layer="1333" to-port="0"/>
		<edge from-layer="1332" from-port="0" to-layer="1333" to-port="1"/>
		<edge from-layer="1333" from-port="2" to-layer="1334" to-port="1"/>
		<edge from-layer="1334" from-port="2" to-layer="1336" to-port="0"/>
		<edge from-layer="1334" from-port="2" to-layer="1355" to-port="1"/>
		<edge from-layer="1334" from-port="2" to-layer="1342" to-port="0"/>
		<edge from-layer="1335" from-port="0" to-layer="1341" to-port="0"/>
		<edge from-layer="1336" from-port="1" to-layer="1337" to-port="0"/>
		<edge from-layer="1337" from-port="1" to-layer="1339" to-port="0"/>
		<edge from-layer="1338" from-port="0" to-layer="1339" to-port="1"/>
		<edge from-layer="1339" from-port="2" to-layer="1341" to-port="1"/>
		<edge from-layer="1340" from-port="0" to-layer="1341" to-port="2"/>
		<edge from-layer="1341" from-port="3" to-layer="1342" to-port="1"/>
		<edge from-layer="1342" from-port="2" to-layer="1344" to-port="0"/>
		<edge from-layer="1343" from-port="0" to-layer="1344" to-port="1"/>
		<edge from-layer="1344" from-port="2" to-layer="1346" to-port="0"/>
		<edge from-layer="1345" from-port="0" to-layer="1346" to-port="1"/>
		<edge from-layer="1346" from-port="2" to-layer="1347" to-port="0"/>
		<edge from-layer="1347" from-port="1" to-layer="1349" to-port="0"/>
		<edge from-layer="1348" from-port="0" to-layer="1349" to-port="1"/>
		<edge from-layer="1349" from-port="2" to-layer="1351" to-port="0"/>
		<edge from-layer="1350" from-port="0" to-layer="1351" to-port="1"/>
		<edge from-layer="1351" from-port="2" to-layer="1354" to-port="0"/>
		<edge from-layer="1352" from-port="0" to-layer="1354" to-port="1"/>
		<edge from-layer="1353" from-port="0" to-layer="1354" to-port="2"/>
		<edge from-layer="1354" from-port="3" to-layer="1355" to-port="0"/>
		<edge from-layer="1355" from-port="2" to-layer="1357" to-port="0"/>
		<edge from-layer="1356" from-port="0" to-layer="1357" to-port="1"/>
		<edge from-layer="1357" from-port="2" to-layer="1358" to-port="0"/>
		<edge from-layer="1358" from-port="2" to-layer="1360" to-port="0"/>
		<edge from-layer="1359" from-port="0" to-layer="1360" to-port="1"/>
		<edge from-layer="1360" from-port="2" to-layer="1366" to-port="0"/>
		<edge from-layer="1360" from-port="2" to-layer="1362" to-port="0"/>
		<edge from-layer="1361" from-port="0" to-layer="1362" to-port="1"/>
		<edge from-layer="1362" from-port="2" to-layer="1363" to-port="0"/>
		<edge from-layer="1363" from-port="1" to-layer="1365" to-port="0"/>
		<edge from-layer="1364" from-port="0" to-layer="1365" to-port="1"/>
		<edge from-layer="1365" from-port="2" to-layer="1366" to-port="1"/>
		<edge from-layer="1366" from-port="2" to-layer="1368" to-port="0"/>
		<edge from-layer="1366" from-port="2" to-layer="1374" to-port="0"/>
		<edge from-layer="1367" from-port="0" to-layer="1373" to-port="0"/>
		<edge from-layer="1368" from-port="1" to-layer="1369" to-port="0"/>
		<edge from-layer="1369" from-port="1" to-layer="1371" to-port="0"/>
		<edge from-layer="1370" from-port="0" to-layer="1371" to-port="1"/>
		<edge from-layer="1371" from-port="2" to-layer="1373" to-port="1"/>
		<edge from-layer="1372" from-port="0" to-layer="1373" to-port="2"/>
		<edge from-layer="1373" from-port="3" to-layer="1374" to-port="1"/>
		<edge from-layer="1374" from-port="2" to-layer="1376" to-port="0"/>
		<edge from-layer="1375" from-port="0" to-layer="1376" to-port="1"/>
		<edge from-layer="1376" from-port="2" to-layer="1377" to-port="0"/>
	</edges>
	<meta_data>
		<MO_version value="2021.4.1-3926-14e67d86634-releases/2021/4"/>
		<cli_parameters>
			<caffe_parser_path value="DIR"/>
			<data_type value="float"/>
			<disable_nhwc_to_nchw value="False"/>
			<disable_omitting_optional value="False"/>
			<disable_resnet_optimization value="False"/>
			<disable_weights_compression value="False"/>
			<enable_concat_optimization value="False"/>
			<enable_flattening_nested_params value="False"/>
			<enable_ssd_gluoncv value="False"/>
			<extensions value="DIR"/>
			<framework value="onnx"/>
			<freeze_placeholder_with_value value="{}"/>
			<generate_deprecated_IR_V7 value="False"/>
			<input_model value="DIR/mbv3s-backbone-3-class-2-view-6-batch-concat-no-batchnorm-bs32-1-c.onnx"/>
			<input_model_is_text value="False"/>
			<k value="DIR/CustomLayersMapping.xml"/>
			<keep_shape_ops value="True"/>
			<legacy_ir_generation value="False"/>
			<legacy_mxnet_model value="False"/>
			<log_level value="ERROR"/>
			<mean_scale_values value="{}"/>
			<mean_values value="()"/>
			<model_name value="mbv3s-backbone-3-class-2-view-6-batch-concat-no-batchnorm-bs32-1-c"/>
			<output_dir value="DIR"/>
			<placeholder_data_types value="{}"/>
			<progress value="False"/>
			<remove_memory value="False"/>
			<remove_output_softmax value="False"/>
			<reverse_input_channels value="False"/>
			<save_params_from_nd value="False"/>
			<scale_values value="()"/>
			<silent value="False"/>
			<static_shape value="False"/>
			<stream_output value="False"/>
			<transform value=""/>
			<unset unset_cli_parameters="batch, counts, disable_fusing, disable_gfusing, finegrain_fusing, input, input_checkpoint, input_meta_graph, input_proto, input_shape, input_symbol, mean_file, mean_file_offsets, move_to_preprocess, nd_prefix_name, output, placeholder_shapes, pretrained_model_name, saved_model_dir, saved_model_tags, scale, tensorboard_logdir, tensorflow_custom_layer_libraries, tensorflow_custom_operations_config_update, tensorflow_object_detection_api_pipeline_config, tensorflow_use_custom_operations_config, transformations_config"/>
		</cli_parameters>
	</meta_data>
</net>
